…
___________________________________________________\r\nAct_Conv1D_1 (Activation)    multiple                  0\r\n_________________________________________________________________\r\nSDropout_1 (SpatialDropout1D multiple                  0\r\n_________________________________________________________________\r\nAct_Conv_Blocks (Activation) multiple                  0\r\n_________________________________________________________________\r\nSlice_Output (Lambda)        multiple                  0\r\n_________________________________________________________________\r\ndense (Dense)                (None, 64)                6464\r\n_________________________________________________________________\r\nleaky_re_lu (LeakyReLU)      (None, 64)                0\r\n_________________________________________________________________\r\ndense_1 (Dense)              (None, 32)                2080\r\n_________________________________________________________________\r\nleaky_re_lu_1 (LeakyReLU)    (None, 32)                0\r\n_________________________________________________________________\r\ndense_2 (Dense)              (None, 16)                528\r\n_________________________________________________________________\r\nleaky_re_lu_2 (LeakyReLU)    (None, 16)                0\r\n_________________________________________________________________\r\ndense_3 (Dense)              (None, 1)                 17\r\n_________________________________________________________________\r\nleaky_re_lu_3 (LeakyReLU)    (None, 1)                 0\r\n=================================================================\r\nTotal params: 162,589\r\nTrainable params: 162,589\r\nNon-trainable params: 0\r\n_________________________________________________________________\r\n```","reactions":{"url":"https://api.github.com/repos/philipperemy/keras-tcn/issues/comments/1257212896/reactions","total_count":0,"+1":0,"-1":0,"laugh":0,"hooray":0,"confused":
…
