…
yers import Activation, Dense, Flatten\r\nfrom tensorflow.keras.optimizers import Adam\r\nfrom tcn import TCN\r\n```\r\n\r\nCalling this build_model for a batchSize=1, numTimeSteps=61, numTargets=12, numFeats=10 gives this result on the old setup:\r\n\r\n```\r\n__________________________________________________________________________________________________\r\nLayer (type)                    Output Shape         Param #     Connected to                     \r\n==================================================================================================\r\ninput_1 (InputLayer)            (1, 61, 10)          0                                            \r\n__________________________________________________________________________________________________\r\nconv1d_1 (Conv1D)               (1, 61, 16)          176         input_1[0][0]                    \r\n__________________________________________________________________________________________________\r\nconv1d_2 (Conv1D)               (1, 61, 16)          784         conv1d_1[0][0]                   \r\n__________________________________________________________________________________________________\r\nbatch_normalization_1 (BatchNor (1, 61, 16)          64          conv1d_2[0][0]                   \r\n__________________________________________________________________________________________________\r\nactivation_1 (Activation)       (1, 61, 16)          0           batch_normalization_1[0][0]      \r\n__________________________________________________________________________________________________\r\nspatial_dropout1d_1 (SpatialDro (1, 61, 16)          0           activation_1[0][0]               \r\n__________________________________________________________________________________________________\r\nconv1d_3 (Conv1D)               (1, 61, 16)          784         spatial_dropout1d_1[0][0]        \r\n__________________________________________________________________________________________________\r\nbatch_normalization_2 (BatchNor (1, 61, 16)          64          conv1d_3[0][0]                   \r\n__________________________________________________________________________________________________\r\nactivation_2 (Activation)       (1, 61, 16)          0           batch_normalization_2[0][0]      \r\n__________________________________________________________________________________________________\r\nconv1d_4 (Conv1D)               (1, 61, 16)          272         conv1d_1[0][0]                   \r\n__________________________________________________________________________________________________\r\nspatial_dropout1d_2 (SpatialDro (1, 61, 16)          0           activation_2[0][0]               \r\n__________________________________________________________________________________________________\r\nadd_1 (Add)                     (1, 61, 16)          0           conv1d_4[0][0]                   \r\n                                                                 spatial_dropout1d_2[0][0]        \r\n__________________________________________________________________________________________________\r\nactivation_3 (Activation)       (1, 61, 16)          0           add_1[0][0]                      \r\n__________________________________________________________________________________________________\r\nconv1d_5 (Conv1D)               (1, 61, 48)          816         activation_3[0][0]               \r\n__________________________________________________________________________________________________\r\nconv1d_6 (Conv1D)               (1, 61, 48)          6960        conv1d_5[0][0]                   \r\n__________________________________________________________________________________________________\r\nbatch_normalization_3 (BatchNor (1, 61, 48)          192         conv1d_6[0][0]                   \r\n__________________________________________________________________________________________________\r\nactivation_4 (Activation)       (1, 61, 48)          0           batch_normalization_3[0][0]      \r\n__________________________________________________________________________________________________\r\nspatial_dropout1d_3 (SpatialDro (1, 61, 48)          0           activation_4[0][0]               \r\n__________________________________________________________________________________________________\r\nconv1d_7 (Conv1D)               (1, 61, 48)          6960        spatial_dropout1d_3[0][0]        \r\n__________________________________________________________________________________________________\r\nbatch_normalization_4 (BatchNor (1, 61, 48)          192         conv1d_7[0][0]                   \r\n__________________________________________________________________________________________________\r\nactivation_5 (Activation)       (1, 61, 48)          0           batch_normalization_4[0][0]      \r\n__________________________________________________________________________________________________\r\nspatial_dropout1d_4 (SpatialDro (1, 61, 48)          0           activation_5[0][0]               \r\n__________________________________________________________________________________________________\r\nconv1d_8 (Conv1D)               (1, 61, 48)          2352        conv1d_5[0][0]                   \r\n__________________________________________________________________________________________________\r\nadd_2 (Add)                     (1, 61, 48)          0           conv1d_8[0][0]                   \r\n                                                                 spatial_dropout1d_4[0][0]        \r\n__________________________________________________________________________________________________\r\nactivation_6 (Activation)       (1, 61, 48)          0           add_2[0][0]                      \r\n__________________________________________________________________________________________________\r\nconv1d_9 (Conv1D)               (1, 61, 48)          6960        activation_6[0][0]               \r\n__________________________________________________________________________________________________\r\nbatch_normalization_5 (BatchNor (1, 61, 48)          192         conv1d_9[0][0]                   \r\n__________________________________________________________________________________________________\r\nactivation_7 (Activation)       (1, 61, 48)          0           batch_normalization_5[0][0]      \r\n__________________________________________________________________________________________________\r\nspatial_dropout1d_5 (SpatialDro (1, 61, 48)          0           activation_7[0][0]               \r\n__________________________________________________________________________________________________\r\nconv1d_10 (Conv1D)              (1, 61, 48)          6960        spatial_dropout1d_5[0][0]        \r\n__________________________________________________________________________________________________\r\nbatch_normalization_6 (BatchNor (1, 61, 48)          192         conv1d_10[0][0]                  \r\n__________________________________________________________________________________________________\r\nactivation_8 (Activation)       (1, 61, 48)          0           batch_normalization_6[0][0]      \r\n__________________________________________________________________________________________________\r\nspatial_dropout1d_6 (SpatialDro (1, 61, 48)          0           activation_8[0][0]               \r\n__________________________________________________________________________________________________\r\nconv1d_11 (Conv1D)              (1, 61, 48)          2352        activation_6[0][0]               \r\n__________________________________________________________________________________________________\r\nadd_3 (Add)                     (1, 61, 48)          0           conv1d_11[0][0]                  \r\n                                                                 spatial_dropout1d_6[0][0]        \r\n__________________________________________________________________________________________________\r\nactivation_9 (Activation)       (1, 61, 48)          0           add_3[0][0]                      \r\n__________________________________________________________________________________________________\r\nconv1d_12 (Conv1D)              (1, 61, 48)          6960        activation_9[0][0]               \r\n__________________________________________________________________________________________________\r\nbatch_normalization_7 (BatchNor (1, 61, 48)          192         conv1d_12[0][0]                  \r\n__________________________________________________________________________________________________\r\nactivation_10 (Activation)      (1, 61, 48)          0           batch_normalization_7[0][0]      \r\n__________________________________________________________________________________________________\r\nspatial_dropout1d_7 (SpatialDro (1, 61, 48)          0           activation_10[0][0]              \r\n__________________________________________________________________________________________________\r\nconv1d_13 (Conv1D)              (1, 61, 48)          6960        spatial_dropout1d_7[0][0]        \r\n__________________________________________________________________________________________________\r\nbatch_normalization_8 (BatchNor (1, 61, 48)          192         conv1d_13[0][0]                  \r\n__________________________________________________________________________________________________\r\nactivation_11 (Activation)      (1, 61, 48)          0           batch_normalization_8[0][0]      \r\n__________________________________________________________________________________________________\r\nspatial_dropout1d_8 (SpatialDro (1, 61, 48)          0           activation_11[0][0]              \r\n__________________________________________________________________________________________________\r\nadd_5 (Add)                     (1, 61, 48)          0           spatial_dropout1d_4[0][0]        \r\n                                                                 spatial_dropout1d_6[0][0]        \r\n                                                                 spatial_dropout1d_8[0][0]        \r\n__________________________________________________________________________________________________\r\naverage_pooling1d_1 (AveragePoo (1, 15, 48)          0           add_5[0][0]                      \r\n__________________________________________________________________________________________________\r\nflatten_1 (Flatten)             (1, 720)             0           average_pooling1d_1[0][0]        \r\n__________________________________________________________________________________________________\r\ndense_1 (Dense)                 (1, 12)              8652        flatten_1[0][0]                  \r\n__________________________________________________________________________________________________\r\nsoftmax (Activation)            (1, 12)              0           dense_1[0][0]                    \r\n==================================================================================================\r\n```\r\n\r\nWhile giving following result on the new setup:\r\n\r\n```\r\n_________________________________________________________________\r\nLayer (type)                 Output Shape              Param #   \r\n=================================================================\r\ninput_1 (InputLayer)         [(1, 61, 10)]             0         \r\n_________________________________________________________________\r\ntcn_0 (TCN)                  (1, 61, 16)               2144      \r\n_________________________________________________________________\r\ntcn_1 (TCN)                  (1, 61, 48)               48432     \r\n_________________________________________________________________\r\naverage_pooling1d (AveragePo (1, 15, 48)               0         \r\n_________________________________________________________________\r\nflatten (Flatten)            (1, 720)                  0         \r\n_________________________________________________________________\r\ndense (Dense)                (1, 12)                   8652      \r\n_________________________________________________________________\r\nsoftmax (Activation)         (1, 12)                   0         \r\n=================================================================\r\n```\r\n\r\nNow, I have models that were trained using the old setup saved. Loading these with the command \r\n`model.load_weights('weights/model.hdf5', by_name=True)` works fine for the old setup, while loading that model in the new setup gives unexpected results. It doesn't give an error when loading, but upon infer
…
