…
__________________________________________________\r\n__________________________________________________________________________________________________\r\n__________________________________________________________________________________________________\r\n\r\n__________________________________________________________________________________________________\r\nLayer (type)                    Output Shape         Param #     Connected to                     \r\n==================================================================================================\r\ninput_1 (InputLayer)            (None, 1000, 1)      0                                            \r\n__________________________________________________________________________________________________\r\nbatch_normalization_1 (BatchNor (None, 1000, 1)      4           input_1[0][0]                    \r\n__________________________________________________________________________________________________\r\nconv1d_1 (Conv1D)               (None, 1000, 32)     64          batch_normalization_1[0][0]      \r\n__________________________________________________________________________________________________\r\nconv1d_2 (Conv1D)               (None, 1000, 32)     32800       conv1d_1[0][0]                   \r\n__________________________________________________________________________________________________\r\nbatch_normalization_2 (BatchNor (None, 1000, 32)     128         conv1d_2[0][0]                   \r\n__________________________________________________________________________________________________\r\nactivation_1 (Activation)       (None, 1000, 32)     0           batch_normalization_2[0][0]      \r\n__________________________________________________________________________________________________\r\nspatial_dropout1d_1 (SpatialDro (None, 1000, 32)     0           activation_1[0][0]               \r\n__________________________________________________________________________________________________\r\nconv1d_3 (Conv1D)               (None, 1000, 32)     32800       spatial_dropout1d_1[0][0]        \r\n__________________________________________________________________________________________________\r\nbatch_normalization_3 (BatchNor (None, 1000, 32)     128         conv1d_3[0][0]                   \r\n__________________________________________________________________________________________________\r\nactivation_2 (Activation)       (None, 1000, 32)     0           batch_normalization_3[0][0]      \r\n__________________________________________________________________________________________________\r\nspatial_dropout1d_2 (SpatialDro (None, 1000, 32)     0           activation_2[0][0]               \r\n__________________________________________________________________________________________________\r\nconv1d_4 (Conv1D)               (None, 1000, 32)     1056        conv1d_1[0][0]                   \r\n__________________________________________________________________________________________________\r\nadd_1 (Add)                     (None, 1000, 32)     0           conv1d_4[0][0]                   \r\n                                                                 spatial_dropout1d_2[0][0]        \r\n__________________________________________________________________________________________________\r\nactivation_3 (Activation)       (None, 1000, 32)     0           add_1[0][0]                      \r\n__________________________________________________________________________________________________\r\nconv1d_5 (Conv1D)               (None, 1000, 32)     32800       activation_3[0][0]               \r\n__________________________________________________________________________________________________\r\nbatch_normalization_4 (BatchNor (None, 1000, 32)     128         conv1d_5[0][0]                   \r\n__________________________________________________________________________________________________\r\nactivation_4 (Activation)       (None, 1000, 32)     0           batch_normalization_4[0][0]      \r\n__________________________________________________________________________________________________\r\nspatial_dropout1d_3 (SpatialDro (None, 1000, 32)     0           activation_4[0][0]               \r\n__________________________________________________________________________________________________\r\nconv1d_6 (Conv1D)               (None, 1000, 32)     32800       spatial_dropout1d_3[0][0]        \r\n__________________________________________________________________________________________________\r\nbatch_normalization_5 (BatchNor (None, 1000, 32)     128         conv1d_6[0][0]                   \r\n__________________________________________________________________________________________________\r\nactivation_5 (Activation)       (None, 1000, 32)     0           batch_normalization_5[0][0]      \r\n__________________________________________________________________________________________________\r\nspatial_dropout1d_4 (SpatialDro (None, 1000, 32)     0           activation_5[0][0]               \r\n__________________________________________________________________________________________________\r\nconv1d_7 (Conv1D)               (None, 1000, 32)     1056        activation_3[0][0]               \r\n__________________________________________________________________________________________________\r\nadd_2 (Add)                     (None, 1000, 32)     0           conv1d_7[0][0]                   \r\n                                                                 spatial_dropout1d_4[0][0]        \r\n__________________________________________________________________________________________________\r\nactivation_6 (Activation)       (None, 1000, 32)     0           add_2[0][0]                      \r\n__________________________________________________________________________________________________\r\nconv1d_8 (Conv1D)               (None, 1000, 32)     32800       activation_6[0][0]               \r\n__________________________________________________________________________________________________\r\nbatch_normalization_6 (BatchNor (None, 1000, 32)     128         conv1d_8[0][0]                   \r\n__________________________________________________________________________________________________\r\nactivation_7 (Activation)       (None, 1000, 32)     0           batch_normalization_6[0][0]      \r\n__________________________________________________________________________________________________\r\nspatial_dropout1d_5 (SpatialDro (None, 1000, 32)     0           activation_7[0][0]               \r\n__________________________________________________________________________________________________\r\nconv1d_9 (Conv1D)               (None, 1000, 32)     32800       spatial_dropout1d_5[0][0]        \r\n__________________________________________________________________________________________________\r\nbatch_normalization_7 (BatchNor (None, 1000, 32)     128         conv1d_9[0][0]                   \r\n__________________________________________________________________________________________________\r\nactivation_8 (Activation)       (None, 1000, 32)     0           batch_normalization_7[0][0]      \r\n__________________________________________________________________________________________________\r\nspatial_dropout1d_6 (SpatialDro (None, 1000, 32)     0           activation_8[0][0]               \r\n__________________________________________________________________________________________________\r\nconv1d_10 (Conv1D)              (None, 1000, 32)     1056        activation_6[0][0]               \r\n__________________________________________________________________________________________________\r\nadd_3 (Add)                     (None, 1000, 32)     0           conv1d_10[0][0]                  \r\n                                                                 spatial_dropout1d_6[0][0]        \r\n__________________________________________________________________________________________________\r\nactivation_9 (Activation)       (None, 1000, 32)     0           add_3[0][0]                      \r\n__________________________________________________________________________________________________\r\nconv1d_11 (Conv1D)              (None, 1000, 32)     32800       activation_9[0][0]               \r\n__________________________________________________________________________________________________\r\nbatch_normalization_8 (BatchNor (None, 1000, 32)     128         conv1d_11[0][0]                  \r\n__________________________________________________________________________________________________\r\nactivation_10 (Activation)      (None, 1000, 32)     0           batch_normalization_8[0][0]      \r\n__________________________________________________________________________________________________\r\nspatial_dropout1d_7 (SpatialDro (None, 1000, 32)     0           activation_10[0][0]              \r\n__________________________________________________________________________________________________\r\nconv1d_12 (Conv1D)              (None, 1000, 32)     32800       spatial_dropout1d_7[0][0]        \r\n__________________________________________________________________________________________________\r\nbatch_normalization_9 (BatchNor (None, 1000, 32)     128         conv1d_12[0][0]                  \r\n__________________________________________________________________________________________________\r\nactivation_11 (Activation)      (None, 1000, 32)     0           batch_normalization_9[0][0]      \r\n__________________________________________________________________________________________________\r\nspatial_dropout1d_8 (SpatialDro (None, 1000, 32)     0           activation_11[0][0]              \r\n__________________________________________________________________________________________________\r\nconv1d_13 (Conv1D)              (None, 1000, 32)     1056        activation_9[0][0]               \r\n__________________________________________________________________________________________________\r\nadd_4 (Add)                     (None, 1000, 32)     0           conv1d_13[0][0]                  \r\n                                                                 spatial_dropout1d_8[0][0]        \r\n__________________________________________________________________________________________________\r\nactivation_12 (Activation)      (None, 1000, 32)     0           add_4[0][0]                      \r\n__________________________________________________________________________________________________\r\nconv1d_14 (Conv1D)              (None, 1000, 32)     32800       activation_12[0][0]              \r\n__________________________________________________________________________________________________\r\nbatch_normalization_10 (BatchNo (None, 1000, 32)     128         conv1d_14[0][0]                  \r\n__________________________________________________________________________________________________\r\nactivation_13 (Activation)      (None, 1000, 32)     0           batch_normalization_10[0][0]     \r\n__________________________________________________________________________________________________\r\nspatial_dropout1d_9 (SpatialDro (None, 1000, 32)     0           activation_13[0][0]              \r\n__________________________________________________________________________________________________\r\nconv1d_15 (Conv1D)              (None, 1000, 32)     32800       spatial_dropout1d_9[0][0]        \r\n__________________________________________________________________________________________________\r\nbatch_normalization_11 (BatchNo (None, 1000, 32)     128         conv1d_15[0][0]                  \r\n__________________________________________________________________________________________________\r\nactivation_14 (Activation)      (None, 1000, 32)     0           batch_normalization_11[0][0]     \r\n__________________________________________________________________________________________________\r\nspatial_dropout1d_10 (SpatialDr (None, 1000, 32)     0           activation_14[0][0]              \r\n__________________________________________________________________________________________________\r\nconv1d_16 (Conv1D)              (None, 1000, 32)     1056        activation_12[0][0]              \r\n__________________________________________________________________________________________________\r\nadd_5 (Add)                     (None, 1000, 32)     0           conv1d_16[0][0]                  \r\n                                                                 spatial_dropout1d_10[0][0]       \r\n__________________________________________________________________________________________________\r\nactivation_15 (Activation)      (None, 1000, 32)     0           add_5[0][0]                      \r\n__________________________________________________________________________________________________\r\nconv1d_17 (Conv1D)              (None, 1000, 32)     32800       activation_15[0][0]              \r\n__________________________________________________________________________________________________\r\nbatch_normalization_12 (BatchNo (None, 1000, 32)     128         conv1d_17[0][0]                  \r\n__________________________________________________________________________________________________\r\nactivation_16 (Activation)      (None, 1000, 32)     0           batch_normalization_12[0][0]     \r\n__________________________________________________________________________________________________\r\nspatial_dropout1d_11 (SpatialDr (None, 1000, 32)     0           activation_16[0][0]              \r\n__________________________________________________________________________________________________\r\nconv1d_18 (Conv1D)              (None, 1000, 32)     32800       spatial_dropout1d_11[0][0]       \r\n__________________________________________________________________________________________________\r\nbatch_normalization_13 (BatchNo (None, 1000, 32)     128         conv1d_18[0][0]                  \r\n__________________________________________________________________________________________________\r\nactivation_17 (Activation)      (None, 1000, 32)     0           batch_normalization_13[0][0]     \r\n__________________________________________________________________________________________________\r\nspatial_dropout1d_12 (SpatialDr (None, 1000, 32)     0           activation_17[0][0]              \r\n__________________________________________________________________________________________________\r\nconv1d_19 (Conv1D)              (None, 1000, 32)     1056        activation_15[0][0]              \r\n__________________________________________________________________________________________________\r\nadd_6 (Add)                     (None, 1000, 32)     0           conv1d_19[0][0]                  \r\n                                                                 spatial_dropout1d_12[0][0]       \r\n__________________________________________________________________________________________________\r\nactivation_18 (Activation)      (None, 1000, 32)     0           add_6[0][0]                      \r\n__________________________________________________________________________________________________\r\nconv1d_20 (Conv1D)              (None, 1000, 32)     32800       activation_18[0][0]              \r\n__________________________________________________________________________________________________\r\nbatch_normalization_14 (BatchNo (None, 1000, 32)     128         conv1d_20[0][0]                  \r\n__________________________________________________________________________________________________\r\nactivation_19 (Activation)      (None, 1000, 32)     0           batch_normalization_14[0][0]     \r\n__________________________________________________________________________________________________\r\nspatial_dropout1d_13 (SpatialDr (None, 1000, 32)     0           activation_19[0][0]              \r\n__________________________________________________________________________________________________\r\nconv1d_21 (Conv1D)              (None, 1000, 32)     32800       spatial_dropout1d_13[0][0]       \r\n__________________________________________________________________________________________________\r\nbatch_normalization_15 (BatchNo (None, 1000, 32)     128         conv1d_21[0][0]                  \r\n__________________________________________________________________________________________________\r\nactivation_20 (Activation)      (None, 1000, 32)     0           batch_normalization_15[0][0]     \r\n__________________________________________________________________________________________________\r\nspatial_dropout1d_14 (SpatialDr (None, 1000, 32)     0           activation_20[0][0]              \r\n__________________________________________________________________________________________________\r\nconv1d_22 (Conv1D)              (None, 1000, 32)     1056        activation_18[0][0]              \r\n__________________________________________________________________________________________________\r\nadd_7 (Add)                     (None, 1000, 32)     0           conv1d_22[0][0]                  \r\n                                                                 spatial_dropout1d_14[0][0]       \r\n__________________________________________________________________________________________________\r\nactivation_21 (Activation)      (None, 1000, 32)     0           add_7[0][0]                      \r\n__________________________________________________________________________________________________\r\nconv1d_23 (Conv1D)              (None, 1000, 32)     32800       activation_21[0][0]              \r\n__________________________________________________________________________________________________\r\nbatch_normalization_16 (BatchNo (None, 1000, 32)     128         conv1d_23[0][0]                  \r\n__________________________________________________________________________________________________\r\nactivation_22 (Activation)      (None, 1000, 32)     0           batch_normalization_16[0][0]     \r\n__________________________________________________________________________________________________\r\nspatial_dropout1d_15 (SpatialDr (None, 1000, 32)     0           activation_22[0][0]              \r\n__________________________________________________________________________________________________\r\nconv1d_24 (Conv1D)              (None, 1000, 32)     32800       spatial_dropout1d_15[0][0]       \r\n__________________________________________________________________________________________________\r\nbatch_normalization_17 (BatchNo (None, 1000, 32)     128         conv1d_24[0][0]                  \r\n__________________________________________________________________________________________________\r\nactivation_23 (Activation)      (None, 1000, 32)     0           batch_normalization_17[0][0]     \r\n__________________________________________________________________________________________________\r\nspatial_dropout1d_16 (SpatialDr (None, 1000, 32)     0           activation_23[0][0]              \r\n__________________________________________________________________________________________________\r\nconv1d_25 (Conv1D)              (None, 1000, 32)     1056        activation_21[0][0]              \r\n__________________________________________________________________________________________________\r\nadd_8 (Add)                     (None, 1000, 32)     0           conv1d_25[0][0]                  \r\n                                                                 spatial_dropout1d_16[0][0]       \r\n__________________________________________________________________________________________________\r\nactivation_24 (Activation)      (None, 1000, 32)     0           add_8[0][0]                      \r\n__________________________________________________________________________________________________\r\nconv1d_26 (Conv1D)              (None, 1000, 32)     32800       activation_24[0][0]              \r\n__________________________________________________________________________________________________\r\nbatch_normalization_18 (BatchNo (None, 1000, 32)     128         conv1d_26[0][0]                  \r\n__________________________________________________________________________________________________\r\nactivation_25 (Activation)      (None, 1000, 32)     0           batch_normalization_18[0][0]     \r\n__________________________________________________________________________________________________\r\nspatial_dropout1d_17 (SpatialDr (None, 1000, 32)     0           activation_25[0][0]              \r\n__________________________________________________________________________________________________\r\nconv1d_27 (Conv1D)              (None, 1000, 32)     32800       spatial_dropout1d_17[0][0]       \r\n__________________________________________________________________________________________________\r\nbatch_normalization_19 (BatchNo (None, 1000, 32)     128         conv1d_27[0][0]                  \r\n__________________________________________________________________________________________________\r\nactivation_26 (Activation)      (None, 1000, 32)     0           batch_normalization_19[0][0]     \r\n__________________________________________________________________________________________________\r\nspatial_dropout1d_18 (SpatialDr (None, 1000, 32)     0           activation_26[0][0]              \r\n__________________________________________________________________________________________________\r\nadd_10 (Add)                    (None, 1000, 32)     0           spatial_dropout1d_2[0][0]        \r\n                                                                 spatial_dropout1d_4[0][0]        \r\n                                                                 spatial_dropout1d_6[0][0]        \r\n                                                                 spatial_dropout1d_8[0][0]        \r\n                                              
…
______________________________\r\n\r\nNew TCN:\r\n\r\n__________________________________________________________________________________________________\r\n__________________________________________________________________________________________________\r\n__________________________________________________________________________________________________\r\n\r\n_________________________________________________________________\r\nLayer (type)                 Output Shape              Param #   \r\n=================================================================\r\ninput_1 (InputLayer)         (None, 1000, 1)           0         \r\n_________________________________________________________________\r\nbatch_normalization_1 (Batch (None, 1000, 1)           4         \r\n_________________________________________________________________\r\ntcn_1 (TCN)                  (None, 1000, 32)          601216    \r\n_________________________________________________________________\r\ndropout_1 (Dropout)          (None, 1000, 32)          0         \r\n_________________________________________________________________\r\ndense_1 (Dense)              (None, 1000, 8)           264       \r\n_________________________________________________________________\r\nactivation_28 (Activation)   (None, 1000, 8)           0         \r\n=================================================================\r\nTotal params: 601,484\r\nTrainable params: 600,330\r\nNon-trainable params: 1,154\r\n_________________________________________________________________\r\nWARNING:tensorflow:From /usr/local/lib/python3.6/dist-packages/tensorflow_core/python/ops/math_grad.py:1424: where (from tensorflow.python.ops.array_ops) is depreca
…
