…
coder.channels[1:])\r\n        self.logits = nn.Conv2d(self.decoder.channels[0], num_classes, kernel_size=1)\r\n\r\n    def forward(self, x):\r\n        x = self.encoder(x)\r\n        x = self.decoder(x)\r\n        return self.logits(x[0])\r\n    \r\nmodel= UNet(input_channels= 3, num_classes= 1)\r\n\r\nout = model(torch.randn(2, 3, 512, 512))\r\nprint(out.shape)\r\n```\r\n\r\nOutput:\r\n\r\n```python\r\ntorch.Size([2, 1, 512, 512])\r\n```\r\n\r\n\r\nPrinting out the model gives the following output:\r\n```python\r\nUNet(\r\n  (encoder): UnetEncoder(\r\n    (layer0): UnetBlock(\r\n      (conv1): Conv2d(3, 32, kernel_size=(3, 3), stride=(1, 1), padding=(1, 1), bias=False)\r\n      (abn1): Sequential(\r\n        (bn): BatchNorm2d(32, eps=1e-05, momentum=0.1, affine=True, track_running_stats=True)\r\n        (relu): ReLU(inplace=True)\r\n      )\r\n      (conv2): Conv2d(32, 32, kernel_size=(3, 3), stride=(1, 1), padding=(1, 1), bias=False)\r\n      (abn2): Sequential(\r\n        (bn): BatchNorm2d(32, eps=1e-05, momentum=0.1, affine=True, track_running_stats=True)\r\n        (relu): ReLU(inplace=True)\r\n      )\r\n    )\r\n    (layer1): Sequential(\r\n      (pool): MaxPool2d(kernel_size=2, stride=2, padding=0, dilation=1, ceil_mode=False)\r\n      (conv): UnetBlock(\r\n        (conv1): Conv2d(32, 64, kernel_size=(3, 3), stride=(1, 1), padding=(1, 1), bias=False)\r\n        (abn1): Sequential(\r\n          (bn): BatchNorm2d(64, eps=1e-05, momentum=0.1, affine=True, track_running_stats=True)\r\n          (relu): ReLU(inplace=True)\r\n        )\r\n        (conv2): Conv2d(64, 64, kernel_size=(3, 3), stride=(1, 1), padding=(1, 1), bias=False)\r\n        (abn2): Sequential(\r\n          (bn): BatchNorm2d(64, eps=1e-05, momentum=0.1, affine=True, track_running_stats=True)\r\n          (relu): ReLU(inplace=True)\r\n        )\r\n      )\r\n    )\r\n    (layer2): Sequential(\r\n      (pool): MaxPool2d(kernel_size=2, stride=2, padding=0, dilation=1, ceil_mode=False)\r\n      (conv): UnetBlock(\r\n        (conv1): Conv2d(64, 128, kernel_size=(3, 3), stride=(1, 1), padding=(1, 1), bias=False)\r\n        (abn1): Sequential(\r\n          (bn): BatchNorm2d(128, eps=1e-05, momentum=0.1, affine=True, track_running_stats=True)\r\n          (relu): ReLU(inplace=True)\r\n        )\r\n        (conv2): Conv2d(128, 128, kernel_size=(3, 3), stride=(1, 1), padding=(1, 1), bias=False)\r\n        (abn2): Sequential(\r\n          (bn): BatchNorm2d(128, eps=1e-05, momentum=0.1, affine=True, track_running_stats=True)\r\n          (relu): ReLU(inplace=True)\r\n        )\r\n      )\r\n    )\r\n    (layer3): Sequential(\r\n      (pool): MaxPool2d(kernel_size=2, stride=2, padding=0, dilation=1, ceil_mode=False)\r\n      (conv): UnetBlock(\r\n        (conv1): Conv2d(128, 256, kernel_size=(3, 3), stride=(1, 1), padding=(1, 1), bias=False)\r\n        (abn1): Sequential(\r\n          (bn): BatchNorm2d(256, eps=1e-05, momentum=0.1, affine=True, track_running_stats=True)\r\n          (relu): ReLU(inplace=True)\r\n        )\r\n        (conv2): Conv2d(256, 256, kernel_size=(3, 3), stride=(1, 1), padding=(1, 1), bias=False)\r\n        (abn2): Sequential(\r\n          (bn): BatchNorm2d(256, eps=1e-05, momentum=0.1, affine=True, track_running_stats=True)\r\n          (relu): ReLU(inplace=True)\r\n        )\r\n      )\r\n    )\r\n  )\r\n  (decoder): UNetDecoder(\r\n    (blocks): ModuleList(\r\n      (0): UnetBlock(\r\n        (conv1): Conv2d(256, 256, kernel_size=(3, 3), stride=(1, 1), padding=(1, 1), bias=False)\r\n        (abn1): Sequential(\r\n          (bn): BatchNorm2d(256, eps=1e-05, momentum=0.1, affine=True, track_running_stats=True)\r\n          (relu): ReLU(inplace=True)\r\n        )\r\n        (conv2): Conv2d(256, 256, kernel_size=(3, 3), stride=(1, 1), padding=(1, 1), bias=False)\r\n        (abn2): Sequential(\r\n          (bn): BatchNorm2d(256, eps=1e-05, momentum=0.1, affine=True, track_running_stats=True)\r\n          (relu): ReLU(inplace=True)\r\n        )\r\n      )\r\n      (1): UnetBlock(\r\n        (conv1): Conv2d(192, 128, kernel_size=(3, 3), stride=(1, 1), padding=(1, 1), bias=False)\r\n        (abn1): Sequential(\r\n          (bn): BatchNorm2d(128, eps=1e-05, momentum=0.1, affine=True, track_running_stats=True)\r\n          (relu): ReLU(inplace=True)\r\n        )\r\n        (conv2): Conv2d(128, 128, kernel_size=(3, 3), stride=(1, 1), padding=(1, 1), bias=False)\r\n        (abn2): Sequential(\r\n          (bn): BatchNorm2d(128, eps=1e-05, momentum=0.1, affine=True, track_running_stats=True)\r\n          (relu): ReLU(inplace=True)\r\n        )\r\n      )\r\n      (2): UnetBlock(\r\n        (conv1): Conv2d(96, 64, kernel_size=(3, 3), stride=(1, 1), padding=(1, 1), bias=False)\r\n        (abn1): Sequential(\r\n          (bn): BatchNorm2d(64, eps=1e-05, momentum=0.1, affine=True, track_running_stats=True)\r\n          (relu): ReLU(inplace=True)\r\n        )\r\n        (conv2): Conv2d(64, 64, kernel_size=(3, 3), stride=(1, 1), padding=(1, 1), bias=False)\r\n        (abn2): Sequential(\r\n          (bn): BatchNorm2d(64, eps=1e-05, momentum=0.1, affine=True, track_running_stats=True)\r\n          (relu): ReLU(inplace=True)\r\n        )\r\n      )\r\n    )\r\n    (upsamples): ModuleList(\r\n      (0): ConvTranspose2d(256, 128, kernel_size=(3, 3), stride=(2, 2), padding=(1, 1))\r\n      (1): ConvTranspose2d(256, 128, kernel_size=(3, 3), stride=(2, 2), padding=(1, 1))\r\n      (2): ConvTranspose2d(128, 64, kernel_size=(3, 3), stride=(2, 2), padding=(1, 1))\r\n    )\r\n  )\r\n  (logits): Conv2d(64, 1, kernel_size=(1, 1), stride=(1, 1))\r\n)\r\n```\r\n","reactions":{"url":"https://api.github.com/repos/BloodAxe/pytorch-toolbelt/issues/comments/800480644/reactions","total_count":0,"+1":0,"-1":0,"laugh":0,"hooray":0,"confused":0,"heart":0,"rocket":0,"eyes":0},"performed_via_github_app":null,"event":"commented","actor":{"login":"Nachimak28","id":23210132,"node_id":"MDQ6VXNlcjIzMjEwMTMy","avat
…
