…
entioned above.\r\n\r\nSo in the line `arser.add_argument('--cfg', type=str, default='yolov3.yaml', help='model.yaml')` within the yolo.py argparser https://github.com/ultralytics/yolov3/blob/ab7ff9dd4c8b8e5a2c282fee93e975887a91ff7b/models/yolo.py#L288\r\n\r\nI changed the value of default to yolov3-tiny.yaml. `default='yolov3-tiny.yaml'` and I got these following results:\r\n\r\n```\r\nYOLOv3 ðŸš€ v9.5.0-14-g327ecbf torch 1.8.1+cu102 CPU\r\n\r\n\r\n                 from  n    params  module                                  arguments                     \r\n  0                -1  1       464  models.common.Conv                      [3, 16, 3, 1]                 \r\n  1                -1  1         0  torch.nn.modules.pooling.MaxPool2d      [2, 2, 0]                     \r\n  2                -1  1      4672  models.common.Conv                      [16, 32, 3, 1]                \r\n  3                -1  1         0  torch.nn.modules.pooling.MaxPool2d      [2, 2, 0]                     \r\n  4                -1  1     18560  models.common.Conv                      [32, 64, 3, 1]                \r\n  5                -1  1         0  torch.nn.modules.pooling.MaxPool2d      [2, 2, 0]                     \r\n  6                -1  1     73984  models.common.Conv                      [64, 128, 3, 1]               \r\n  7                -1  1         0  torch.nn.modules.pooling.MaxPool2d      [2, 2, 0]                     \r\n  8                -1  1    295424  models.common.Conv                      [128, 256, 3, 1]              \r\n  9                -1  1         0  torch.nn.modules.pooling.MaxPool2d      [2, 2, 0]                     \r\n 10                -1  1   1180672  models.common.Conv                      [256, 512, 3, 1]              \r\n 11                -1  1         0  torch.nn.modules.padding.ZeroPad2d      [[0, 1, 0, 1]]                \r\n 12                -1  1         0  torch.nn.modules.pooling.MaxPool2d      [2, 1, 0]                     \r\n 13                -1  1   4720640  models.common.Conv                      [512, 1024, 3, 1]             \r\n 14                -1  1    262656  models.common.Conv                      [1024, 256, 1, 1]             \r\n 15                -1  1   1180672  models.common.Conv                      [256, 512, 3, 1]              \r\n 16                -2  1     33024  models.common.Conv                      [256, 128, 1, 1]              \r\n 17                -1  1         0  torch.nn.modules.upsampling.Upsample    [None, 2, 'nearest']          \r\n 18           [-1, 8]  1         0  models.common.Concat                    [1]                           \r\n 19                -1  1    885248  models.common.Conv                      [384, 256, 3, 1]              \r\n 20          [19, 15]  1    196350  Detect                                  [80, [[10, 14, 23, 27, 37, 58], [81, 82, 135, 169, 344, 319]], [256, 512]]\r\n[W NNPACK.cpp:80] Could not initialize NNPACK! Reason: Unsupported hardware.\r\nModel Summary: 59 layers, 8852366 parameters, 8852366 gradients, 13.3 GFLOPS\r\n\r\n time (ms)     GFLOPS     params  module\r\n     
…
