…
lse,"disabled":false,"open_issues_count":57,"license":{"key":"mit","name":"MIT License","spdx_id":"MIT","url":"https://api.github.com/licenses/mit","node_id":"MDc6TGljZW5zZTEz"},"allow_forking":true,"is_template":false,"web_commit_signoff_required":false,"topics":["detection","mobilenet","pytorch","rfbnet"],"visibility":"public","forks":358,"open_issues":57,"watchers":1378,"default_branch":"master","permissions":{"admin":false,"maintain":false,"push":false,"triage":false,"pull":true}},"body":"I met a BUG, who knows the reason? Thank you\r\n....\r\n....\r\n....\r\n  (loc): ModuleList(\r\n    (0): Conv2d(512, 24, kernel_size=(3, 3), stride=(1, 1), padding=(1, 1))\r\n    (1): Conv2d(1024, 24, kernel_size=(3, 3), stride=(1, 1), padding=(1, 1))\r\n    (2): Conv2d(512, 24, kernel_size=(3, 3), stride=(1, 1), padding=(1, 1))\r\n    (3): Conv2d(256, 24, kernel_size=(3, 3), stride=(1, 1), padding=(1, 1))\r\n    (4): Conv2d(256, 16, kernel_size=(3, 3), stride=(1, 1), padding=(1, 1))\r\n    (5): Conv2d(256, 16, kernel_size=(3, 3), stride=(1, 1), padding=(1, 1))\r\n  )\r\n  (conf): ModuleList(\r\n    (0): Conv2d(512, 126, kernel_size=(3, 3), stride=(1, 1), padding=(1, 1))\r\n    (1): Conv2d(1024, 126, kernel_size=(3, 3), stride=(1, 1), padding=(1, 1))\r\n    (2): Conv2d(512, 126, kernel_size=(3, 3), stride=(1, 1), padding=(1, 1))\r\n    (3): Conv2d(256, 126, kernel_size=(3, 3), stride=(1, 1), padding=(1, 1))\r\n    (4): Conv2d(256, 84, kernel_size=(3, 3), stride=(1, 1), padding=(1, 1))\r\n    (5): Conv2d(256, 84, kernel_size=(3, 3), stride=(1, 1), padding=(1, 1))\r\n  )\r\n)\r\nLoading base network...\r\nInitializing weights...\r\nLoading Dataset...\r\nTraining RFB_vgg on VOC0712\r\nERROR: Unexpected bus error encountered in worker. This might be caused by insufficient shared memory (shm).\r\nTraceback (most recent call last):\r\n  File \"train_RFB.py\", line 257, in <module>\r\n    train()\r\n  F
…
