…
arred{/owner}{/repo}","subscriptions_url":"https://api.github.com/users/bingnoi/subscriptions","organizations_url":"https://api.github.com/users/bingnoi/orgs","repos_url":"https://api.github.com/users/bingnoi/repos","events_url":"https://api.github.com/users/bingnoi/events{/privacy}","received_events_url":"https://api.github.com/users/bingnoi/received_events","type":"User","site_admin":false},"created_at":"2020-02-10T04:39:49Z","updated_at":"2020-02-10T04:39:49Z","author_association":"NONE","body":"Thanks first.\r\n   layer     filters    size              input                output\r\n  105 conv     21  1 x 1 / 1    76 x  76 x 256   ->    76 x  76 x  21  0.062 BFLOPs\r\n  106 yolo         ##this is the normal end of yolov3,the last yolo layer\r\n  107 route  103\r\n  108 conv     64  1 x 1 / 1    76 x  76 x 128   ->    76 x  76 x  64  0.095 BFLOPs\r\n  109 upsample            2x    76 x  76 x  64   ->   152 x 152 x  64\r\n  110 route  109 11\r\n  111 conv     64  1 x 1 / 1   152 x 152 x 192   ->   152 x 152 x  64  0.568 BFLOPs\r\n  112 conv    128  3 x 3 / 1   152 x 152 x  64   ->   152 x 152 x 128  3.407 BFLOPs\r\n  113 conv     64  1 x 1 / 1   152 x 152 x 128   ->   152 x 152 x  64  0.379 BFLOPs\r\n  114 conv    128  3 x 3 / 1   152 x 152 x  64   ->   152 x 152 x 128  3.407 BFLOPs\r\n  115 conv     64  1 x 1 / 1   152 x 152 x 128   ->   152 x 152 x  64  0.379 BFLOPs\r\n  116 conv    128  3 x 3 / 1   152 x 152 x  64   ->   152 x 152 x 128  3.407 BFLOPs\r\n  117 conv     21  1 x 1 / 1   152 x 152 x 128   ->   152 x 152 x  21  0.124 BFLOPs\r\n  118 yolo\r\n\r\nThis is the modification i made to the yolov3.cfg, then the bug reported.\r\n","reactions":{"url":"https://api.github.com/repos/ultralytics/yolov3/issues/comments/583952237/reactions","total_count":0,"+1":0,"-1":0,"laugh":0,"hooray":0,"confused":0,"heart":0,"rocket":0,"eyes":0},"performed_via_github_app":null,"event":"com
…
