…
   [-1, 1, nn.Conv2d, [na * (nc + 5), 1, 1]], #  28/(P4/16-medium)\r\n\r\n   [-1, 1, DWConv, [512, 3, 2]],\r\n   [[-1, 13], 1, Concat, [1]],  # cat head P4\r\n   [-1, 1, DWConv, [1024, 3, 1]],\r\n   [-1, 3, GhostBottleneck, [1024, 3, 1]],\r\n   [-1, 1, nn.Conv2d, [na * (nc + 5), 1, 1]], #  33/(P5/32-large)\r\n\r\n   [[23, 28, 33], 1, Detect, [nc, anchors]],  # Detect(P3, P4, P5)\r\n  ]\r\n```\r\n\r\n\r\nand train process is done with\r\n\r\n ```\r\n                  from  n    params  module                                  arguments                     \r\n  0                -1  1      3520  models.common.Focus                     [3, 32, 3]                    \r\n  1                -1  1     18560  models.common.Conv                      [32, 64, 3, 2]                \r\n  2                -1  1      3440  models.common.GhostBottleneck           [64, 64, 3, 1]                \r\n  3                -1  1     18784  models.common.GhostBottleneck           [64, 128, 3, 2]               \r\n  4                -1  3     32928  models.common.GhostBottleneck           [128, 128, 3, 1]              \r\n  5                -1  1      2048  models.common.SELayer                   [128, 16]                     \r\n  6                -1  1     66240  models.common.GhostBottleneck           [128, 256, 3, 2]              \r\n  7                -1  3    115008  models.common.GhostBottleneck           [256, 256, 3, 1]              \r\n  8                -1  1      8192  models.common.SELayer                   [256, 16]                     \r\n  9                -1  1   1180672  models.common.Conv                      [256, 512, 3, 2]              \r\n 10                -1  1    656896  models.common.SPP                       [512, 512, [5, 9, 13]]        \r\n 11                -1  1     32768  models.common.SELayer                   [512, 16]                     \r\n 12                -1  1    142208  models.common.GhostBottleneck           [512, 512, 3, 1]              \r\n 13                -1  1      1024  n DWConv at 0x7efff986a9d               [512, 256, 1, 1]              \r\n 14                -1  1         0  torch.nn.modules.upsampling.Upsample    [None, 2, 'nearest']          \r\n 15           [-1, 8]  1         0  models.common.Concat                    [1]                           \r\n 16                -1  1      5120  n DWConv at 0x7efff986a9d               [512, 256, 3, 1]              \r\n 17                -1  1     38336  models.common.GhostBottleneck           [256, 256, 3, 1]              \r\n 18                -1  1       512  n DWConv at 0x7efff986a9d               [256, 128, 1, 1]              \r\n 19                -1  1         0  torch.nn.modules.upsampling.Upsample    [None, 2, 'nearest']          \r\n 20           [-1, 5]  1         0  models.common.Concat                    [1]                           \r\n 21                -1  1      2560  n DWConv at 0x7efff986a9d               [256, 128, 3, 1]              \r\n 22                -1  1     10976  models.common.GhostBottleneck           [128, 128, 3, 1]              \r\n 23                -1  1      2322  torch.nn.modules.conv.Conv2d            [128, 18, 1, 1]               \r\n 24                -1  1     10624  n DWConv at 0x7efff986a9d               [18, 128, 3, 2]               \r\n 25          [-1, 18]  1         0  models.common.Concat                    [1]                           \r\n 26                -1  1      2816  n DWConv at 0x7efff986a9d               [256, 256, 3, 1]              \r\n 27                -1  1     38336  models.common.GhostBottleneck           [256, 256, 3, 1]              \r\n 28                -1  1      4626  torch.nn.modules.conv.Conv2d            [256, 18, 1, 1]               \r\n 29                -1  1     21248  n DWConv at 0x7efff986a9d               [18, 256, 3, 2]               \r\n 30          [-1, 13]  1         0  models.common.Concat                    [1]                           \r\n 31                -1  1      5632  n DWConv at 0x7efff986a9d               [512, 512, 3, 1]              \r\n 32                -1  1    142208  models.common.GhostBottleneck           [512, 512, 3, 1]              \r\n 33                -1  1      9234  torch.nn.modules.conv.Conv2d            [512, 18, 1, 1]               \r\n 34      [23, 28, 33]  1      1026  models.yolo.Detect                      [1, [[10, 13, 16, 30, 33, 23], [30, 61, 62, 45, 59, 119], [116, 90, 156, 198, 373, 326]], [18, 18, 18]]\r\nModel Summary: 243 layers, 2.57786e+06 parameters, 2.57786e+06 gradients\r\n\r\nOptimizer groups: 81 .bias, 87 conv.weight, 75 other\r\n```\r\n## Additional context\r\n\r\nthen I used 
…
