…
","subscriptions_url":"https://api.github.com/users/pprp/subscriptions","organizations_url":"https://api.github.com/users/pprp/orgs","repos_url":"https://api.github.com/users/pprp/repos","events_url":"https://api.github.com/users/pprp/events{/privacy}","received_events_url":"https://api.github.com/users/pprp/received_events","type":"User","site_admin":false},"created_at":"2019-02-21T13:40:12Z","updated_at":"2019-02-21T13:40:12Z","author_association":"NONE","body":"This is v3tiny_dpj.cfg 's network structure.\r\n```\r\nlayer     filters    size              input                output\r\n    0 conv     16  3 x 3 / 1   608 x 608 x   3   ->   608 x 608 x  16  0.319 BFLOPs\r\n    1 conv     16  3 x 3 / 2   608 x 608 x  16   ->   304 x 304 x  16  0.426 BFLOPs\r\n    2 conv     32  3 x 3 / 1   304 x 304 x  16   ->   304 x 304 x  32  0.852 BFLOPs\r\n    3 conv     32  3 x 3 / 2   304 x 304 x  32   ->   152 x 152 x  32  0.426 BFLOPs\r\n    4 conv     64  3 x 3 / 1   152 x 152 x  32   ->   152 x 152 x  64  0.852 BFLOPs\r\n    5 conv     64  3 x 3 / 2   152 x 152 x  64   ->    76 x  76 x  64  0.426 BFLOPs\r\n    6 conv    128  3 x 3 / 1    76 x  76 x  64   ->    76 x  76 x 128  0.852 BFLOPs\r\n    7 conv    128  3 x 3 / 2    76 x  76 x 128   ->    38 x  38 x 128  0.426 BFLOPs\r\n    8 conv    256  3 x 3 / 1    38 x  38 x 128   ->    38 x  38 x 256  0.852 BFLOPs\r\n    9 conv    256  3 x 3 / 2    38 x  38 x 256   ->    19 x  19 x 256  0.426 BFLOPs\r\n   10 conv    512  3 x 3 / 1    19 x  19 x 256   ->    19 x  19 x 512  0.852 BFLOPs\r\n   11 conv    512  1 x 1 / 1    19 x  19 x 512   ->    19 x  19 x 512  0.189 BFLOPs\r\n   12 conv   1024  3 x 3 / 1    19 x  19 x 512   ->    19 x  19 x1024  3.407 BFLOPs\r\n   13 max          5 x 5 / 1    19 x  19 x1024   ->    19 x  19 x1024\r\n   14 route  12\r\n   15 max          9 x 9 / 1    19 x  19 x1024   ->    19 x  19 x1024\r\n   16 route  12\r\n   17 max          13 x 13 / 1    19 x  19 x1024   ->    19 x  19 x1024\r\n   18 route  17 15 13 12\r\n   19 conv    256  1 x 1 / 1    19 x  19 x4096   ->    19 x  19 x 256  0.757 BFLOPs\r\n   20 conv    512  3 x 3 / 1    19 x  19 x 256   ->    19 x  19 x 512  0.852 BFLOPs\r\n   21 conv     24  1 x 1 / 1    19 x  19 x 512   ->    19 x  19 x  24  0.009 BFLOPs\r\n   22 yolo\r\n   23 route  19\r\n   24 conv    128  1 x 1 / 1    19 x  19 x 256   ->    19 x  19 x 128  0.024 BFLOPs\r\n   25 upsample            2x    19 x  19 x 128   ->    38 x  38 x 128\r\n   26 route  25 8\r\n   27 conv    256  3 x 3 / 1    38 x  38 x 384   ->    38 x  38 x 256  2.555 BFLOPs\r\n   28 conv     24  1 x 1 / 1    38 x  38 x 256   ->    38 x  38 x  24  0.018 BFLOPs\r\n   29 yolo\r\n   30 route  26\r\n   31 conv    256  1 x 1 / 1    38 x  38 x 384   ->    38 x  38 x 256  0.284 BFLOPs\r\n   32 upsample            2x    38 x  38 x 256   ->    76 x  76 x 256\r\n   33 route  32 6\r\n   34 conv    256  1 x 1 / 1    76 x  76 x 384   ->    76 x  76 x 256  1.136 BFLOPs\r\n   35 conv    512  3 x 3 / 1    76 x  76 x 256   ->    76 x  76 x 512  13.627 BFLOPs\r\n   36 res   33                  76 x  76 x 384   ->    76 x  76 x 512\r\n   37 conv    128  1 x 1 / 1    76 x  76 x 512   ->    76 x  76 x 128  0.757 BFLOPs\r\n   38 conv     24  1 x 1 / 1    76 x  76 x 128   ->    76 x  76 x  24  0.035 BFLOPs\r\n   39 yolo\r\n```","reactions":{"url":"https://api.github.com/repos/ultralytics/yolov3/issues/comments/466002911/reactions","total_count":0,"+1":0,"-1":0,"laugh":0,"hooray":0,"confused":0,"heart":0,"rocket":0,"eyes":0},"performed_via_github_app":null,"event":"commented","actor":{"login":"pprp","id":29230784,"node_id":"MDQ6VXNlcjI5MjMwNzg0"
…
