…
40.02898126], std_norm=False, store_name='model', stride_len=1, test=True, test_subset='test', train_crop='random', video_path='/home/sattarian/Documents/projects/sanaz/hand-guesture-new/video_kinetics_jpg', weight_decay=0.001, whole_path='video_kinetics_jpg', wide_resnet_k=2, wide_resnet_k_clf=2, wide_resnet_k_det=2)\r\n[INFO]: Converting the pretrained model to Depth init model\r\n[INFO]: Done. Flow model ready.\r\nloading checkpoint /home/sattarian/Documents/projects/sanaz/hand-guesture-new/egogesture_resnetl_10_Depth_8.pth\r\nModel 1 \r\n DataParallel(\r\n  (module): ResNetL(\r\n    (conv1): Conv3d(1, 16, kernel_size=(7, 7, 7), stride=(1, 2, 2), padding=(3, 3, 3), bias=False)\r\n    (bn1): BatchNorm3d(16, eps=1e-05, momentum=0.1, affine=True, track_running_stats=True)\r\n    (relu): ReLU(inplace)\r\n    (maxpool): MaxPool3d(kernel_size=(3, 3, 3), stride=2, padding=1, dilation=1, ceil_mode=False)\r\n    (layer1): Sequential(\r\n      (0): BasicBlock(\r\n        (conv1): Conv3d(16, 16, kernel_size=(3, 3, 3), stride=(1, 1, 1), padding=(1, 1, 1), bias=False)\r\n        (bn1): BatchNorm3d(16, eps=1e-05, momentum=0.1, affine=True, track_running_stats=True)\r\n        (relu): ReLU(inplace)\r\n        (conv2): Conv3d(16, 16, kernel_size=(3, 3, 3), stride=(1, 1, 1), padding=(1, 1, 1), bias=False)\r\n        (bn2): BatchNorm3d(16, eps=1e-05, momentum=0.1, affine=True, track_running_stats=True)\r\n      )\r\n    )\r\n    (layer2): Sequential(\r\n      (0): BasicBlock(\r\n        (conv1): Conv3d(16, 32, kernel_size=(3, 3, 3), stride=(2, 2, 2), padding=(1, 1, 1), bias=False)\r\n        (bn1): BatchNorm3d(32, eps=1e-05, momentum=0.1, affine=True, track_running_stats=True)\r\n        (relu): ReLU(inplace)\r\n        (conv2): Conv3d(32, 32, kernel_size=(3, 3, 3), stride=(1, 1, 1), padding=(1, 1, 1), bias=False)\r\n        (bn2): BatchNorm3d(32, eps=1e-05, momentum=0.1, affine=True, track_running_stats=True)\r\n      )\r\n    )\r\n    (layer3): Sequential(\r\n      (0): BasicBlock(\r\n        (conv1): Conv3d(32, 64, kernel_size=(3, 3, 3), stride=(2, 2, 2), padding=(1, 1, 1), bias=False)\r\n        (bn1): BatchNorm3d(64, eps=1e-05, momentum=0.1, affine=True, track_running_stats=True)\r\n        (relu): ReLU(inplace)\r\n        (conv2): Conv3d(64, 64, kernel_size=(3, 3, 3), stride=(1, 1, 1), padding=(1, 1, 1), bias=False)\r\n        (bn2): BatchNorm3d(64, eps=1e-05, momentum=0.1, affine=True, track_running_stats=True)\r\n      )\r\n    )\r\n    (layer4): Sequential(\r\n      (0): BasicBlock(\r\n        (conv1): Conv3d(64, 128, kernel_size=(3, 3, 3), stride=(2, 2, 2), padding=(1, 1, 1), bias=False)\r\n        (bn1): BatchNorm3d(128, eps=1e-05, momentum=0.1, affine=True, track_running_stats=True)\r\n        (relu): ReLU(inplace)\r\n        (conv2): Conv3d(128, 128, kernel_size=(3, 3, 3), stride=(1, 1, 1), padding=(1, 1, 1), bias=False)\r\n        (bn2): BatchNorm3d(128, eps=1e-05, momentum=0.1, affine=True, track_running_stats=True)\r\n      )\r\n    )\r\n    (avgpool): AvgPool3d(kernel_size=(1, 4, 4), stride=1, padding=0)\r\n    (fc): Linear(in_features=128, out_features=2, bias=True)\r\n  )\r\n)\r\nTotal number of trainable parameters:  891474\r\nNamespace(annotation_path='/home/sattarian/Documents/projects/sanaz/hand-guesture-new/annotation_EgoGesture/egogestureall.json', arch='resnext-101', batch_size=1, begin_epoch=1, checkpoint=1, clf_queue_size=16, clf_strategy='median', clf_threshold_final=0.15, clf_threshold_pre=0.6, crop_posi
…
.02898126], std_norm=False, store_name='model', stride_len=1, test=True, test_subset='test', train_crop='random', video_path='/home/sattarian/Documents/projects/sanaz/hand-guesture-new/video_kinetics_jpg', weight_decay=0.001, whole_path='video_kinetics_jpg', wide_resnet_k=2, wide_resnet_k_clf=2, wide_resnet_k_det=2)\r\n[INFO]: Converting the pretrained model to Depth init model\r\n[INFO]: Done. Flow model ready.\r\nloading checkpoint /home/sattarian/Documents/projects/sanaz/hand-guesture-new/egogesture_resnext_101_Depth_32.pth\r\nModel 2 \r\n DataParallel(\r\n  (module): ResNeXt(\r\n    (conv1): Conv3d(1, 64, kernel_size=(7, 7, 7), stride=(1, 2, 2), padding=(3, 3, 3), bias=False)\r\n    (bn1): BatchNorm3d(64, eps=1e-05, momentum=0.1, affine=True, track_running_stats=True)\r\n    (relu): ReLU(inplace)\r\n    (maxpool): MaxPool3d(kernel_size=(3, 3, 3), stride=2, padding=1, dilation=1, ceil_mode=False)\r\n    (layer1): Sequential(\r\n      (0): ResNeXtBottleneck(\r\n        (conv1): Conv3d(64, 128, kernel_size=(1, 1, 1), stride=(1, 1, 1), bias=False)\r\n        (bn1): BatchNorm3d(128, eps=1e-05, momentum=0.1, affine=True, track_running_stats=True)\r\n        (conv2): Conv3d(128, 128, kernel_size=(3, 3, 3), stride=(1, 1, 1), padding=(1, 1, 1), groups=32, bias=False)\r\n        (bn2): BatchNorm3d(128, eps=1e-05, momentum=0.1, affine=True, track_running_stats=True)\r\n        (conv3): Conv3d(128, 256, kernel_size=(1, 1, 1), stride=(1, 1, 1), bias=False)\r\n        (bn3): BatchNorm3d(256, eps=1e-05, momentum=0.1, affine=True, track_running_stats=True)\r\n        (relu): ReLU(inplace)\r\n        (downsample): Sequential(\r\n          (0): Conv3d(64, 256, kernel_size=(1, 1, 1), stride=(1, 1, 1), bias=False)\r\n          (1): BatchNorm3d(256, eps=1e-05, momentum=0.1, affine=True, track_running_stats=True)\r\n        )\r\n      )\r\n      (1): ResNeXtBottleneck(\r\n        (conv1): Conv3d(256, 128, kernel_size=(1, 1, 1), stride=(1, 1, 1), bias=False)\r\n        (bn1): BatchNorm3d(128, eps=1e-05, momentum=0.1, affine=True, track_running_stats=True)\r\n        (conv2): Conv3d(128, 128, kernel_size=(3, 3, 3), stride=(1, 1, 1), padding=(1, 1, 1), groups=32, bias=False)\r\n        (bn2): BatchNorm3d(128, eps=1e-05, momentum=0.1, affine=True, track_running_stats=True)\r\n        (conv3): Conv3d(128, 256, kernel_size=(1, 1, 1), stride=(1, 1, 1), bias=False)\r\n        (bn3): BatchNorm3d(256, eps=1e-05, momentum=0.1, affine=True, track_running_stats=True)\r\n        (relu): ReLU(inplace)\r\n      )\r\n      (2): ResNeXtBottleneck(\r\n        (conv1): Conv3d(256, 128, kernel_size=(1, 1, 1), stride=(1, 1, 1), bias=False)\r\n        (bn1): BatchNorm3d(128, eps=1e-05, momentum=0.1, affine=True, track_running_stats=True)\r\n        (conv2): Conv3d(128, 128, kernel_size=(3, 3, 3), stride=(1, 1, 1), padding=(1, 1, 1), groups=32, bias=False)\r\n        (bn2): BatchNorm3d(128, eps=1e-05, momentum=0.1, affine=True, track_running_stats=True)\r\n        (conv3): Conv3d(128, 256, kernel_size=(1, 1, 1), stride=(1, 1, 1), bias=False)\r\n        (bn3): BatchNorm3d(256, eps=1e-05, momentum=0.1, affine=True, track_running_stats=True)\r\n        (relu): ReLU(inplace)\r\n      )\r\n    )\r\n    (layer2): Sequential(\r\n      (0): ResNeXtBottleneck(\r\n        (conv1): Conv3d(256, 256, kernel_size=(1, 1, 1), stride=(1, 1, 1), bias=False)\r\n        (bn1): BatchNorm3d(256, eps=1e-05, momentum=0.1, affine=True, track_running_stats=True)\r\n        (conv2): Conv3d(256, 256, kernel_size=(3, 3, 3), stride=(2, 2, 2), padding=(1, 1, 1), groups=32, bias=False)\r\n        (bn2): BatchNorm3d(256, eps=1e-05, momentum=0.1, affine=True, track_running_stats=True)\r\n        (conv3): Conv3d(256, 512, kernel_size=(1, 1, 1), stride=(1, 1, 1), bias=False)\r\n        (bn3): BatchNorm3d(512, eps=1e-05, momentum=0.1, affine=True, track_running_stats=True)\r\n        (relu): ReLU(inplace)\r\n        (downsample): Sequential(\r\n          (0): Conv3d(256, 512, kernel_size=(1, 1, 1), stride=(2, 2, 2), bias=False)\r\n          (1): BatchNorm3d(512, eps=1e-05, momentum=0.1, affine=True, track_running_stats=True)\r\n        )\r\n      )\r\n      (1): ResNeXtBottleneck(\r\n        (conv1): Conv3d(512, 256, kernel_size=(1, 1, 1), stride=(1, 1, 1), bias=False)\r\n        (bn1): BatchNorm3d(256, eps=1e-05, momentum=0.1, affine=True, track_running_stats=True)\r\n        (conv2): Conv3d(256, 256, kernel_size=(3, 3, 3), stride=(1, 1, 1), padding=(1, 1, 1), groups=32, bias=False)\r\n        (bn2): BatchNorm3d(256, eps=1e-05, momentum=0.1, affine=True, track_running_stats=True)\r\n        (conv3): Conv3d(256, 512, kernel_size=(1, 1, 1), stride=(1, 1, 1), bias=False)\r\n        (bn3): BatchNorm3d(512, eps=1e-05, momentum=0.1, affine=True, track_running_stats=True)\r\n        (relu): ReLU(inplace)\r\n      )\r\n      (2): ResNeXtBottleneck(\r\n        (conv1): Conv3d(512, 256, kernel_size=(1, 1, 1), stride=(1, 1, 1), bias=False)\r\n        (bn1): BatchNorm3d(256, eps=1e-05, momentum=0.1, affine=True, track_running_stats=True)\r\n        (conv2): Conv3d(256, 256, kernel_size=(3, 3, 3), stride=(1, 1, 1), padding=(1, 1, 1), groups=32, bias=False)\r\n        (bn2): BatchNorm3d(256, eps=1e-05, momentum=0.1, affine=True, track_running_stats=True)\r\n        (conv3): Conv3d(256, 512, kernel_size=(1, 1, 1), stride=(1, 1, 1), bias=False)\r\n        (bn3): BatchNorm3d(512, eps=1e-05, momentum=0.1, affine=True, track_running_stats=True)\r\n        (relu): ReLU(inplace)\r\n      )\r\n      (3): ResNeXtBottleneck(\r\n        (conv1): Conv3d(512, 256, kernel_size=(1, 1, 1), stride=(1, 1, 1), bias=False)\r\n        (bn1): BatchNorm3d(256, eps=1e-05, momentum=0.1, affine=True, track_running_stats=True)\r\n        (conv2): Conv3d(256, 256, kernel_size=(3, 3, 3), stride=(1, 1, 1), padding=(1, 1, 1), groups=32, bias=False)\r\n        (bn2): BatchNorm3d(256, eps=1e-05, momentum=0.1, affine=True, track_running_stats=True)\r\n        (conv3): Conv3d(256, 512, kernel_size=(1, 1, 1), stride=(1, 1, 1), bias=False)\r\n        (bn3): BatchNorm3d(512, eps=1e-05, momentum=0.1, affine=True, track_running_stats=True)\r\n        (relu): ReLU(inplace)\r\n      )\r\n    )\r\n    (layer3): Sequential(\r\n      (0): ResNeXtBottleneck(\r\n        (conv1): Conv3d(512, 512, kernel_size=(1, 1, 1), stride=(1, 1, 1), bias=False)\r\n        (bn1): BatchNorm3d(512, eps=1e-05, momentum=0.1, affine=True, track_running_stats=True)\r\n        (conv2): Conv3d(512, 512, kernel_size=(3, 3, 3), stride=(2, 2, 2), padding=(1, 1, 1), groups=32, bias=False)\r\n        (bn2): BatchNorm3d(512, eps=1e-05, momentum=0.1, affine=True, track_running_stats=True)\r\n        (conv3): Conv3d(512, 1024, kernel_size=(1, 1, 1), stride=(1, 1, 1), bias=False)\r\n        (bn3): BatchNorm3d(1024, eps=1e-05, momentum=0.1, affine=True, track_running_stats=True)\r\n        (relu): ReLU(inplace)\r\n        (downsample): Sequential(\r\n          (0): Conv3d(512, 1024, kernel_size=(1, 1, 1), stride=(2, 2, 2), bias=False)\r\n          (1): BatchNorm3d(1024, eps=1e-05, momentum=0.1, affine=True, track_running_stats=True)\r\n        )\r\n      )\r\n      (1): ResNeXtBottleneck(\r\n        (conv1): Conv3d(1024, 512, kernel_size=(1, 1, 1), stride=(1, 1, 1), bias=False)\r\n        (bn1): BatchNorm3d(512, eps=1e-05, momentum=0.1, affine=True, track_running_stats=True)\r\n        (conv2): Conv3d(512, 512, kernel_size=(3, 3, 3), stride=(1, 1, 1), padding=(1, 1, 1), groups=32, bias=False)\r\n        (bn2): BatchNorm3d(512, eps=1e-05, momentum=0.1, affine=True, track_running_stats=True)\r\n        (conv3): Conv3d(512, 1024, kernel_size=(1, 1, 1), stride=(1, 1, 1), bias=False)\r\n        (bn3): BatchNorm3d(1024, eps=1e-05, momentum=0.1, affine=True, track_running_stats=True)\r\n        (relu): ReLU(inplace)\r\n      )\r\n      (2): ResNeXtBottleneck(\r\n        (conv1): Conv3d(1024, 512, kernel_size=(1, 1, 1), stride=(1, 1, 1), bias=False)\r\n        (bn1): BatchNorm3d(512, eps=1e-05, momentum=0.1, affine=True, track_running_stats=True)\r\n        (conv2): Conv3d(512, 512, kernel_size=(3, 3, 3), stride=(1, 1, 1), padding=(1, 1, 1), groups=32, bias=False)\r\n        (bn2): BatchNorm3d(512, eps=1e-05, momentum=0.1, affine=True, track_running_stats=True)\r\n        (conv3): Conv3d(512, 1024, kernel_size=(1, 1, 1), stride=(1, 1, 1), bias=False)\r\n        (bn3): BatchNorm3d(1024, eps=1e-05, momentum=0.1, affine=True, track_running_stats=True)\r\n        (relu): ReLU(inplace)\r\n      )\r\n      (3): ResNeXtBottleneck(\r\n        (conv1): Conv3d(1024, 512, kernel_size=(1, 1, 1), stride=(1, 1, 1), bias=False)\r\n        (bn1): BatchNorm3d(512, eps=1e-05, momentum=0.1, affine=True, track_running_stats=True)\r\n        (conv2): Conv3d(512, 512, kernel_size=(3, 3, 3), stride=(1, 1, 1), padding=(1, 1, 1), groups=32, bias=False)\r\n        (bn2): BatchNorm3d(512, eps=1e-05, momentum=0.1, affine=True, track_running_stats=True)\r\n        (conv3): Conv3d(512, 1024, kernel_size=(1, 1, 1), stride=(1, 1, 1), bias=False)\r\n        (bn3): BatchNorm3d(1024, eps=1e-05, momentum=0.1, affine=True, track_running_stats=True)\r\n        (relu): ReLU(inplace)\r\n      )\r\n      (4): ResNeXtBottleneck(\r\n        (conv1): Conv3d(1024, 512, kernel_size=(1, 1, 1), stride=(1, 1, 1), bias=False)\r\n        (bn1): BatchNorm3d(512, eps=1e-05, momentum=0.1, affine=True, track_running_stats=True)\r\n        (conv2): Conv3d(512, 512, kernel_size=(3, 3, 3), stride=(1, 1, 1), padding=(1, 1, 1), groups=32, bias=False)\r\n        (bn2): BatchNorm3d(512, eps=1e-05, momentum=0.1, affine=True, track_running_stats=True)\r\n        (conv3): Conv3d(512, 1024, kernel_size=(1, 1, 1), stride=(1, 1, 1), bias=False)\r\n        (bn3): BatchNorm3d(1024, eps=1e-05, momentum=0.1, affine=True, track_running_stats=True)\r\n        (relu): ReLU(inplace)\r\n      )\r\n      (5): ResNeXtBottleneck(\r\n        (conv1): Conv3d(1024, 512, kernel_size=(1, 1, 1), stride=(1, 1, 1), bias=False)\r\n        (bn1): BatchNorm3d(512, eps=1e-05, momentum=0.1, affine=True, track_running_stats=True)\r\n        (conv2): Conv3d(512, 512, kernel_size=(3, 3, 3), stride=(1, 1, 1), padding=(1, 1, 1), groups=32, bias=False)\r\n        (bn2): BatchNorm3d(512, eps=1e-05, momentum=0.1, affine=True, track_running_stats=True)\r\n        (conv3): Conv3d(512, 1024, kernel_size=(1, 1, 1), stride=(1, 1, 1), bias=False)\r\n        (bn3): BatchNorm3d(1024, eps=1e-05, momentum=0.1, affine=True, track_running_stats=True)\r\n        (relu): ReLU(inplace)\r\n      )\r\n      (6): ResNeXtBottleneck(\r\n        (conv1): Conv3d(1024, 512, kernel_size=(1, 1, 1), stride=(1, 1, 1), bias=False)\r\n        (bn1): BatchNorm3d(512, eps=1e-05, momentum=0.1, affine=True, track_running_stats=True)\r\n        (conv2): Conv3d(512, 512, kernel_size=(3, 3, 3), stride=(1, 1, 1), padding=(1, 1, 1), groups=32, bias=False)\r\n        (bn2): BatchNorm3d(512, eps=1e-05, momentum=0.1, affine=True, track_running_stats=True)\r\n        (conv3): Conv3d(512, 1024, kernel_size=(1, 1, 1), stride=(1, 1, 1), bias=False)\r\n        (bn3): BatchNorm3d(1024, eps=1e-05, momentum=0.1, affine=True, track_running_stats=True)\r\n        (relu): ReLU(inplace)\r\n      )\r\n      (7): ResNeXtBottleneck(\r\n        (conv1): Conv3d(1024, 512, kernel_size=(1, 1, 1), stride=(1, 1, 1), bias=False)\r\n        (bn1): BatchNorm3d(512, eps=1e-05, momentum=0.1, affine=True, track_running_stats=True)\r\n        (conv2): Conv3d(512, 512, kernel_size=(3, 3, 3), stride=(1, 1, 1), padding=(1, 1, 1), groups=32, bias=False)\r\n        (bn2): BatchNorm3d(512, eps=1e-05, momentum=0.1, affine=True, track_running_stats=True)\r\n        (conv3): Conv3d(512, 1024, kernel_size=(1, 1, 1), stride=(1, 1, 1), bias=False)\r\n        (bn3): BatchNorm3d(1024, eps=1e-05, momentum=0.1, affine=True, track_running_stats=True)\r\n        (relu): ReLU(inplace)\r\n      )\r\n      (8): ResNeXtBottleneck(\r\n        (conv1): Conv3d(1024, 512, kernel_size=(1, 1, 1), stride=(1, 1, 1), bias=False)\r\n        (bn1): BatchNorm3d(512, eps=1e-05, momentum=0.1, affine=True, track_running_stats=True)\r\n        (conv2): Conv3d(512, 512, kernel_size=(3, 3, 3), stride=(1, 1, 1), padding=(1, 1, 1), groups=32, bias=False)\r\n        (bn2): BatchNorm3d(512, eps=1e-05, momentum=0.1, affine=True, track_running_stats=True)\r\n        (conv3): Conv3d(512, 1024, kernel_size=(1, 1, 1), stride=(1, 1, 1), bias=False)\r\n        (bn3): BatchNorm3d(1024, eps=1e-05, momentum=0.1, affine=True, track_running_stats=True)\r\n        (relu): ReLU(inplace)\r\n      )\r\n      (9): ResNeXtBottleneck(\r\n        (conv1): Conv3d(1024, 512, kernel_size=(1, 1, 1), stride=(1, 1, 1), bias=False)\r\n        (bn1): BatchNorm3d(512, eps=1e-05, momentum=0.1, affine=True, track_running_stats=True)\r\n        (conv2): Conv3d(512, 512, kernel_size=(3, 3, 3), stride=(1, 1, 1), padding=(1, 1, 1), groups=32, bias=False)\r\n        (bn2): BatchNorm3d(512, eps=1e-05, momentum=0.1, affine=True, track_running_stats=True)\r\n        (conv3): Conv3d(512, 1024, kernel_size=(1, 1, 1), stride=(1, 1, 1), bias=False)\r\n        (bn3): BatchNorm3d(1024, eps=1e-05, momentum=0.1, affine=True, track_running_stats=True)\r\n        (relu): ReLU(inplace)\r\n      )\r\n      (10): ResNeXtBottleneck(\r\n        (conv1): Conv3d(1024, 512, kernel_size=(1, 1, 1), stride=(1, 1, 1), bias=False)\r\n        (bn1): BatchNorm3d(512, eps=1e-05, momentum=0.1, affine=True, track_running_stats=True)\r\n        (conv2): Conv3d(512, 512, kernel_size=(3, 3, 3), stride=(1, 1, 1), padding=(1, 1, 1), groups=32, bias=False)\r\n        (bn2): BatchNorm3d(512, eps=1e-05, momentum=0.1, affine=True, track_running_stats=True)\r\n        (conv3): Conv3d(512, 1024, kernel_size=(1, 1, 1), stride=(1, 1, 1), bias=False)\r\n        (bn3): BatchNorm3d(1024, eps=1e-05, momentum=0.1, affine=True, track_running_stats=True)\r\n        (relu): ReLU(inplace)\r\n      )\r\n      (11): ResNeXtBottleneck(\r\n        (conv1): Conv3d(1024, 512, kernel_size=(1, 1, 1), stride=(1, 1, 1), bias=False)\r\n        (bn1): BatchNorm3d(512, eps=1e-05, momentum=0.1, affine=True, track_running_stats=True)\r\n        (conv2): Conv3d(512, 512, kernel_size=(3, 3, 3), stride=(1, 1, 1), padding=(1, 1, 1), groups=32, bias=False)\r\n        (bn2): BatchNorm3d(512, eps=1e-05, momentum=0.1, affine=True, track_running_stats=True)\r\n        (conv3): Conv3d(512, 1024, kernel_size=(1, 1, 1), stride=(1, 1, 1), bias=False)\r\n        (bn3): BatchNorm3d(1024, eps=1e-05, momentum=0.1, affine=True, track_running_stats=True)\r\n        (relu): ReLU(inplace)\r\n      )\r\n      (12): ResNeXtBottleneck(\r\n        (conv1): Conv3d(1024, 512, kernel_size=(1, 1, 1), stride=(1, 1, 1), bias=False)\r\n        (bn1): BatchNorm3d(512, eps=1e-05, momentum=0.1, affine=True, track_running_stats=True)\r\n        (conv2): Conv3d(512, 512, kernel_size=(3, 3, 3), stride=(1, 1, 1), padding=(1, 1, 1), groups=32, bias=False)\r\n        (bn2): BatchNorm3d(512, eps=1e-05, momentum=0.1, affine=True, track_running_stats=True)\r\n        (conv3): Conv3d(512, 1024, kernel_size=(1, 1, 1), stride=(1, 1, 1), bias=False)\r\n        (bn3): BatchNorm3d(1024, eps=1e-05, momentum=0.1, affine=True, track_running_stats=True)\r\n        (relu): ReLU(inplace)\r\n      )\r\n      (13): ResNeXtBottleneck(\r\n        (conv1): Conv3d(1024, 512, kernel_size=(1, 1, 1), stride=(1, 1, 1), bias=False)\r\n        (bn1): BatchNorm3d(512, eps=1e-05, momentum=0.1, affine=True, track_running_stats=True)\r\n        (conv2): Conv3d(512, 512, kernel_size=(3, 3, 3), stride=(1, 1, 1), padding=(1, 1, 1), groups=32, bias=False)\r\n        (bn2): BatchNorm3d(512, eps=1e-05, momentum=0.1, affine=True, track_running_stats=True)\r\n        (conv3): Conv3d(512, 1024, kernel_size=(1, 1, 1), stride=(1, 1, 1), bias=False)\r\n        (bn3): BatchNorm3d(1024, eps=1e-05, momentum=0.1, affine=True, track_running_stats=True)\r\n        (relu): ReLU(inplace)\r\n      )\r\n      (14): ResNeXtBottleneck(\r\n        (conv1): Conv3d(1024, 512, kernel_size=(1, 1, 1), stride=(1, 1, 1), bias=False)\r\n        (bn1): BatchNorm3d(512, eps=1e-05, momentum=0.1, affine=True, track_running_stats=True)\r\n        (conv2): Conv3d(512, 512, kernel_size=(3, 3, 3), stride=(1, 1, 1), padding=(1, 1, 1), groups=32, bias=False)\r\n        (bn2): BatchNorm3d(512, eps=1e-05, momentum=0.1, affine=True, track_running_stats=True)\r\n        (conv3): Conv3d(512, 1024, kernel_size=(1, 1, 1), stride=(1, 1, 1), bias=False)\r\n        (bn3): BatchNorm3d(1024, eps=1e-05, momentum=0.1, affine=True, track_running_stats=True)\r\n        (relu): ReLU(inplace)\r\n      )\r\n      (15): ResNeXtBottleneck(\r\n        (conv1): Conv3d(1024, 512, kernel_size=(1, 1, 1), stride=(1, 1, 1), bias=False)\r\n        (bn1): BatchNorm3d(512, eps=1e-05, momentum=0.1, affine=True, track_running_stats=True)\r\n        (conv2): Conv3d(512, 512, kernel_size=(3, 3, 3), stride=(1, 1, 1), padding=(1, 1, 1), groups=32, bias=False)\r\n        (bn2): BatchNorm3d(512, eps=1e-05, momentum=0.1, affine=True, track_running_stats=True)\r\n        (conv3): Conv3d(512, 1024, kernel_size=(1, 1, 1), stride=(1, 1, 1), bias=False)\r\n        (bn3): BatchNorm3d(1024, eps=1e-05, momentum=0.1, affine=True, track_running_stats=True)\r\n        (relu): ReLU(inplace)\r\n      )\r\n      (16): ResNeXtBottleneck(\r\n        (conv1): Conv3d(1024, 512, kernel_size=(1, 1, 1), stride=(1, 1, 1), bias=False)\r\n        (bn1): BatchNorm3d(512, eps=1e-05, momentum=0.1, affine=True, track_running_stats=True)\r\n        (conv2): Conv3d(512, 512, kernel_size=(3, 3, 3), stride=(1, 1, 1), padding=(1, 1, 1), groups=32, bias=False)\r\n        (bn2): BatchNorm3d(512, eps=1e-05, momentum=0.1, affine=True, track_running_stats=True)\r\n        (conv3): Conv3d(512, 1024, kernel_size=(1, 1, 1), stride=(1, 1, 1), bias=False)\r\n        (bn3): BatchNorm3d(1024, eps=1e-05, momentum=0.1, affine=True, track_running_stats=True)\r\n        (relu): ReLU(inplace)\r\n      )\r\n      (17): ResNeXtBottleneck(\r\n        (conv1): Conv3d(1024, 512, kernel_size=(1, 1, 1), stride=(1, 1, 1), bias=False)\r\n        (bn1): BatchNorm3d(512, eps=1e-05, momentum=0.1, affine=True, track_running_stats=True)\r\n        (conv2): Conv3d(512, 512, kernel_size=(3, 3, 3), stride=(1, 1, 1), padding=(1, 1, 1), groups=32, bias=False)\r\n        (bn2): BatchNorm3d(512, eps=1e-05, momentum=0.1, affine=True, track_running_stats=True)\r\n        (conv3): Conv3d(512, 1024, kernel_size=(1, 1, 1), stride=(1, 1, 1), bias=False)\r\n        (bn3): BatchNorm3d(1024, eps=1e-05, momentum=0.1, affine=True, track_running_stats=True)\r\n        (relu): ReLU(inplace)\r\n      )\r\n      (18): ResNeXtBottleneck(\r\n        (conv1): Conv3d(1024, 512, kernel_size=(1, 1, 1), stride=(1, 1, 1), bias=False)\r\n        (bn1): BatchNorm3d(512, eps=1e-05, momentum=0.1, affine=True, track_running_stats=True)\r\n        (conv2): Conv3d(512, 512, kernel_size=(3, 3, 3), stride=(1, 1, 1), padding=(1, 1, 1), groups=32, bias=False)\r\n        (bn2): BatchNorm3d(512, eps=1e-05, momentum=0.1, affine=True, track_running_stats=True)\r\n        (conv3): Conv3d(512, 1024, kernel_size=(1, 1, 1), stride=(1, 1, 1), bias=False)\r\n        (bn3): BatchNorm3d(1024, eps=1e-05, momentum=0.1, affine=True, track_running_stats=True)\r\n        (relu): ReLU(inplace)\r\n      )\r\n      (19): ResNeXtBottleneck(\r\n        (conv1): Conv3d(1024, 512, kernel_size=(1, 1, 1), stride=(1, 1, 1), bias=False)\r\n        (bn1): BatchNorm3d(512, eps=1e-05, momentum=0.1, affine=True, track_running_stats=True)\r\n        (conv2): Conv3d(512, 512, kernel_size=(3, 3, 3), stride=(1, 1, 1), padding=(1, 1, 1), groups=32, bias=False)\r\n        (bn2): BatchNorm3d(512, eps=1e-05, momentum=0.1, affine=True, track_running_stats=True)\r\n        (conv3): Conv3d(512, 1024, kernel_size=(1, 1, 1), stride=(1, 1, 1), bias=False)\r\n        (bn3): BatchNorm3d(1024, eps=1e-05, momentum=0.1, affine=True, track_running_stats=True)\r\n        (relu): ReLU(inplace)\r\n      )\r\n      (20): ResNeXtBottleneck(\r\n        (conv1): Conv3d(1024, 512, kernel_size=(1, 1, 1), stride=(1, 1, 1), bias=False)\r\n        (bn1): BatchNorm3d(512, eps=1e-05, momentum=0.1, affine=True, track_running_stats=True)\r\n        (conv2): Conv3d(512, 512, kernel_size=(3, 3, 3), stride=(1, 1, 1), padding=(1, 1, 1), groups=32, bias=False)\r\n        (bn2): BatchNorm3d(512, eps=1e-05, momentum=0.1, affine=True, track_running_stats=True)\r\n        (conv3): Conv3d(512, 1024, kernel_size=(1, 1, 1), stride=(1, 1, 1), bias=False)\r\n        (bn3): BatchNorm3d(1024, eps=1e-05, momentum=0.1, affine=True, track_running_stats=True)\r\n        (relu): ReLU(inplace)\r\n      )\r\n      (21): ResNeXtBottleneck(\r\n        (conv1): Conv3d(1024, 512, kernel_size=(1, 1, 1), stride=(1, 1, 1), bias=False)\r\n        (bn1): BatchNorm3d(512, eps=1e-05, momentum=0.1, affine=True, track_running_stats=True)\r\n        (conv2): Conv3d(512, 512, kernel_size=(3, 3, 3), stride=(1, 1, 1), padding=(1, 1, 1), groups=32, bias=False)\r\n        (bn2): BatchNorm3d(512, eps=1e-05, momentum=0.1, affine=True, track_running_stats=True)\r\n        (conv3): Conv3d(512, 1024, kernel_size=(1, 1, 1), stride=(1, 1, 1), bias=False)\r\n        (bn3): BatchNorm3d(1024, eps=1e-05, momentum=0.1, affine=True, track_running_stats=True)\r\n        (relu): ReLU(inplace)\r\n      )\r\n      (22): ResNeXtBottleneck(\r\n        (conv1): Conv3d(1024, 512, kernel_size=(1, 1, 1), stride=(1, 1, 1), bias=False)\r\n        (bn1): BatchNorm3d(512, eps=1e-05, momentum=0.1, affine=True, track_running_stats=True)\r\n        (conv2): Conv3d(512, 512, kernel_size=(3, 3, 3), stride=(1, 1, 1), padding=(1, 1, 1), groups=32, bias=False)\r\n        (bn2): BatchNorm3d(512, eps=1e-05, momentum=0.1, affine=True, track_running_stats=True)\r\n        (conv3): Conv3d(512, 1024, kernel_size=(1, 1, 1), stride=(1, 1, 1), bias=False)\r\n        (bn3): BatchNorm3d(1024, eps=1e-05, momentum=0.1, affine=True, track_running_stats=True)\r\n        (relu): ReLU(inplace)\r\n      )\r\n    )\r\n    (layer4): Sequential(\r\n      (0): ResNeXtBottleneck(\r\n        (conv1): Conv3d(1024, 1024, kernel_size=(1, 1, 1), stride=(1, 1, 1), bias=False)\r\n        (bn1): BatchNorm3d(1024, eps=1e-05, momentum=0.1, affine=True, track_running_stats=True)\r\n        (conv2): Conv3d(1024, 1024, kernel_size=(3, 3, 3), stride=(2, 2, 2), padding=(1, 1, 1), groups=32, bias=False)\r\n        (bn2): BatchNorm3d(1024, eps=1e-05, momentum=0.1, affine=True, track_running_stats=True)\r\n        (conv3): Conv3d(1024, 2048, kernel_size=(1, 1, 1), stride=(1, 1, 1), bias=False)\r\n        (bn3): BatchNorm3d(2048, eps=1e-05, momentum=0.1, affine=True, track_running_stats=True)\r\n        (relu): ReLU(inplace)\r\n        (downsample): Sequential(\r\n          (0): Conv3d(1024, 2048, kernel_size=(1, 1, 1), stride=(2, 2, 2), bias=False)\r\n          (1): BatchNorm3d(2048, eps=1e-05, momentum=0.1, affine=True, track_running_stats=True)\r\n        )\r\n      )\r\n      (1): ResNeXtBottleneck(\r\n        (conv1): Conv3d(2048, 1024, kernel_size=(1, 1, 1), stride=(1, 1, 1), bias=False)\r\n        (bn1): BatchNorm3d(1024, eps=1e-05, momentum=0.1, affine=True, track_running_stats=True)\r\n        (conv2): Conv3d(1024, 1024, kernel_size=(3, 3, 3), stride=(1, 1, 1), padding=(1, 1, 1), groups=32, bias=False)\r\n        (bn2): BatchNorm3d(1024, eps=1e-05, momentum=0.1, affine=True, track_running_stats=True)\r\n        (conv3): Conv3d(1024, 2048, kernel_size=(1, 1, 1), stride=(1, 1, 1), bias=False)\r\n        (bn3): BatchNorm3d(2048, eps=1e-05, momentum=0.1, affine=True, track_running_stats=True)\r\n        (relu): ReLU(inplace)\r\n      )\r\n      (2): ResNeXtBottleneck(\r\n        (conv1): Conv3d(2048, 1024, kernel_size=(1, 1, 1), stride=(1, 1, 1), bias=False)\r\n        (bn1): BatchNorm3d(1024, eps=1e-05, momentum=0.1, affine=True, track_running_stats=True)\r\n        (conv2): Conv3d(1024, 1024, kernel_size=(3, 3, 3), stride=(1, 1, 1), padding=(1, 1, 1), groups=32, bias=False)\r\n        (bn2): BatchNorm3d(1024, eps=1e-05, momentum=0.1, affine=True, track_running_stats=True)\r\n        (conv3): Conv3d(1024, 2048, kernel_size=(1, 1, 1), stride=(1, 1, 1), bias=False)\r\n        (bn3): BatchNorm3d(2048, eps=1e-05, momentum=0.1, affine=True, track_running_stats=True)\r\n        (relu): ReLU(inplace)\r\n      )\r\n    )\r\n    (avgpool): AvgPool3d(kernel_size=(2, 4, 4), stride=1, padding=0)\r\n    (fc): Linear(in_features=2048, out_features=83, bias=True)\r\n  )\r\n)\r\nTotal number of trainable parameters:  47647379\r\nStart Evaluation\r\nAverage Levenshtein Accuracy= 0\r\n-----Evaluation is finished------\r\n```\r\n","reactions":{"url":"https://api.github.com/repos/ahmetgunduz/Real-time-GesRec/issues/comments/491613767/reactions","total_count":0,"+1":0,"-1":0,"laugh":0,"hooray":0,"confused":0,"heart":
…
