…
im=1)\r\n        return output\r\n\r\ndevice = torch.device('cuda' if torch.cuda.is_available() else 'cpu')\r\nmodel = Net().to(device)\r\nsummary(model, (1,28, 28))`\r\n\r\nOUTPUT:\r\n`torch.Size([2, 32, 24, 24])\r\ntorch.Size([2, 32, 24, 24])\r\ntorch.Size([2, 32, 12, 12])\r\ntorch.Size([2, 64, 8, 8])\r\ntorch.Size([2, 64, 8, 8])\r\ntorch.Size([2, 64, 4, 4])\r\n----------------------------------------------------------------\r\n        Layer (type)               Output Shape         Param #\r\n================================================================\r\n            Conv2d-1           [-1, 32, 24, 24]             832\r\n            Conv2d-2             [-1, 64, 8, 8]          51,264\r\n            Linear-3                 [-1, 1024]       2,098,176\r\n         Dropout2d-4                 [-1, 1024]               0\r\n            Linear-5                   [-1, 10]          10,250\r\n================================================================\r\nTotal params: 2,160,522\r\nTrainable params: 2,160,522\r\nNon-trainable params: 0\r\n----------------------------------------------------------------\r\nInput size (MB): 0.00\r\nForward/backward pass size (MB): 0.19\r\nParams size (MB): 8.24\r\nEstimated Total Size (MB): 8.43\r\n------------------------------------------------
…
