…
"open","locked":false,"assignee":null,"assignees":[],"milestone":null,"comments":1,"created_at":"2020-11-24T23:18:10Z","updated_at":"2022-01-27T15:31:08Z","closed_at":null,"author_association":"NONE","active_lock_reason":null,"body":"I'd like to get a summary for the following BERT model\r\n```\r\nmodel = torch.hub.load('huggingface/pytorch-transformers', 'model', 'bert-base-uncased')\r\n```\r\n\r\nWhat shape or shapes should I use? how to get list of inputs?\r\n```\r\nsummary(model, ???)\r\n```\r\n\r\nprint(model)\r\n```\r\nBertModel(\r\n  (embeddings): BertEmbeddings(\r\n    (word_embeddings): Embedding(30522, 768, padding_idx=0)\r\n    (position_embeddings): Embedding(512, 768)\r\n    (token_type_embeddings): Embedding(2, 768)\r\n    (LayerNorm): LayerNorm((768,), eps=1e-12, elementwise_affine=True)\r\n    (dropout): Dropout(p=0.1, inplace=False)\r\n  )\r\n  (encoder): BertEncoder(\r\n    (layer): ModuleList(\r\n      (0): BertLayer(\r\n        (attention): BertAttention(\r\n          (self): BertSelfAttention(\r\n            (query): Linear(in_features=768, out_features=768, bias=True)\r\n            (key): Linear(in_features=768, out_features=768, bias=True)\r\n            (value): Linear(in_features=768, out_features=768, bias=True)\r\n            (dropout): Dropout(p=0.1, inplace=False)\r\n          )\r\n          (output): BertSelfOutput(\r\n            (dense): Linear(in_features=768, out_features=768, bias=True)\r\n            (LayerNorm): LayerNorm((768,), eps=1e-12, elementwise_affine=True)\r\n            (dropout): Dropout(p=0.1, inplace=False)\r\n          )\r\n        )\r\n        (intermediate): BertIntermediate(\r\n          (dense): Linear(in_features=768, out_features=3072, bias=True)\r\n        )\r\n        (output): BertOutput(\r\n          (dense): Linear(in_features=3072, out_features=768, bias=True)\r\n          (LayerNorm): LayerNorm((768,), eps=1e-12, elementwise_affine=True)\r\n          (dropout): Dropout(p=0.1, inplace=False)\r\n        )\r\n      )\r\n      (1): BertLayer(\r\n        (attention): BertAttention(\r\n          (self): BertSelfAttention(\r\n            (query): Linear(in_features=768, out_features=768, bias=True)\r\n            (key): Linear(in_features=768, out_features=768, bias=True)\r\n            (value): Linear(in_features=768, out_features=768, bias=True)\r\n            (dropout): Dropout(p=0.1, inplace=False)\r\n          )\r\n          (output): BertSelfOutput(\r\n            (dense): Linear(in_features=768, out_features=768, bias=True)\r\n            (LayerNorm): LayerNorm((768,), eps=1e-12, elementwise_affine=True)\r\n            (dropout): Dropout(p=0.1, inplace=False)\r\n          )\r\n        )\r\n        (intermediate): BertIntermediate(\r\n          (dense): Linear(in_features=768, out_features=3072, bias=True)\r\n        )\r\n        (output): BertOutput(\r\n          (dense): Linear(in_features=3072, out_features=768, bias=True)\r\n          (LayerNorm): LayerNorm((768,), eps=1e-12, elementwise_affine=True)\r\n          (dropout): Dropout(p=0.1, inplace=False)\r\n        )\r\n      )\r\n      (2): BertLayer(\r\n        (attention): BertAttention(\r\n          (self): BertSelfAttention(\r\n            (query): Linear(in_features=768, out_features=768, bias=True)\r\n            (key): Linear(in_features=768, out_features=768, bias=True)\r\n            (value): Linear(in_features=768, out_features=768, bias=True)\r\n            (dropout): Dropout(p=0.1, inplace=False)\r\n          )\r\n          (output): BertSelfOutput(\r\n            (dense): Linear(in_features=768, out_features=768, bias=True)\r\n            (LayerNorm): LayerNorm((768,), eps=1e-12, elementwise_affine=True)\r\n            (dropout): Dropout(p=0.1, inplace=False)\r\n          )\r\n        )\r\n        (intermediate): BertIntermediate(\r\n          (dense): Linear(in_features=768, out_features=3072, bias=True)\r\n        )\r\n        (output): BertOutput(\r\n          (dense): Linear(in_features=3072, out_features=768, bias=True)\r\n          (LayerNorm): LayerNorm((768,), eps=1e-12, elementwise_affine=True)\r\n          (dropout): Dropout(p=0.1, inplace=False)\r\n        )\r\n      )\r\n      (3): BertLayer(\r\n        (attention): BertAttention(\r\n          (self): BertSelfAttention(\r\n            (query): Linear(in_features=768, out_features=768, bias=True)\r\n            (key): Linear(in_features=768, out_features=768, bias=True)\r\n            (value): Linear(in_features=768, out_features=768, bias=True)\r\n            (dropout): Dropout(p=0.1, inplace=False)\r\n          )\r\n          (output): BertSelfOutput(\r\n            (dense): Linear(in_features=768, out_features=768, bias=True)\r\n            (LayerNorm): LayerNorm((768,), eps=1e-12, elementwise_affine=True)\r\n            (dropout): Dropout(p=0.1, inplace=False)\r\n          )\r\n        )\r\n        (intermediate): BertIntermediate(\r\n          (dense): Linear(in_features=768, out_features=3072, bias=True)\r\n        )\r\n        (output): BertOutput(\r\n          (dense): Linear(in_features=3072, out_features=768, bias=True)\r\n          (LayerNorm): LayerNorm((768,), eps=1e-12, elementwise_affine=True)\r\n          (dropout): Dropout(p=0.1, inplace=False)\r\n        )\r\n      )\r\n      (4): BertLayer(\r\n        (attention): BertAttention(\r\n          (self): BertSelfAttention(\r\n            (query): Linear(in_features=768, out_features=768, bias=True)\r\n            (key): Linear(in_features=768, out_features=768, bias=True)\r\n            (value): Linear(in_features=768, out_features=768, bias=True)\r\n            (dropout): Dropout(p=0.1, inplace=False)\r\n          )\r\n          (output): BertSelfOutput(\r\n            (dense): Linear(in_features=768, out_features=768, bias=True)\r\n            (LayerNorm): LayerNorm((768,), eps=1e-12, elementwise_affine=True)\r\n            (dropout): Dropout(p=0.1, inplace=False)\r\n          )\r\n        )\r\n        (intermediate): BertIntermediate(\r\n          (dense): Linear(in_features=768, out_features=3072, bias=True)\r\n        )\r\n        (output): BertOutput(\r\n          (dense): Linear(in_features=3072, out_features=768, bias=True)\r\n          (LayerNorm): LayerNorm((768,), eps=1e-12, elementwise_affine=True)\r\n          (dropout): Dropout(p=0.1, inplace=False)\r\n        )\r\n      )\r\n      (5): BertLayer(\r\n        (attention): BertAttention(\r\n          (self): BertSelfAttention(\r\n            (query): Linear(in_features=768, out_features=768, bias=True)\r\n            (key): Linear(in_features=768, out_features=768, bias=True)\r\n            (value): Linear(in_features=768, out_features=768, bias=True)\r\n            (dropout): Dropout(p=0.1, inplace=False)\r\n          )\r\n          (output): BertSelfOutput(\r\n            (dense): Linear(in_features=768, out_features=768, bias=True)\r\n            (LayerNorm): LayerNorm((768,), eps=1e-12, elementwise_affine=True)\r\n            (dropout): Dropout(p=0.1, inplace=False)\r\n          )\r\n        )\r\n        (intermediate): BertIntermediate(\r\n          (dense): Linear(in_features=768, out_features=3072, bias=True)\r\n        )\r\n        (output): BertOutput(\r\n          (dense): Linear(in_features=3072, out_features=768, bias=True)\r\n          (LayerNorm): LayerNorm((768,), eps=1e-12, elementwise_affine=True)\r\n          (dropout): Dropout(p=0.1, inplace=False)\r\n        )\r\n      )\r\n      (6): BertLayer(\r\n        (attention): BertAttention(\r\n          (self): BertSelfAttention(\r\n            (query): Linear(in_features=768, out_features=768, bias=True)\r\n            (key): Linear(in_features=768, out_features=768, bias=True)\r\n            (value): Linear(in_features=768, out_features=768, bias=True)\r\n            (dropout): Dropout(p=0.1, inplace=False)\r\n          )\r\n          (output): BertSelfOutput(\r\n            (dense): Linear(in_features=768, out_features=768, bias=True)\r\n            (LayerNorm): LayerNorm((768,), eps=1e-12, elementwise_affine=True)\r\n            (dropout): Dropout(p=0.1, inplace=False)\r\n          )\r\n        )\r\n        (intermediate): BertIntermediate(\r\n          (dense): Linear(in_features=768, out_features=3072, bias=True)\r\n        )\r\n        (output): BertOutput(\r\n          (dense): Linear(in_features=3072, out_features=768, bias=True)\r\n          (LayerNorm): LayerNorm((768,), eps=1e-12, elementwise_affine=True)\r\n          (dropout): Dropout(p=0.1, inplace=False)\r\n        )\r\n      )\r\n      (7): BertLayer(\r\n        (attention): BertAttention(\r\n          (self): BertSelfAttention(\r\n            (query): Linear(in_features=768, out_features=768, bias=True)\r\n            (key): Linear(in_features=768, out_features=768, bias=True)\r\n            (value): Linear(in_features=768, out_features=768, bias=True)\r\n            (dropout): Dropout(p=0.1, inplace=False)\r\n          )\r\n          (output): BertSelfOutput(\r\n            (dense): Linear(in_features=768, out_features=768, bias=True)\r\n            (LayerNorm): LayerNorm((768,), eps=1e-12, elementwise_affine=True)\r\n            (dropout): Dropout(p=0.1, inplace=False)\r\n          )\r\n        )\r\n        (intermediate): BertIntermediate(\r\n          (dense): Linear(in_features=768, out_features=3072, bias=True)\r\n        )\r\n        (output): BertOutput(\r\n          (dense): Linear(in_features=3072, out_features=768, bias=True)\r\n          (LayerNorm): LayerNorm((768,), eps=1e-12, elementwise_affine=True)\r\n          (dropout): Dropout(p=0.1, inplace=False)\r\n        )\r\n      )\r\n      (8): BertLayer(\r\n        (attention): BertAttention(\r\n          (self): BertSelfAttention(\r\n            (query): Linear(in_features=768, out_features=768, bias=True)\r\n            (key): Linear(in_features=768, out_features=768, bias=True)\r\n            (value): Linear(in_features=768, out_features=768, bias=True)\r\n            (dropout): Dropout(p=0.1, inplace=False)\r\n          )\r\n          (output): BertSelfOutput(\r\n            (dense): Linear(in_features=768, out_features=768, bias=True)\r\n            (LayerNorm): LayerNorm((768,), eps=1e-12, elementwise_affine=True)\r\n            (dropout): Dropout(p=0.1, inplace=False)\r\n          )\r\n        )\r\n        (intermediate): BertIntermediate(\r\n          (dense): Linear(in_features=768, out_features=3072, bias=True)\r\n        )\r\n        (output): BertOutput(\r\n          (dense): Linear(in_features=3072, out_features=768, bias=True)\r\n          (LayerNorm): LayerNorm((768,), eps=1e-12, elementwise_affine=True)\r\n          (dropout): Dropout(p=0.1, inplace=False)\r\n        )\r\n      )\r\n      (9): BertLayer(\r\n        (attention): BertAttention(\r\n          (self): BertSelfAttention(\r\n            (query): Linear(in_features=768, out_features=768, bias=True)\r\n            (key): Linear(in_features=768, out_features=768, bias=True)\r\n            (value): Linear(in_features=768, out_features=768, bias=True)\r\n            (dropout): Dropout(p=0.1, inplace=False)\r\n          )\r\n          (output): BertSelfOutput(\r\n            (dense): Linear(in_features=768, out_features=768, bias=True)\r\n            (LayerNorm): LayerNorm((768,), eps=1e-12, elementwise_affine=True)\r\n            (dropout): Dropout(p=0.1, inplace=False)\r\n          )\r\n        )\r\n        (intermediate): BertIntermediate(\r\n          (dense): Linear(in_features=768, out_features=3072, bias=True)\r\n        )\r\n        (output): BertOutput(\r\n          (dense): Linear(in_features=3072, out_features=768, bias=True)\r\n          (LayerNorm): LayerNorm((768,), eps=1e-12, elementwise_affine=True)\r\n          (dropout): Dropout(p=0.1, inplace=False)\r\n        )\r\n      )\r\n      (10): BertLayer(\r\n        (attention): BertAttention(\r\n          (self): BertSelfAttention(\r\n            (query): Linear(in_features=768, out_features=768, bias=True)\r\n            (key): Linear(in_features=768, out_features=768, bias=True)\r\n            (value): Linear(in_features=768, out_features=768, bias=True)\r\n            (dropout): Dropout(p=0.1, inplace=False)\r\n          )\r\n          (output): BertSelfOutput(\r\n            (dense): Linear(in_features=768, out_features=768, bias=True)\r\n            (LayerNorm): LayerNorm((768,), eps=1e-12, elementwise_affine=True)\r\n            (dropout): Dropout(p=0.1, inplace=False)\r\n          )\r\n        )\r\n        (intermediate): BertIntermediate(\r\n          (dense): Linear(in_features=768, out_features=3072, bias=True)\r\n        )\r\n        (output): BertOutput(\r\n          (dense): Linear(in_features=3072, out_features=768, bias=True)\r\n          (LayerNorm): LayerNorm((768,), eps=1e-12, elementwise_affine=True)\r\n          (dropout): Dropout(p=0.1, inplace=False)\r\n        )\r\n      )\r\n      (11): BertLayer(\r\n        (attention): BertAttention(\r\n          (self): BertSelfAttention(\r\n            (query): Linear(in_features=768, out_features=768, bias=True)\r\n            (key): Linear(in_features=768, out_features=768, bias=True)\r\n            (value): Linear(in_features=768, out_features=768, bias=True)\r\n            (dropout): Dropout(p=0.1, inplace=False)\r\n          )\r\n          (output): BertSelfOutput(\r\n            (dense): Linear(in_features=768, out_features=768, bias=True)\r\n            (LayerNorm): LayerNorm((768,), eps=1e-12, elementwise_affine=True)\r\n            (dropout): Dropout(p=0.1, inplace=False)\r\n          )\r\n        )\r\n        (intermediate): BertIntermediate(\r\n          (dense): Linear(in_features=768, out_features=3072, bias=True)\r\n        )\r\n        (output): BertOutput(\r\n          (dense): Linear(in_features=3072, out_features=768, bias=True)\r\n          (LayerNorm): LayerNorm((768,), eps=1e-12, elementwise_affine=True)\r\n          (dropout): Dropout(p=0.1, inplace=False)\r\n        )\r\n      )\r\n    )\r\n  )\r\n  (pooler): BertPooler(\r\n    (dense): Linear(in_features=768, out_features=768, bias=True)\r\n    (activation): Tanh()\r\n  )\r\n)\r\n```","closed_by":null,"reactions":{"url":"https://api.github.com/repos/sksq96/pytorch-summary/issues/157/reactions","total_count":8,"+1":8,"-1":0,"laugh":0,"hooray":0,"confused":0,"heart":0,"rocket":0,"eyes":0},"timeline_url":"https://api.github.com/repos/sksq96/pytorch-summary/issues/157/timeline","performed_
…
