…
"updated_at":"2018-09-14T18:04:04Z","closed_at":null,"author_association":"NONE","active_lock_reason":null,"body":"Hi, In DRN [https://github.com/fyu/drn] there is basic block which consists of two series of conv and batchnorm layers for which number of parameters is returned is zero. Can you please look into  this issue? Can you also add parameter indicating the Memory size required for Deployment(forward pass only)\r\n\r\n```\r\n\r\n       Layer (type)               Output Shape         Param \r\n================================================================\r\n            Conv2d-1        [-1, 16, 512, 1024]           2,352\r\n       BatchNorm2d-2        [-1, 16, 512, 1024]              32\r\n              ReLU-3        [-1, 16, 512, 1024]               0\r\n            Conv2d-4        [-1, 16, 512, 1024]           2,304\r\n       BatchNorm2d-5        [-1, 16, 512, 1024]              32\r\n              ReLU-6        [-1, 16, 512, 1024]               0\r\n            Conv2d-7         [-1, 32, 256, 512]           4,608\r\n       BatchNorm2d-8         [-1, 32, 256, 512]              64\r\n              ReLU-9         [-1, 32, 256, 512]               0\r\n           Conv2d-10         [-1, 64, 128, 256]          18,432\r\n      BatchNorm2d-11         [-1, 64, 128, 256]             128\r\n             ReLU-12         [-1, 64, 128, 256]               0\r\n           Conv2d-13         [-1, 64, 128, 256]          36,864\r\n      BatchNorm2d-14         [-1, 64, 128, 256]             128\r\n           Conv2d-15         [-1, 64, 128, 256]           2,048\r\n      BatchNorm2d-16         [-1, 64, 128, 256]             128\r\n             ReLU-17         [-1, 64, 128, 256]               0\r\n       BasicBlock-18         [-1, 64, 128, 256]               0\r\n           Conv2d-19         [-1, 64, 128, 256]          36,864\r\n      BatchNorm2d-20         [-1, 64, 128, 256]             128\r\n             ReLU-21         [-1, 64, 128, 256]               0\r\n           Conv2d-22         [-1, 64, 128, 256]          36,864\r\n      BatchNorm2d-23         [-1, 64, 128, 256]             128\r\n             ReLU-24         [-1, 64, 128, 256]               0\r\n       BasicBlock-25         [-1, 64, 128, 256]               0\r\n           Conv2d-26         [-1, 64, 128, 256]          36,864\r\n      BatchNorm2d-27         [-1, 64, 128, 256]             128\r\n             ReLU-28         [-1, 64, 128, 256]               0\r\n           Conv2d-29         [-1, 64, 128, 256]          36,864\r\n      BatchNorm2d-30         [-1, 64, 128, 256]             128\r\n             ReLU-31         [-1, 64, 128, 256]               0\r\n       BasicBlock-32         [-1, 64, 128, 256]               0\r\n           Conv2d-33         [-1, 128, 64, 128]          73,728\r\n      BatchNorm2d-34         [-1, 128, 64, 128]             256\r\n             ReLU-35         [-1, 128, 64, 128]               0\r\n           Conv2d-36         [-1, 128, 64, 128]         147,456\r\n      BatchNorm2d-37         [-1, 128, 64, 128]             256\r\n           Conv2d-38         [-1, 128, 64, 128]           8,192\r\n      BatchNorm2d-39         [-1, 128, 64, 128]             256\r\n             ReLU-40         [-1, 128, 64, 128]               0\r\n       BasicBlock-41         [-1, 128, 64, 128]               0\r\n           Conv2d-42         [-1, 128, 64, 128]         147,456\r\n      BatchNorm2d-43         [-1, 128, 64, 128]             256\r\n             ReLU-44         [-1, 128, 64, 128]               0\r\n           Conv2d-45         [-1, 128, 64, 128]         147,456\r\n      BatchNorm2d-46         [-1, 128, 64, 128]             256\r\n             ReLU-47         [-1, 128, 64, 128]               0\r\n       BasicBlock-48         [-1, 128, 64, 128]               0\r\n           Conv2d-49         [-1, 128, 64, 128]         147,456\r\n      BatchNorm2d-50         [-1, 128, 64, 128]             256\r\n             ReLU-51         [-1, 128, 64, 128]               0\r\n           Conv2d-52         [-1, 128, 64, 128]         147,456\r\n      BatchNorm2d-53         [-1, 128, 64, 128]             256\r\n             ReLU-54         [-1, 128, 64, 128]               0\r\n       BasicBlock-55         [-1, 128, 64, 128]               0\r\n           Conv2d-56         [-1, 128, 64, 128]         147,456\r\n      BatchNorm2d-57         [-1, 128, 64, 128]             256\r\n             ReLU-58         [-1, 128, 64, 128]               0\r\n           Conv2d-59         [-1, 128, 64, 128]         147,456\r\n      BatchNorm2d-60         [-1, 128, 64, 128]             256\r\n             ReLU-61         [-1, 128, 64, 128]               0\r\n       BasicBlock-62         [-1, 128, 64, 128]               0\r\n           Conv2d-63         [-1, 256, 64, 128]         294,912\r\n      BatchNorm2d-64         [-1, 256, 64, 128]             512\r\n             ReLU-65         [-1, 256, 64, 128]               0\r\n           Conv2d-66         [-1, 256, 64, 128]         589,824\r\n      BatchNorm2d-67         [-1, 256, 64, 128]             512\r\n           Conv2d-68         [-1, 256, 64, 128]          32,768\r\n      BatchNorm2d-69         [-1, 256, 64, 128]             512\r\n             ReLU-70         [-1, 256, 64, 128]               0\r\n       BasicBlock-71         [-1, 256, 64, 128]               0\r\n           Conv2d-72         [-1, 256, 64, 128]         589,824\r\n      BatchNorm2d-73         [-1, 256, 64, 128]             512\r\n             ReLU-74         [-1, 256, 64, 128]               0\r\n           Conv2d-75         [-1, 256, 64, 128]         589,824\r\n      BatchNorm2d-76         [-1, 256, 64, 128]             512\r\n             ReLU-77         [-1, 256, 64, 128]               0\r\n       BasicBlock-78         [-1, 256, 64, 128]               0\r\n           Conv2d-79         [-1, 256, 64, 128]         589,824\r\n      BatchNorm2d-80         [-1, 256, 64, 128]             512\r\n             ReLU-81         [-1, 256, 64, 128]               0\r\n           Conv2d-82         [-1, 256, 64, 128]         589,824\r\n      BatchNorm2d-83         [-1, 256, 64, 128]             512\r\n             ReLU-84         [-1, 256, 64, 128]               0\r\n       BasicBlock-85         [-1, 256, 64, 128]               0\r\n           Conv2d-86         [-1, 256, 64, 128]         589,824\r\n      BatchNorm2d-87         [-1, 256, 64, 128]             512\r\n             ReLU-88         [-1, 256, 64, 128]               0\r\n           Conv2d-89         [-1, 256, 64, 128]         589,824\r\n      BatchNorm2d-90         [-1, 256, 64, 128]             512\r\n             ReLU-91         [-1, 256, 64, 128]               0\r\n       BasicBlock-92         [-1, 256, 64, 128]               0\r\n           Conv2d-93         [-1, 256, 64, 128]         589,824\r\n      BatchNorm2d-94         [-1, 256, 64, 128]             512\r\n             ReLU-95         [-1, 256, 64, 128]               0\r\n           Conv2d-96         [-1, 256, 64, 128]         589,824\r\n      BatchNorm2d-97         [-1, 256, 64, 128]             512\r\n             ReLU-98         [-1, 256, 64, 128]               0\r\n       BasicBlock-99         [-1, 256, 64, 128]               0\r\n          Conv2d-100         [-1, 256, 64, 128]         589,824\r\n     BatchNorm2d-101         [-1, 256, 64, 128]             512\r\n            ReLU-102         [-1, 256, 64, 128]               0\r\n          Conv2d-103         [-1, 256, 64, 128]         589,824\r\n     BatchNorm2d-104         [-1, 256, 64, 128]             512\r\n            ReLU-105         [-1, 256, 64, 128]               0\r\n      BasicBlock-106         [-1, 256, 64, 128]               0\r\n          Conv2d-107         [-1, 512, 64, 128]       1,179,648\r\n     BatchNorm2d-108         [-1, 512, 64, 128]           1,024\r\n            ReLU-109         [-1, 512, 64, 128]               0\r\n          Conv2d-110         [-1, 512, 64, 128]       2,359,296\r\n     BatchNorm2d-111         [-1, 512, 64, 128]           1,024\r\n          Conv2d-112         [-1, 512, 64, 128]         131,072\r\n     BatchNorm2d-113         [-1, 512, 64, 128]           1,024\r\n            ReLU-114         [-1, 512, 64, 128]               0\r\n      BasicBlock-115         [-1, 512, 64, 128]               0\r\n          Conv2d-116         [-1, 512, 64, 128]       2,359,296\r\n     BatchNorm2d-117         [-1, 512, 64, 128]           1,024\r\n            ReLU-118         [-1, 512, 64, 128]               0\r\n          Conv2d-119         [-1, 512, 64, 128]       2,359,296\r\n     BatchNorm2d-120         [-1, 512, 64, 128]           1,024\r\n            ReLU-121         [-1, 512, 64, 128]               0\r\n      BasicBlock-122         [-1, 512, 64, 128]               0\r\n          Conv2d-123         [-1, 512, 64, 128]       2,359,296\r\n     BatchNorm2d-124         [-1, 512, 64, 128]           1,024\r\n            ReLU-125         [-1, 512, 64, 128]               0\r\n          Conv2d-126         [-1, 512, 64, 128]       2,359,296\r\n     BatchNorm2d-127         [-1, 512, 64, 128]           1,024\r\n            ReLU-128         [-1, 512, 64, 128]               0\r\n      BasicBlock-129         [-1, 512, 64, 128]               0\r\n          Conv2d-130         [-1, 512, 64, 128]       2,359,296\r\n     BatchNorm2d-131         [-1, 512, 64, 128]           1,024\r\n            ReLU-132         [-1, 512, 64, 128]               0\r\n          Conv2d-133         [-1, 512, 64, 128]       2,359,296\r\n     BatchNorm2d-134         [-1, 512, 64, 128]           1,024\r\n            ReLU-135         [-1, 512, 64, 128]               0\r\n          Conv2d-136          [-1, 19, 64, 128]           9,747\r\n ConvTranspose2d-137        [-1, 19, 512, 1024]           4,864\r\n      LogSoftmax-138        [-1, 19, 512, 1024]               0\r\n================================================================\r\n```","closed_by":{"login":"sksq96","id":8557728,"node_id":"MDQ6VXNlcjg1NTc3Mjg=","avatar_url":"https://avatars.githubusercontent.com/u/8557728?v=4","gravatar_id":"","url":"https://api.github.com/users/sksq96","html_url":"https://github.com/sksq96","followers_url":"https://api.github.com/users/sksq96/followers","following_url":
…
