…
in":false},"labels":[],"state":"open","locked":false,"assignee":null,"assignees":[],"milestone":null,"comments":0,"created_at":"2018-09-23T17:33:24Z","updated_at":"2018-09-23T17:33:36Z","closed_at":null,"author_association":"NONE","active_lock_reason":null,"body":"Trying to get summary from `resnet18`, for some reason `BasicBlock-*` are have 0 params.\r\n\r\n```\r\n----------------------------------------------------------------\r\n        Layer (type)               Output Shape         Param #\r\n================================================================\r\n            Conv2d-1         [-1, 64, 112, 112]           9,408\r\n       BatchNorm2d-2         [-1, 64, 112, 112]             128\r\n              ReLU-3         [-1, 64, 112, 112]               0\r\n         MaxPool2d-4           [-1, 64, 56, 56]               0\r\n            Conv2d-5           [-1, 64, 56, 56]          36,864\r\n       BatchNorm2d-6           [-1, 64, 56, 56]             128\r\n              ReLU-7           [-1, 64, 56, 56]               0\r\n            Conv2d-8           [-1, 64, 56, 56]          36,864\r\n       BatchNorm2d-9           [-1, 64, 56, 56]             128\r\n             ReLU-10           [-1, 64, 56, 56]               0\r\n       BasicBlock-11           [-1, 64, 56, 56]               0\r\n           Conv2d-12           [-1, 64, 56, 56]          36,864\r\n      BatchNorm2d-13           [-1, 64, 56, 56]             128\r\n             ReLU-14           [-1, 64, 56, 56]               0\r\n           Conv2d-15           [-1, 64, 56, 56]          36,864\r\n      BatchNorm2d-16           [-1, 64, 56, 56]             128\r\n             ReLU-17           [-1, 64, 56, 56]               0\r\n       BasicBlock-18           [-1, 64, 56, 56]               0\r\n           Conv2d-19          [-1, 128, 28, 28]          73,728\r\n      BatchNorm2d-20          [-1, 128, 28, 28]             256\r\n             ReLU-21          [-1, 128, 28, 28]               0\r\n           Conv2d-22          [-1, 128, 28, 28]         147,456\r\n      BatchNorm2d-23          [-1, 128, 28, 28]             256\r\n           Conv2d-24          [-1, 128, 28, 28]           8,192\r\n      BatchNorm2d-25          [-1, 128, 28, 28]             256\r\n             ReLU-26          [-1, 128, 28, 28]               0\r\n       BasicBlock-27          [-1, 128, 28, 28]               0\r\n           Conv2d-28          [-1, 128, 28, 28]         147,456\r\n      BatchNorm2d-29          [-1, 128, 28, 28]             256\r\n             ReLU-30          [-1, 128, 28, 28]               0\r\n           Conv2d-31          [-1, 128, 28, 28]         147,456\r\n      BatchNorm2d-32          [-1, 128, 28, 28]             256\r\n             ReLU-33          [-1, 128, 28, 28]               0\r\n       BasicBlock-34          [-1, 128, 28, 28]               0\r\n           Conv2d-35          [-1, 256, 14, 14]         294,912\r\n      BatchNorm2d-36          [-1, 256, 14, 14]             512\r\n             ReLU-37          [-1, 256, 14, 14]               0\r\n           Conv2d-38          [-1, 256, 14, 14]         589,824\r\n      BatchNorm2d-39          [-1, 256, 14, 14]             512\r\n           Conv2d-40          [-1, 256, 14, 14]          32,768\r\n      BatchNorm2d-41          [-1, 256, 14, 14]             512\r\n             ReLU-42          [-1, 256, 14, 14]               0\r\n       BasicBlock-43          [-1, 256, 14, 14]               0\r\n           Conv2d-44          [-1, 256, 14, 14]         589,824\r\n      BatchNorm2d-45          [-1, 256, 14, 14]             512\r\n             ReLU-46          [-1, 256, 14, 14]               0\r\n           Conv2d-47          [-1, 256, 14, 14]         589,824\r\n      BatchNorm2d-48          [-1, 256, 14, 14]             512\r\n             ReLU-49          [-1, 256, 14, 14]               0\r\n       BasicBlock-50          [-1, 256, 14, 14]               0\r\n           Conv2d-51            [-1, 512, 7, 7]       1,179,648\r\n      BatchNorm2d-52            [-1, 512, 7, 7]           1,024\r\n             ReLU-53            [-1, 512, 7, 7]               0\r\n           Conv2d-54            [-1, 512, 7, 7]       2,359,296\r\n      BatchNorm2d-55            [-1, 512, 7, 7]           1,024\r\n           Conv2d-56            [-1, 512, 7, 7]         131,072\r\n      BatchNorm2d-57            [-1, 512, 7, 7]           1,024\r\n             ReLU-58            [-1, 512, 7, 7]               0\r\n       BasicBlock-59            [-1, 512, 7, 7]               0\r\n           Conv2d-60            [-1, 512, 7, 7]       2,359,296\r\n      BatchNorm2d-61            [-1, 512, 7, 7]           1,024\r\n             ReLU-62            [-1, 512, 7, 7]               0\r\n           Conv2d-63            [-1, 512, 7, 7]       2,359,296\r\n      BatchNorm2d-64            [-1, 512, 7, 7]           1,024\r\n             ReLU-65            [-1, 512, 7, 7]               0\r\n       BasicBlock-66            [-1, 512, 7, 7]               0\r\n        AvgPool2d-67            [-1, 512, 1, 1]               0\r\n           Linear-68                 [-1, 1000]         513,000\r\n================================================================\r\nTotal params: 11,689,512\r\nTrainable params: 11,689,512\r\nNon-trainable params: 0\r\n----------------------------------------------------------------\r\nInput size (MB): 0.57\r\nForward/backward pass size (MB): 62.79\r\nParams size (MB): 44.59\r\nEstimated Total Size (MB): 107.96\r\n------------------------------------------
…
