…
b.com/users/jiayouchrislin/received_events","type":"User","site_admin":false},"labels":[],"state":"closed","locked":false,"assignee":null,"assignees":[],"milestone":null,"comments":2,"created_at":"2019-02-26T12:36:58Z","updated_at":"2019-12-31T23:46:53Z","closed_at":"2019-12-31T23:46:53Z","author_association":"NONE","active_lock_reason":null,"body":"----------------------------------------------------------------\r\n        Layer (type)               Output Shape         Param #\r\n================================================================\r\n    \r\n```\r\n            Conv2d-1          [1, 16, 240, 240]             160\r\n       BatchNorm2d-2          [1, 16, 240, 240]               0\r\n              ReLU-3          [1, 16, 240, 240]               0\r\n            Conv2d-4          [1, 16, 240, 240]           2,320\r\n       BatchNorm2d-5          [1, 16, 240, 240]               0\r\n         MaxPool2d-6          [1, 16, 120, 120]               0\r\n         Dropout2d-7          [1, 16, 120, 120]               0\r\n          DownConv-8  [[-1, 16, 120, 120], [-1, 16, 240, 240]]               0\r\n            Conv2d-9          [1, 32, 120, 120]           4,640\r\n      BatchNorm2d-10          [1, 32, 120, 120]               0\r\n             ReLU-11          [1, 32, 120, 120]               0\r\n           Conv2d-12          [1, 32, 120, 120]           9,248\r\n      BatchNorm2d-13          [1, 32, 120, 120]               0\r\n        MaxPool2d-14            [1, 32, 60, 60]               0\r\n        Dropout2d-15            [1, 32, 60, 60]               0\r\n         DownConv-16  [[-1, 32, 60, 60], [-1, 32, 120, 120]]               0\r\n           Conv2d-17            [1, 64, 60, 60]          18,496\r\n      BatchNorm2d-18            [1, 64, 60, 60]               0\r\n             ReLU-19            [1, 64, 60, 60]               0\r\n           Conv2d-20            [1, 64, 60, 60]          36,928\r\n      BatchNorm2d-21            [1, 64, 60, 60]               0\r\n        MaxPool2d-22            [1, 64, 30, 30]               0\r\n        Dropout2d-23            [1, 64, 30, 30]               0\r\n         DownConv-24  [[-1, 64, 30, 30], [-1, 64, 60, 60]]               0\r\n           Conv2d-25           [1, 128, 30, 30]          73,856\r\n      BatchNorm2d-26           [1, 128, 30, 30]               0\r\n             ReLU-27           [1, 128, 30, 30]               0\r\n           Conv2d-28           [1, 128, 30, 30]         147,584\r\n      BatchNorm2d-29           [1, 128, 30, 30]               0\r\n        MaxPool2d-30           [1, 128, 15, 15]               0\r\n        Dropout2d-31           [1, 128, 15, 15]               0\r\n         DownConv-32  [[-1, 128, 15, 15], [-1, 128, 30, 30]]               0\r\n           Conv2d-33           [1, 256, 15, 15]         295,168\r\n      BatchNorm2d-34           [1, 256, 15, 15]               0\r\n             ReLU-35           [1, 256, 15, 15]               0\r\n           Conv2d-36           [1, 256, 15, 15]         590,080\r\n      BatchNorm2d-37           [1, 256, 15, 15]               0\r\n         DownConv-38  [[-1, 256, 15, 15], [-1, 256, 15, 15]]               0\r\n  ConvTranspose2d-39           [1, 128, 30, 30]         131,200\r\n        Dropout2d-40           [1, 256, 30, 30]               0\r\n           Conv2d-41           [1, 128, 30, 30]         295,040\r\n      BatchNorm2d-42           [1, 128, 30, 30]               0\r\n           Conv2d-43           [1, 128, 30, 30]         147,584\r\n      BatchNorm2d-44           [1, 128, 30, 30]               0\r\n           UpConv-45           [1, 128, 30, 30]               0\r\n  ConvTranspose2d-46            [1, 64, 60, 60]          32,832\r\n        Dropout2d-47           [1, 128, 60, 60]               0\r\n           Conv2d-48            [1, 64, 60, 60]          73,792\r\n      BatchNorm2d-49            [1, 64, 60, 60]               0\r\n           Conv2d-50            [1, 64, 60, 60]          36,928\r\n      BatchNorm2d-51            [1, 64, 60, 60]               0\r\n           UpConv-52            [1, 64, 60, 60]               0\r\n  ConvTranspose2d-53          [1, 32, 120, 120]           8,224\r\n        Dropout2d-54          [1, 64, 120, 120]               0\r\n           Conv2d-55          [1, 32, 120, 120]          18,464\r\n      BatchNorm2d-56          [1, 32, 120, 120]               0\r\n           Conv2d-57          [1, 32, 120, 120]           9,248\r\n      BatchNorm2d-58          [1, 32, 120, 120]               0\r\n           UpConv-59          [1, 32, 120, 120]               0\r\n  ConvTranspose2d-60          [1, 16, 240, 240]           2,064\r\n        Dropout2d-61          [1, 32, 240, 240]               0\r\n           Conv2d-62          [1, 16, 240, 240]           4,624\r\n      BatchNorm2d-63          [1, 16, 240, 240]               0\r\n           Conv2d-64          [1, 16, 240, 240]           2,320\r\n      BatchNorm2d-65          [1, 16, 240, 240]               0\r\n           UpConv-66          [1, 16, 240, 240]               0\r\n           Conv2d-67           [1, 1, 240, 240]              17\r\n\r\n\r\n================================================================\r\nTotal params: 1,940,817\r\nTrainable params: 1,940,817\r\nNon-trainable params: 0\r\n\r\n----------------------------------------------------------------\r\n\r\nInput size (MB): 0.22\r\nForward/backward pass size (MB): 2177055.62\r\nParams size (MB): 7.40\r\nEstimated Total Size (MB): 2177063.24\r\n\r\n----------------
…
