…
ize=(3, 3), stride=(1, 1)), ⬅\r\n                nn.Conv2d(256, 128, kernel_size=(1, 1), stride=(1, 1)),\r\n                nn.Conv2d(128, 256, kernel_size=(3, 3), stride=(1, 1))]\r\n        self.f = nn.Sequential(*list)\r\n\r\n    def forward(self, x):\r\n        x = self.f(x)\r\n        return x\r\n\r\nnet = Net()\r\nsummary(net, (1024, 19, 19))\r\n```\r\n```\r\n----------------------------------------------------------------\r\n        Layer (type)               Output Shape         Param #\r\n================================================================\r\n            Conv2d-1          [-1, 256, 19, 19]          262400\r\n            Conv2d-2          [-1, 512, 10, 10]         1180160\r\n            Conv2d-3          [-1, 128, 10, 10]           65664\r\n            Conv2d-4            [-1, 256, 5, 5]          295168\r\n            Conv2d-5            [-1, 128, 5, 5]           32896 \r\n            Conv2d-6            [-1, 256, 3, 3]          295168 ⬅\r\n            Conv2d-7            [-1, 128, 3, 3]           32896\r\n            Conv2d-8            [-1, 256, 1, 1]          295168\r\n================================================================\r\nTotal params: 2459520\r\nTrainable params: 2459520\r\nNon-trainable params: 0\r\n----------------------------------------------------------------\r\n```","closed_by":{"login":"Fangyh09","id":9389269,"node_id":"MDQ6VXNlcjkzODkyNjk=","avatar_url":"https://avatars.githubusercontent.com/u/9389269?v=4","gravatar_id":"","url":"https
…
