…
dmin":false},"labels":[],"state":"open","locked":false,"assignee":null,"assignees":[],"milestone":null,"comments":1,"created_at":"2019-07-11T23:13:21Z","updated_at":"2020-03-11T14:25:18Z","closed_at":null,"author_association":"NONE","active_lock_reason":null,"body":"```\r\nimport torchvision.models as models\r\nfrom torchsummary import summary\r\n\r\nmobilenet = models.mobilenet_v2()\r\nsummary(mobilenet, (3, 224, 224))\r\n```\r\nOn running this code, I got an error in the output shape of the Dropout layer. Here are the last few lines from the output :\r\n\r\n> InvertedResidual-153            [-1, 320, 7, 7]               0\r\n          Conv2d-154           [-1, 1280, 7, 7]         409,600\r\n     BatchNorm2d-155           [-1, 1280, 7, 7]           2,560\r\n           ReLU6-156           [-1, 1280, 7, 7]               0\r\n         Dropout-157                 [-1, 1280]               0\r\n          Linear-158                 [-1, 1000]       1,281,000\r\n===============================================================\r\nTotal params: 3,504,872\r\nTrainable params: 3,504,872\r\nNon-trainable params: 0\r\n----------------------------------------------------------------\r\n\r\nThe result for the Dropout layer is wrong because Dropout does not change the shape of the input as per the PyTorch [docs](https://pytorch.org/docs/stable/_modules/torch/nn
…
