…
.github.com/users/duhd1993/received_events","type":"User","site_admin":false},"labels":[],"state":"open","locked":false,"assignee":null,"assignees":[],"milestone":null,"comments":2,"created_at":"2019-07-27T19:55:03Z","updated_at":"2022-05-10T09:56:40Z","closed_at":null,"author_association":"NONE","active_lock_reason":null,"body":"No issues for this:\r\n```\r\n----------------------------------------------------------------\r\n        Layer (type)               Output Shape         Param #\r\n================================================================\r\n            Linear-1               [-1, 1, 100]          30,100\r\n              Tanh-2               [-1, 1, 100]               0\r\n            Linear-3                [-1, 1, 50]           5,050\r\n              Tanh-4                [-1, 1, 50]               0\r\n            Linear-5                 [-1, 1, 3]             153\r\n================================================================\r\n```\r\nWhen I add batchnorm1d, errors:\r\n```\r\nRuntimeError: running_mean should contain 1 elements not 100\r\n```\r\n","closed_by":null,"reactions":{"url":"https://api.github.com/repos/sksq96/pytorch-summary/issues/85/reactions","total_count":1,"+1":1,"-1":0,"laugh":0,"hooray":0,"confused":0,"heart":0,"rocket":0,"eyes":0},"
…
