…
f._features = nn.Sequential(\r\n            self.group1,\r\n            self.group2\r\n        )\r\n\r\n    def forward(self,x):\r\n        out = self._features(x)\r\n        return out\r\n\r\nif '__main__' == __name__:\r\n\r\n    model = Model()\r\n    inp = (3, 30, 30, 30)\r\n\r\n    summary(model, inp, device='cpu')\r\n```\r\nThe output is the following:\r\n```\r\n----------------------------------------------------------------\r\n        Layer (type)               Output Shape         Param #\r\n================================================================\r\n            Conv3d-1       [-1, 69, 30, 30, 30]           5,658\r\n            Conv3d-2       [-1, 69, 30, 30, 30]           5,658\r\n         LeakyReLU-3       [-1, 69, 30, 30, 30]               0\r\n         LeakyReLU-4       [-1, 69, 30, 30, 30]               0\r\n            Conv3d-5     [-1, 1000, 29, 29, 29]       4,417,000\r\n            Conv3d-6     [-1, 1000, 29, 29, 29]       4,417,000\r\n         MaxPool3d-7     [-1, 1000, 15, 15, 15]               0\r\n         MaxPool3d-8     [-1, 1000, 15, 15, 15]               0\r\n              ReLU-9     [-1, 1000, 15, 15, 15]               0\r\n             ReLU-10     [-1, 1000, 15, 15, 15]               0\r\n================================================================\r\nTotal params: 8,845,316\r\nTrainable params: 8,845,316\r\nNon-trainable params: 0\r\n----------------------------------------------------------------\r\nInput size (MB): 0.31\r\nForward/backward pass size (MB): 532.00\r\nParams size (MB): 33.74\r\nEstimated Total Size (MB): 566.05\r\n-------------------------------------------
…
