…
6x256_rect\r\nmask_shapes: [128, 128]\r\nmask_type: rect\r\nmode: save\r\nmodel: gmcnn\r\nmodel_folder: test_20191211-232248_paris_streetview_gmcnn_s256x256_gc32\r\nphase: test\r\nrandom_mask: False\r\nsaving_path: ./test_results\\test_20191211-232248_paris_streetview_gmcnn_s256x256_gc32\r\nseed: 1\r\ntest_dir: ./test_results\r\ntest_num: -1\r\n-------------- End ----------------\r\nThe total number of testing images is 4, and we take 4 for test.\r\nconfiguring model..\r\ninitialize network with normal\r\n---------- Networks initialized -------------\r\nGMCNN(\r\n  (EB1): ModuleList(\r\n    (0): Conv2d(4, 32, kernel_size=(7, 7), stride=(1, 1))\r\n    (1): Conv2d(32, 64, kernel_size=(7, 7), stride=(2, 2))\r\n    (2): Conv2d(64, 64, kernel_size=(7, 7), stride=(1, 1))\r\n    (3): Conv2d(64, 128, kernel_size=(7, 7), stride=(2, 2))\r\n    (4): Conv2d(128, 128, kernel_size=(7, 7), stride=(1, 1))\r\n    (5): Conv2d(128, 128, kernel_size=(7, 7), stride=(1, 1))\r\n    (6): Conv2d(128, 128, kernel_size=(7, 7), stride=(1, 1), dilation=(2, 2))\r\n    (7): Conv2d(128, 128, kernel_size=(7, 7), stride=(1, 1), dilation=(4, 4))\r\n    (8): Conv2d(128, 128, kernel_size=(7, 7), stride=(1, 1), dilation=(8, 8))\r\n    (9): Conv2d(128, 128, kernel_size=(7, 7), stride=(1, 1), dilation=(16, 16))\r\n    (10): Conv2d(128, 128, kernel_size=(7, 7), stride=(1, 1))\r\n    (11): Conv2d(128, 128, kernel_size=(7, 7), stride=(1, 1))\r\n    (12): PureUpsampling()\r\n  )\r\n  (EB2): ModuleList(\r\n    (0): Conv2d(4, 32, kernel_size=(5, 5), stride=(1, 1))\r\n    (1): Conv2d(32, 64, kernel_size=(5, 5), stride=(2, 2))\r\n    (2): Conv2d(64, 64, kernel_size=(5, 5), stride=(1, 1))\r\n    (3): Conv2d(64, 128, kernel_size=(5, 5), stride=(2, 2))\r\n    (4): Conv2d(128, 128, kernel_size=(5, 5), stride=(1, 1))\r\n    (5): Conv2d(128, 128, kernel_size=(5, 5), stride=(1, 1))\r\n    (6): Conv2d(128, 128, kernel_size=(5, 5), stride=(1, 1), dilation=(2, 2))\r\n    (7): Conv2d(128, 128, kernel_size=(5, 5), stride=(1, 1), dilation=(4, 4))\r\n    (8): Conv2d(128, 128, kernel_size=(5, 5), stride=(1, 1), dilation=(8, 8))\r\n    (9): Conv2d(128, 128, kernel_size=(5, 5), stride=(1, 1), dilation=(16, 16))\r\n    (10): Conv2d(128, 128, kernel_size=(5, 5), stride=(1, 1))\r\n    (11): Conv2d(128, 128, kernel_size=(5, 5), stride=(1, 1))\r\n    (12): PureUpsampling()\r\n    (13): Conv2d(128, 64, kernel_size=(5, 5), stride=(1, 1))\r\n    (14): Conv2d(64, 64, kernel_size=(5, 5), stride=(1, 1))\r\n    (15): PureUpsampling()\r\n  )\r\n  (EB3): ModuleList(\r\n    (0): Conv2d(4, 32, kernel_size=(3, 3), stride=(1, 1))\r\n    (1): Conv2d(32, 64, kernel_size=(3, 3), stride=(2, 2))\r\n    (2): Conv2d(64, 64, kernel_size=(3, 3), stride=(1, 1))\r\n    (3): Conv2d(64, 128, kernel_size=(3, 3), stride=(2, 2))\r\n    (4): Conv2d(128, 128, kernel_size=(3, 3), stride=(1, 1))\r\n    (5): Conv2d(128, 128, kernel_size=(3, 3), stride=(1, 1))\r\n    (6): Conv2d(128, 128, kernel_size=(3, 3), stride=(1, 1), dilation=(2, 2))\r\n    (7): Conv2d(128, 128, kernel_size=(3, 3), stride=(1, 1), dilation=(4, 4))\r\n    (8): Conv2d(128, 128, kernel_size=(3, 3), stride=(1, 1), dilation=(8, 8))\r\n    (9): Conv2d(128, 128, kernel_size=(3, 3), stride=(1, 1), dilation=(16, 16))\r\n    (10): Conv2d(128, 128, kernel_size=(3, 3), stride=(1, 1))\r\n    (11): Conv2d(128, 128, kernel_size=(3, 3), stride=(1, 1))\r\n    (12): PureUpsampling()\r\n    (13): Conv2d(128, 64, kernel_size=(3, 3), stride=(1, 1))\r\n    (14): Conv2d(64, 64, kernel_size=(3, 3), stride=(1, 1))\r\n    (15): PureUpsampling()\r\n    (16): Conv2d(64, 32, kernel_size=(3, 3), stride=(1, 1))\r\n    (17): Conv2d(32, 32, kernel_size=(3, 3), stride=(1, 1))\r\n  )\r\n  (decoding_layers): ModuleList(\r\n    (0): Conv2d(224, 16, kernel_size=(3, 3), stride=(1, 1))\r\n    (1): Conv2d(16, 3, kernel_size=(3, 3), stride=(1, 1))\r\n  )\r\n  (pads): ModuleList(\r\n    (0): ReflectionPad2d((0, 0, 0, 0))\r\n    (1): ReflectionPad2d((1, 1, 1, 1))\r\n    (2): ReflectionPad2d((2, 2, 2, 2))\r\n    (3): ReflectionPad2d((3, 3, 3, 3))\r\n    (4): ReflectionPad2d((4, 4, 4, 4))\r\n    (5): ReflectionPad2d((5, 5, 5, 5))\r\n    (6): ReflectionPad2d((6, 6, 6, 6))\r\n    (7): ReflectionPad2d((7, 
…
