…
 forward: memory used: 774.46MB\r\nexiting stacked_cnn encoder forward: memory used: 796.68MB\r\nEXITING IMAGE_FEATURE FORWARD: memory used: 796.68MB\r\n=============================================================================================================================\r\nLayer (type (var_name))                       Input Shape          Output Shape         Param #              Trainable\r\n=============================================================================================================================\r\nImageInputFeature (ImageInputFeature)         [7, 3, 224, 224]     [7, 128]             --                   True\r\n├─Stacked2DCNN (encoder_obj)                  [7, 3, 224, 224]     [7, 128]             --                   True\r\n│    └─Conv2DStack (conv_stack_2d)            [7, 3, 224, 224]     [7, 64, 54, 54]      --                   True\r\n│    │    └─ModuleList (stack)                --                   --                   19,392               True\r\n│    └─Flatten (flatten)                      [7, 64, 54, 54]      [7, 186624]          --                   --\r\n│    └─FCStack (fc_stack)                     [7, 186624]          [7, 128]             --                   True\r\n│    │    └─ModuleList (stack)                --                   --                   23,888,000           True\r\n=============================================================================================================================\r\nTotal params: 23,907,392\r\nTrainable params: 23,907,392\r\nNon-trainable params: 0\r\nTotal mult-adds (G): 2.01\r\n===========
…
ORWARD: memory used: 1108.21MB  batch shape torch.Size([7, 3, 224, 224])\r\nEXITING IMAGE_FEATURE FORWARD: memory used: 1108.21MB\r\n==================================================================================================================================\r\nLayer (type (var_name))                            Input Shape          Output Shape         Param #              Trainable\r\n==================================================================================================================================\r\nImageInputFeature (ImageInputFeature)              [7, 3, 224, 224]     [7, 512]             --                   True\r\n├─TVResNetEncoder (encoder_obj)                    [7, 3, 224, 224]     [7, 512]             --                   True\r\n│    └─ResNet (model)                              [7, 3, 224, 224]     [7, 512]             --                   True\r\n│    │    └─Conv2d (conv1)                         [7, 3, 224, 224]     [7, 64, 112, 112]    9,408                True\r\n│    │    └─BatchNorm2d (bn1)                      [7, 64, 112, 112]    [7, 64, 112, 112]    128                  True\r\n│    │    └─ReLU (relu)                            [7, 64, 112, 112]    [7, 64, 112, 112]    --                   --\r\n│    │    └─MaxPool2d (maxpool)                    [7, 64, 112, 112]    [7, 64, 56, 56]      --                   --\r\n│    │    └─Sequential (layer1)                    [7, 64, 56, 56]      [7, 64, 56, 56]      147,968              True\r\n│    │    └─Sequential (layer2)                    [7, 64, 56, 56]      [7, 128, 28, 28]     525,568              True\r\n│    │    └─Sequential (layer3)                    [7, 128, 28, 28]     [7, 256, 14, 14]     2,099,712            True\r\n│    │    └─Sequential (layer4)                    [7, 256, 14, 14]     [7, 512, 7, 7]       8,393,728            True\r\n│    │    └─AdaptiveAvgPool2d (avgpool)            [7, 512, 7, 7]       [7, 512, 1, 1]       --                   --\r\n│    │    └─Identity (fc)                          [7, 512]             [7, 512]             --                   --\r\n==================================================================================================================================\r\nTotal params: 11,176,512\r\nTrainable params: 11,176,512\r\nNon-trainable params: 0\r\nTotal mult-adds (G): 12.69\r\n============================================================================================================================
…
