…
dx)                                  Output Shape              Param #\r\n=========================================================================================================\r\nECD                                                     [2]                       --\r\n├─ConcatCombiner: 1-1                                   --                        (recursive)\r\n│    └─LudwigFeatureDict: 2-1                           --                        --\r\n│    │    └─ModuleDict: 3-1                             --                        --\r\n│    │    │    └─NumberInputFeature: 4-1                [2, 1]                    --\r\n│    │    │    │    └─PassthroughEncoder: 5-1           [2, 1]                    --\r\n│    │    │    └─CategoryInputFeature: 4-2              [2, 9]                    --\r\n│    │    │    │    └─CategoricalEmbedEncoder: 5-2      [2, 9]                    --\r\n│    │    │    │    │    └─Embed: 6-1                   [2, 9]                    --\r\n│    │    │    │    │    │    └─Embedding: 7-1          [2, 1, 9]                 81\r\n│    │    │    └─NumberInputFeature: 4-3                [2, 1]                    --\r\n│    │    │    │    └─PassthroughEncoder: 5-3           [2, 1]                    --\r\n│    │    │    └─CategoryInputFeature: 4-4              [2, 16]                   --\r\n│    │    │    │    └─CategoricalEmbedEncoder: 5-4      [2, 16]                   --\r\n│    │    │    │    │    └─Embed: 6-2                   [2, 16]                   --\r\n│    │    │    │    │    │    └─Embedding: 7-2          [2, 1, 16]                256\r\n│    │    │    └─NumberInputFeature: 4-5                [2, 1]                    --\r\n│    │    │    │    └─PassthroughEncoder: 5-5           [2, 1]                    --\r\n│    │    │    └─CategoryInputFeature: 4-6              [2, 7]                    --\r\n│    │    │    │    └─CategoricalEmbedEncoder: 5-6      [2, 7]                    --\r\n│    │    │    │    │    └─Embed: 6-3                   [2, 7]                    --\r\n│    │    │    │    │    │    └─Embedding: 7-3          [2, 1, 7]                 49\r\n│    │    │    └─CategoryInputFeature: 4-7              [2, 15]                   --\r\n│    │    │    │    └─CategoricalEmbedEncoder: 5-7      [2, 15]                   --\r\n│    │    │    │    │    └─Embed: 6-4                   [2, 15]                   --\r\n│    │    │    │    │    │    └─Embedding: 7-4          [2, 1, 15]                225\r\n│    │    │    └─CategoryInputFeature: 4-8              [2, 6]                    --\r\n│    │    │    │    └─CategoricalEmbedEncoder: 5-8      [2, 6]                    --\r\n│    │    │    │    │    └─Embed: 6-5                   [2, 6]                    --\r\n│    │    │    │    │    │    └─Embedding: 7-5          [2, 1, 6]                 36\r\n│    │    │    └─CategoryInputFeature: 4-9              [2, 5]                    --\r\n│    │    │    │    └─CategoricalEmbedEncoder: 5-9      [2, 5]                    --\r\n│    │    │    │    │    └─Embed: 6-6                   [2, 5]                    --\r\n│    │    │    │    │    │    └─Embedding: 7-6          [2, 1, 5]                 25\r\n│    │    │    └─CategoryInputFeature: 4-10             [2, 2]                    --\r\n│    │    │    │    └─CategoricalEmbedEncoder: 5-10     [2, 2]                    --\r\n│    │    │    │    │    └─Embed: 6-7                   [2, 2]                    --\r\n│    │    │    │    │    │    └─Embedding: 7-7          [2, 1, 2]                 4\r\n│    │    │    └─NumberInputFeature: 4-11               [2, 1]                    --\r\n│    │    │    │    └─PassthroughEncoder: 5-11          [2, 1]                    --\r\n│    │    │    └─NumberInputFeature: 4-12               [2, 1]                    --\r\n│    │    │    │    └─PassthroughEncoder: 5-12          [2, 1]                    --\r\n│    │    │    └─NumberInputFeature: 4-13               [2, 1]                    --\r\n│    │    │    │    └─PassthroughEncoder: 5-13          [2, 1]                    --\r\n│    │    │    └─CategoryInputFeature: 4-14             [2, 42]                   --\r\n│    │    │    │    └─CategoricalEmbedEncoder: 5-14     [2, 42]                   --\r\n│    │    │    │    │    └─Embed: 6-8                   [2, 42]                   --\r\n│    │    │    │    │    │    └─Embedding: 7-8          [2, 1, 42]                1,764\r\n├─ConcatCombiner: 1-2                                   [2, 128]                  2,440\r\n│    └─FCStack: 2-2                                     [2, 128]                  --\r\n│    │    └─ModuleList: 3-2                             --                        --\r\n│    │    │    └─FCLayer: 4-15                          [2, 128]                  --\r\n│    │    │    │    └─ModuleList: 5-15                  --                        --\r\n│    │    │    │    │    └─Linear: 6-9                  [2, 128]                  13,952\r\n│    │    │    │    │    └─ReLU: 6-10                   [2, 128]                  --\r\n│    │    │    │    │    └─Dropout: 6-11                [2, 128]                  --\r\n│    │    │    └─FCLayer: 4-16                          [2, 128]                  --\r\n│    │    │    │    └─ModuleList: 5-16                  --                        --\r\n│    │    │    │    │    └─Linear: 6-12                 [2, 128]                  16,512\r\n│    │    │    │    │    └─ReLU: 6-13                   [2, 128]                  --\r\n│    │    │    │    │    └─Dropout: 6-14                [2, 128]                  --\r\n│    │    │    └─FCLayer: 4-17                          [2, 128]                  --\r\n│    │    │    │    └─ModuleList: 5-17                  --                        --\r\n│    │    │    │    │    └─Linear: 6-15                 [2, 128]                  16,512\r\n│    │    │    │    │    └─ReLU: 6-16                   [2, 128]                  --\r\n│    │    │    │    │    └─Dropout: 6-17                [2, 128]                  --\r\n├─LudwigFeatureDict: 1-3                                --                        --\r\n│    └─ModuleDict: 2-3                                  --                        --\r\n│    │    └─BinaryOutputFeature: 3-3                    [2]                       --\r\n│    │    │    └─FCStack: 4-18                          [2, 32]                   --\r\n│    │    │    │    └─ModuleList: 5-18                  --                        --\r\n│    │    │    │    │    └─FCLayer: 6-18                [2, 32]                   --\r\n│    │    │    │    │    │    └─ModuleList: 7-9         --                        --\r\n│    │    │    │    │    │    │    └─Linear: 8-1        [2, 32]                   4,128\r\n│    │    │    │    │    │    │    └─ReLU: 8-2          [2, 32]                   --\r\n│    │    │    │    │    └─FCLayer: 6-19                [2, 32]                   --\r\n│    │    │    │    │    │    └─ModuleList: 7-10        --                        --\r\n│    │    │    │    │    │    │    └─Linear: 8-3        [2, 32]                   1,056\r\n│    │    │    │    │    │    │    └─ReLU: 8-4          [2, 32]                   --\r\n│    │    │    │    │    └─FCLayer: 6-20                [2, 32]                   --\r\n│    │    │    │    │    │    └─ModuleList: 7-11        --                        --\r\n│    │    │    │    │    │    │    └─Linear: 8-5        [2, 32]                   1,056\r\n│    │    │    │    │    │    │    └─ReLU: 8-6          [2, 32]                   --\r\n│    │    │    │    │    └─FCLayer: 6-21                [2, 32]                   --\r\n│    │    │    │    │    │    └─ModuleList: 7-12        --                        --\r\n│    │    │    │    │    │    │    └─Linear: 8-7        [2, 32]                   1,056\r\n│    │    │    │    │    │    │    └─ReLU: 8-8          [2, 32]                   --\r\n│    │    │    └─Regressor: 4-19                        [2]                       --\r\n│    │    │    │    └─Dense: 5-19                       [2]                       --\r\n│    │    │    │    │    └─Linear: 6-22                 [2, 1]                    33\r\n=========================================================================================================\r\nTotal params: 56,745\r\nTrainable params: 56,745\r\nNon-trainable params: 0\r\nTotal mult-adds (M): 0.11\r\n=========================================================================================================\r\nInput size (MB): 0.00\r\nForward/backward pass size (MB): 0.01\r\nPara
…
