…
/\r\nsub-directory:  /.       num samples: 203\r\n--------------------------------------------------------------------------------\r\nmodel input parameters 32 100 20 1 512 256 38 25 TPS ResNet BiLSTM Attn\r\nSkip Transformation.LocalizationNetwork.localization_fc2.weight as it is already initialized\r\nSkip Transformation.LocalizationNetwork.localization_fc2.bias as it is already initialized\r\nModel:\r\nDataParallel(\r\n  (module): Model(\r\n    (Transformation): TPS_SpatialTransformerNetwork(\r\n      (LocalizationNetwork): LocalizationNetwork(\r\n        (conv): Sequential(\r\n          (0): Conv2d(1, 64, kernel_size=(3, 3), stride=(1, 1), padding=(1, 1), bias=False)\r\n          (1): BatchNorm2d(64, eps=1e-05, momentum=0.1, affine=True, track_running_stats=True)\r\n          (2): ReLU(inplace)\r\n          (3): MaxPool2d(kernel_size=2, stride=2, padding=0, dilation=1, ceil_mode=False)\r\n          (4): Conv2d(64, 128, kernel_size=(3, 3), stride=(1, 1), padding=(1, 1), bias=False)\r\n          (5): BatchNorm2d(128, eps=1e-05, momentum=0.1, affine=True, track_running_stats=True)\r\n          (6): ReLU(inplace)\r\n          (7): MaxPool2d(kernel_size=2, stride=2, padding=0, dilation=1, ceil_mode=False)\r\n          (8): Conv2d(128, 256, kernel_size=(3, 3), stride=(1, 1), padding=(1, 1), bias=False)\r\n          (9): BatchNorm2d(256, eps=1e-05, momentum=0.1, affine=True, track_running_stats=True)\r\n          (10): ReLU(inplace)\r\n          (11): MaxPool2d(kernel_size=2, stride=2, padding=0, dilation=1, ceil_mode=False)\r\n          (12): Conv2d(256, 512, kernel_size=(3, 3), stride=(1, 1), padding=(1, 1), bias=False)\r\n          (13): BatchNorm2d(512, eps=1e-05, momentum=0.1, affine=True, track_running_stats=True)\r\n          (14): ReLU(inplace)\r\n          (15): AdaptiveAvgPool2d(output_size=1)\r\n        )\r\n        (localization_fc1): Sequential(\r\n          (0): Linear(in_features=512, out_features=256, bias=True)\r\n          (1): ReLU(inplace)\r\n        )\r\n        (localization_fc2): Linear(in_features=256, out_features=40, bias=True)\r\n      )\r\n      (GridGenerator): GridGenerator()\r\n    )\r\n    (FeatureExtraction): ResNet_FeatureExtractor(\r\n      (ConvNet): ResNet(\r\n        (conv0_1): Conv2d(1, 32, kernel_size=(3, 3), stride=(1, 1), padding=(1, 1), bias=False)\r\n        (bn0_1): BatchNorm2d(32, eps=1e-05, momentum=0.1, affine=True, track_running_stats=True)\r\n        (conv0_2): Conv2d(32, 64, kernel_size=(3, 3), stride=(1, 1), padding=(1, 1), bias=False)\r\n        (bn0_2): BatchNorm2d(64, eps=1e-05, momentum=0.1, affine=True, track_running_stats=True)\r\n        (relu): ReLU(inplace)\r\n        (maxpool1): MaxPool2d(kernel_size=2, stride=2, padding=0, dilation=1, ceil_mode=False)\r\n        (layer1): Sequential(\r\n          (0): BasicBlock(\r\n            (conv1): Conv2d(64, 128, kernel_size=(3, 3), stride=(1, 1), padding=(1, 1), bias=False)\r\n            (bn1): BatchNorm2d(128, eps=1e-05, momentum=0.1, affine=True, track_running_stats=True)\r\n            (conv2): Conv2d(128, 128, kernel_size=(3, 3), stride=(1, 1), padding=(1, 1), bias=False)\r\n            (bn2): BatchNorm2d(128, eps=1e-05, momentum=0.1, affine=True, track_running_stats=True)\r\n            (relu): ReLU(inplace)\r\n            (downsample): Sequential(\r\n              (0): Conv2d(64, 128, kernel_size=(1, 1), stride=(1, 1), bias=False)\r\n              (1): BatchNorm2d(128, eps=1e-05, momentum=0.1, affine=True, track_running_stats=True)\r\n            )\r\n          )\r\n        )\r\n        (conv1): Conv2d(128, 128, kernel_size=(3, 3), stride=(1, 1), padding=(1, 1), bias=False)\r\n        (bn1): BatchNorm2d(128, eps=1e-05, momentum=0.1, affine=True, track_running_stats=True)\r\n        (maxpool2): MaxPool2d(kernel_size=2, stride=2, padding=0, dilation=1, ceil_mode=False)\r\n        (layer2): Sequential(\r\n          (0): BasicBlock(\r\n            (conv1): Conv2d(128, 256, kernel_size=(3, 3), stride=(1, 1), padding=(1, 1), bias=False)\r\n            (bn1): BatchNorm2d(256, eps=1e-05, momentum=0.1, affine=True, track_running_stats=True)\r\n            (conv2): Conv2d(256, 256, kernel_size=(3, 3), stride=(1, 1), padding=(1, 1), bias=False)\r\n            (bn2): BatchNorm2d(256, eps=1e-05, momentum=0.1, affine=True, track_running_stats=True)\r\n            (relu): ReLU(inplace)\r\n            (downsample): Sequential(\r\n              (0): Conv2d(128, 256, kernel_size=(1, 1), stride=(1, 1), bias=False)\r\n              (1): BatchNorm2d(256, eps=1e-05, momentum=0.1, affine=True, track_running_stats=True)\r\n            )\r\n          )\r\n          (1): BasicBlock(\r\n            (conv1): Conv2d(256, 256, kernel_size=(3, 3), stride=(1, 1), padding=(1, 1), bias=False)\r\n            (bn1): BatchNorm2d(256, eps=1e-05, momentum=0.1, affine=True, track_running_stats=True)\r\n            (conv2): Conv2d(256, 256, kernel_size=(3, 3), stride=(1, 1), padding=(1, 1), bias=False)\r\n            (bn2): BatchNorm2d(256, eps=1e-05, momentum=0.1, affine=True, track_running_stats=True)\r\n            (relu): ReLU(inplace)\r\n          )\r\n        )\r\n        (conv2): Conv2d(256, 256, kernel_size=(3, 3), stride=(1, 1), padding=(1, 1), bias=False)\r\n        (bn2): BatchNorm2d(256, eps=1e-05, momentum=0.1, affine=True, track_running_stats=True)\r\n        (maxpool3): MaxPool2d(kernel_size=2, stride=(2, 1), padding=(0, 1), dilation=1, ceil_mode=False)\r\n        (layer3): Sequential(\r\n          (0): BasicBlock(\r\n            (conv1): Conv2d(256, 512, kernel_size=(3, 3), stride=(1, 1), padding=(1, 1), bias=False)\r\n            (bn1): BatchNorm2d(512, eps=1e-05, momentum=0.1, affine=True, track_running_stats=True)\r\n            (conv2): Conv2d(512, 512, kernel_size=(3, 3), stride=(1, 1), padding=(1, 1), bias=False)\r\n            (bn2): BatchNorm2d(512, eps=1e-05, momentum=0.1, affine=True, track_running_stats=True)\r\n            (relu): ReLU(inplace)\r\n            (downsample): Sequential(\r\n              (0): Conv2d(256, 512, kernel_size=(1, 1), stride=(1, 1), bias=False)\r\n              (1): BatchNorm2d(512, eps=1e-05, momentum=0.1, affine=True, track_running_stats=True)\r\n            )\r\n          )\r\n          (1): BasicBlock(\r\n            (conv1): Conv2d(512, 512, kernel_size=(3, 3), stride=(1, 1), padding=(1, 1), bias=False)\r\n            (bn1): BatchNorm2d(512, eps=1e-05, momentum=0.1, affine=True, track_running_stats=True)\r\n            (conv2): Conv2d(512, 512, kernel_size=(3, 3), stride=(1, 1), padding=(1, 1), bias=False)\r\n            (bn2): BatchNorm2d(512, eps=1e-05, momentum=0.1, affine=True, track_running_stats=True)\r\n            (relu): ReLU(inplace)\r\n          )\r\n          (2): BasicBlock(\r\n            (conv1): Conv2d(512, 512, kernel_size=(3, 3), stride=(1, 1), padding=(1, 1), bias=False)\r\n            (bn1): BatchNorm2d(512, eps=1e-05, momentum=0.1, affine=True, track_running_stats=True)\r\n            (conv2): Conv2d(512, 512, kernel_size=(3, 3), stride=(1, 1), padding=(1, 1), bias=False)\r\n            (bn2): BatchNorm2d(512, eps=1e-05, momentum=0.1, affine=True, track_running_stats=True)\r\n            (relu): ReLU(inplace)\r\n          )\r\n          (3): BasicBlock(\r\n            (conv1): Conv2d(512, 512, kernel_size=(3, 3), stride=(1, 1), padding=(1, 1), bias=False)\r\n            (bn1): BatchNorm2d(512, eps=1e-05, momentum=0.1, affine=True, track_running_stats=True)\r\n            (conv2): Conv2d(512, 512, kernel_size=(3, 3), stride=(1, 1), padding=(1, 1), bias=False)\r\n            (bn2): BatchNorm2d(512, eps=1e-05, momentum=0.1, affine=True, track_running_stats=True)\r\n            (relu): ReLU(inplace)\r\n          )\r\n          (4): BasicBlock(\r\n            (conv1): Conv2d(512, 512, kernel_size=(3, 3), stride=(1, 1), padding=(1, 1), bias=False)\r\n            (bn1): BatchNorm2d(512, eps=1e-05, momentum=0.1, affine=True, track_running_stats=True)\r\n            (conv2): Conv2d(512, 512, kernel_size=(3, 3), stride=(1, 1), padding=(1, 1), bias=False)\r\n            (bn2): BatchNorm2d(512, eps=1e-05, momentum=0.1, affine=True, track_running_stats=True)\r\n            (relu): ReLU(inplace)\r\n          )\r\n        )\r\n        (conv3): Conv2d(512, 512, kernel_size=(3, 3), stride=(1, 1), padding=(1, 1), bias=False)\r\n        (bn3): BatchNorm2d(512, eps=1e-05, momentum=0.1, affine=True, track_running_stats=True)\r\n        (layer4): Sequential(\r\n          (0): BasicBlock(\r\n            (conv1): Conv2d(512, 512, kernel_size=(3, 3), stride=(1, 1), padding=(1, 1), bias=False)\r\n            (bn1): BatchNorm2d(512, eps=1e-05, momentum=0.1, affine=True, track_running_stats=True)\r\n            (conv2): Conv2d(512, 512, kernel_size=(3, 3), stride=(1, 1), padding=(1, 1), bias=False)\r\n            (bn2): BatchNorm2d(512, eps=1e-05, momentum=0.1, affine=True, track_running_stats=True)\r\n            (relu): ReLU(inplace)\r\n          )\r\n          (1): BasicBlock(\r\n            (conv1): Conv2d(512, 512, kernel_size=(3, 3), stride=(1, 1), padding=(1, 1), bias=False)\r\n            (bn1): BatchNorm2d(512, eps=1e-05, momentum=0.1, affine=True, track_running_stats=True)\r\n            (conv2): Conv2d(512, 512, kernel_size=(3, 3), stride=(1, 1), padding=(1, 1), bias=False)\r\n            (bn2): BatchNorm2d(512, eps=1e-05, momentum=0.1, affine=True, track_running_stats=True)\r\n            (relu): ReLU(inplace)\r\n          )\r\n          (2): BasicBlock(\r\n            (conv1): Conv2d(512, 512, kernel_size=(3, 3), stride=(1, 1), padding=(1, 1), bias=False)\r\n            (bn1): BatchNorm2d(512, eps=1e-05, momentum=0.1, affine=True, track_running_stats=True)\r\n            (conv2): Conv2d(512, 512, kernel_size=(3, 3), stride=(1, 1), padding=(1, 1), bias=False)\r\n            (bn2): BatchNorm2d(512, eps=1e-05, momentum=0.1, affine=True, track_running_stats=True)\r\n            (relu): ReLU(inplace)\r\n          )\r\n        )\r\n        (conv4_1): Conv2d(512, 512, kernel_size=(2, 2), stride=(2, 1), padding=(0, 1), bias=False)\r\n        (bn4_1): BatchNorm2d(512, eps=1e-05, momentum=0.1, affine=True, track_running_stats=True)\r\n        (conv4_2): Conv2d(512, 512, kernel_size=(2, 2), stride=(1, 1), bias=False)\r\n        (bn4_2): BatchNorm2d(512, eps=1e-05, momentum=0.1, affine=True, track_running_stats=True)\r\n      )\r\n    )\r\n    (AdaptiveAvgPool): AdaptiveAvgPool2d(output_size=(None, 1))\r\n    (SequenceModeling): Sequential(\r\n      (0): BidirectionalLSTM(\r\n        (rnn): LSTM(512, 256, batch_first=True, bidirectional=True)\r\n        (linear): Linear(in_features=512, out_features=256, bias=True)\r\n      )\r\n      (1): BidirectionalLSTM(\r\n        (rnn): LSTM(256, 256, batch_first=True, bidirectional=True)\r\n        (linear): Linear(in_features=512, out_features=256, bias=True)\r\n      )\r\n    )\r\n    (Prediction): Attention(\r\n      (attention_cell): AttentionCell(\r\n        (i2h): Linear(in_features=256, out_features=256, bias=False)\r\n        (h2h): Linear(in_features=256, out_features=256, bias=True)\r\n        (score): Linear(in_features=256, out_features=1, bias=False)\r\n        (rnn): LSTMCell(294, 256)\r\n      )\r\n      (generator): Linear(in_features=256, out_features=38, bias=True)\r\n    )\r\n  )\r\n)\r\nTrainable params num :  49555182\r\nOptimizer:\r\nAdadelta (\r\nParameter Group 0\r\n    eps: 1e-08\r\n    lr: 1\r\n    rho: 0.95\r\n    weight_decay: 0\r\n)\r\n------------ Options -------------\r\nexperiment_name: TPS-ResNet-BiLSTM-Attn-Seed1111\r\ntrain_data: result_training_cp/\r\nvalid_data: result_validation_cp/\r\nmanualSe
…
