…
ly those imports differ.\r\n\r\nI can use the older keras-tcn version without problems, but I would like to figure out how to get the old model summary using the latest keras-tcn version.\r\n\r\nModel summary for keras-tcn==2.8.3\r\n```\r\nModel: \"model_1\"\r\n__________________________________________________________________________________________________\r\nLayer (type)                    Output Shape         Param #     Connected to                     \r\n==================================================================================================\r\ninput_1 (InputLayer)            (None, 61, 10)       0                                            \r\n__________________________________________________________________________________________________\r\nconv1d_1 (Conv1D)               (None, 61, 16)       176         input_1[0][0]                    \r\n__________________________________________________________________________________________________\r\nconv1d_2 (Conv1D)               (None, 61, 16)       784         conv1d_1[0][0]                   \r\n__________________________________________________________________________________________________\r\nbatch_normalization_1 (BatchNor (None, 61, 16)       64          conv1d_2[0][0]                   \r\n__________________________________________________________________________________________________\r\nactivation_1 (Activation)       (None, 61, 16)       0           batch_normalization_1[0][0]      \r\n__________________________________________________________________________________________________\r\nspatial_dropout1d_1 (SpatialDro (None, 61, 16)       0           activation_1[0][0]               \r\n__________________________________________________________________________________________________\r\nconv1d_3 (Conv1D)               (None, 61, 16)       784         spatial_dropout1d_1[0][0]        \r\n__________________________________________________________________________________________________\r\nbatch_normalization_2 (BatchNor (None, 61, 16)       64          conv1d_3[0][0]                   \r\n__________________________________________________________________________________________________\r\nactivation_2 (Activation)       (None, 61, 16)       0           batch_normalization_2[0][0]      \r\n__________________________________________________________________________________________________\r\nconv1d_4 (Conv1D)               (None, 61, 16)       272         conv1d_1[0][0]                   \r\n__________________________________________________________________________________________________\r\nspatial_dropout1d_2 (SpatialDro (None, 61, 16)       0           activation_2[0][0]               \r\n__________________________________________________________________________________________________\r\nadd_1 (Add)                     (None, 61, 16)       0           conv1d_4[0][0]                   \r\n                                                                 spatial_dropout1d_2[0][0]        \r\n__________________________________________________________________________________________________\r\nactivation_3 (Activation)       (None, 61, 16)       0           add_1[0][0]                      \r\n__________________________________________________________________________________________________\r\nconv1d_5 (Conv1D)               (None, 61, 48)       816         activation_3[0][0]               \r\n__________________________________________________________________________________________________\r\nconv1d_6 (Conv1D)               (None, 61, 48)       6960        conv1d_5[0][0]                   \r\n__________________________________________________________________________________________________\r\nbatch_normalization_3 (BatchNor (None, 61, 48)       192         conv1d_6[0][0]                   \r\n__________________________________________________________________________________________________\r\nactivation_4 (Activation)       (None, 61, 48)       0           batch_normalization_3[0][0]      \r\n__________________________________________________________________________________________________\r\nspatial_dropout1d_3 (SpatialDro (None, 61, 48)       0           activation_4[0][0]               \r\n__________________________________________________________________________________________________\r\nconv1d_7 (Conv1D)               (None, 61, 48)       6960        spatial_dropout1d_3[0][0]        \r\n__________________________________________________________________________________________________\r\nbatch_normalization_4 (BatchNor (None, 61, 48)       192         conv1d_7[0][0]                   \r\n__________________________________________________________________________________________________\r\nactivation_5 (Activation)       (None, 61, 48)       0           batch_normalization_4[0][0]      \r\n__________________________________________________________________________________________________\r\nspatial_dropout1d_4 (SpatialDro (None, 61, 48)       0           activation_5[0][0]               \r\n__________________________________________________________________________________________________\r\nconv1d_8 (Conv1D)               (None, 61, 48)       2352        conv1d_5[0][0]                   \r\n__________________________________________________________________________________________________\r\nadd_2 (Add)                     (None, 61, 48)       0           conv1d_8[0][0]                   \r\n                                                                 spatial_dropout1d_4[0][0]        \r\n__________________________________________________________________________________________________\r\nactivation_6 (Activation)       (None, 61, 48)       0           add_2[0][0]                      \r\n__________________________________________________________________________________________________\r\nconv1d_9 (Conv1D)               (None, 61, 48)       6960        activation_6[0][0]               \r\n__________________________________________________________________________________________________\r\nbatch_normalization_5 (BatchNor (None, 61, 48)       192         conv1d_9[0][0]                   \r\n__________________________________________________________________________________________________\r\nactivation_7 (Activation)       (None, 61, 48)       0           batch_normalization_5[0][0]      \r\n__________________________________________________________________________________________________\r\nspatial_dropout1d_5 (SpatialDro (None, 61, 48)       0           activation_7[0][0]               \r\n__________________________________________________________________________________________________\r\nconv1d_10 (Conv1D)              (None, 61, 48)       6960        spatial_dropout1d_5[0][0]        \r\n__________________________________________________________________________________________________\r\nbatch_normalization_6 (BatchNor (None, 61, 48)       192         conv1d_10[0][0]                  \r\n__________________________________________________________________________________________________\r\nactivation_8 (Activation)       (None, 61, 48)       0           batch_normalization_6[0][0]      \r\n__________________________________________________________________________________________________\r\nspatial_dropout1d_6 (SpatialDro (None, 61, 48)       0           activation_8[0][0]               \r\n__________________________________________________________________________________________________\r\nconv1d_11 (Conv1D)              (None, 61, 48)       2352        activation_6[0][0]               \r\n__________________________________________________________________________________________________\r\nadd_3 (Add)                     (None, 61, 48)       0           conv1d_11[0][0]                  \r\n                                                                 spatial_dropout1d_6[0][0]        \r\n__________________________________________________________________________________________________\r\nactivation_9 (Activation)       (None, 61, 48)       0           add_3[0][0]                      \r\n__________________________________________________________________________________________________\r\nconv1d_12 (Conv1D)              (None, 61, 48)       6960        activation_9[0][0]               \r\n__________________________________________________________________________________________________\r\nbatch_normalization_7 (BatchNor (None, 61, 48)       192         conv1d_12[0][0]                  \r\n__________________________________________________________________________________________________\r\nactivation_10 (Activation)      (None, 61, 48)       0           batch_normalization_7[0][0]      \r\n__________________________________________________________________________________________________\r\nspatial_dropout1d_7 (SpatialDro (None, 61, 48)       0           activation_10[0][0]              \r\n__________________________________________________________________________________________________\r\nconv1d_13 (Conv1D)              (None, 61, 48)       6960        spatial_dropout1d_7[0][0]        \r\n__________________________________________________________________________________________________\r\nbatch_normalization_8 (BatchNor (None, 61, 48)       192         conv1d_13[0][0]                  \r\n__________________________________________________________________________________________________\r\nactivation_11 (Activation)      (None, 61, 48)       0           batch_normalization_8[0][0]      \r\n__________________________________________________________________________________________________\r\nspatial_dropout1d_8 (SpatialDro (None, 61, 48)       0           activation_11[0][0]              \r\n__________________________________________________________________________________________________\r\nadd_5 (Add)                     (None, 61, 48)       0           spatial_dropout1d_4[0][0]        \r\n                                                                 spatial_dropout1d_6[0][0]        \r\n                                                                 spatial_dropout1d_8[0][0]        \r\n__________________________________________________________________________________________________\r\naverage_pooling1d_1 (AveragePoo (None, 15, 48)       0           add_5[0][0]                      \r\n__________________________________________________________________________________________________\r\nflatten_1 (Flatten)             (None, 720)          0           average_pooling1d_1[0][0]        \r\n__________________________________________________________________________________________________\r\ndense_1 (Dense)                 (None, 12)           8652        flatten_1[0][0]                  \r\n__________________________________________________________________________________________________\r\nsoftmax (Activation)            (None, 12)           0           dense_1[0][0]                    \r\n==================================================================================================\r\nTotal params: 59,228\r\nTrainable params: 58,588\r\nNon-trainable params: 640\r\n__________________________________________________________________________________________________\r\n```\r\n\r\nModel summary for keras-tcn==2.9.2\r\n```\r\nModel: \"model\"\r\n_________________________________________________________________\r\nLayer (type)                 Output Shape              Param #   \r\n=================================================================\r\ninput_1 (InputLayer)         [(None, 61, 10)]          0         \r\n_________________________________________________________________\r\ntcn_0 (TCN)                  (None, 61, 16)            2144      \r\n_________________________________________________________________\r\ntcn_1 (TCN)                  (None, 61, 48)            48432     \r\n_________________________________________________________________\r\naverage_pooling1d (AveragePo (None, 15, 48)            0         \r\n_________________________________________________________________\r\nflatten (Flatten)            (None, 720)               0         \r\n_________________________________________________________________\r\ndense (Dense)                (None, 12)                8652      \r\n_________________________________________________________________\r\nsoftmax (Activation)         (None, 12)                0         \r\n=================================================================\r\nTotal params: 59,228\r\nTrainable params: 58,588\r\nNon-trainable params: 640\r\n_________________________________________________________________\r\n```\r\n\r\nKind regards","closed_by":{"login":"philipperemy","id":4516927,"node_id":"MDQ6VXNlcjQ1MTY5Mjc=","avatar_url":"https://avatars.githubusercontent.com/u/4516927
…
