…
   ))\r\nmodel.add(Dense(64))\r\nmodel.add(LeakyReLU(alpha=0.3))\r\nmodel.add(Dense(32))\r\nmodel.add(LeakyReLU(alpha=0.3))\r\nmodel.add(Dense(16))\r\nmodel.add(LeakyReLU(alpha=0.3))\r\nmodel.add(Dense(1))\r\nmodel.add(LeakyReLU(alpha=0.3))\r\nmodel.compile(loss='mse', optimizer='adam')\r\nmodel.summary()\r\n```\r\n## Output\r\n```\r\nModel: \"sequential_2\"\r\n_________________________________________________________________\r\nLayer (type)                 Output Shape              Param #   \r\n=================================================================\r\ntcn_2 (TCN)                  (None, 100)               153500    \r\n_________________________________________________________________\r\ndense_8 (Dense)              (None, 64)                6464      \r\n_________________________________________________________________\r\nleaky_re_lu_8 (LeakyReLU)    (None, 64)                0         \r\n_________________________________________________________________\r\ndense_9 (Dense)              (None, 32)                2080      \r\n_________________________________________________________________\r\nleaky_re_lu_9 (LeakyReLU)    (None, 32)                0         \r\n_________________________________________________________________\r\ndense_10 (Dense)             (None, 16)                528       \r\n_________________________________________________________________\r\nleaky_re_lu_10 (LeakyReLU)   (None, 16)                0         \r\n_________________________________________________________________\r\ndense_11 (Dense)             (None, 1)                 17        \r\n_________________________________________________________________\r\nleaky_re_lu_11 (LeakyReLU)   (None, 1)                 0         \r\n=================================================================\r\nTotal params: 162,589\r\nTrainable params: 162,589\r\nNon-trainable params: 0\r\n_________________________________________________________________\r\n```\r\n","closed_by":{"login":"philipperemy","id":4516927,"node_id":"MDQ6VXNlcjQ1MTY5Mjc=","avatar_url":"https://avatars.githubusercontent.com/u/4516927?v=4","gravatar_
…
