…
_folder: ./checkpoints\\20191010-193601_GMCNN_Mydata_b4_s256x256_gc32_dc64_randmask-rect\r\nmodel_name: GMCNN\r\npadding: SAME\r\nphase: train\r\npretrain_network: False\r\nrandom_crop: True\r\nrandom_mask: True\r\nrandom_seed: False\r\nspectral_norm: True\r\ntrain_spe: 100\r\nvgg19_path: vgg19_weights/imagenet-vgg-verydeep-19.mat\r\nviz_steps: 5\r\n-------------- End ----------------\r\nloading data..\r\ndata loaded..\r\nconfiguring model..\r\ninitialize network with normal\r\ninitialize network with normal\r\n---------- Networks initialized -------------\r\nGMCNN(\r\n(EB1): ModuleList(\r\n(0): Conv2d(4, 32, kernel_size=(7, 7), stride=(1, 1))\r\n(1): Conv2d(32, 64, kernel_size=(7, 7), stride=(2, 2))\r\n(2): Conv2d(64, 64, kernel_size=(7, 7), stride=(1, 1))\r\n(3): Conv2d(64, 128, kernel_size=(7, 7), stride=(2, 2))\r\n(4): Conv2d(128, 128, kernel_size=(7, 7), stride=(1, 1))\r\n(5): Conv2d(128, 128, kernel_size=(7, 7), stride=(1, 1))\r\n(6): Conv2d(128, 128, kernel_size=(7, 7), stride=(1, 1), dilation=(2, 2))\r\n(7): Conv2d(128, 128, kernel_size=(7, 7), stride=(1, 1), dilation=(4, 4))\r\n(8): Conv2d(128, 128, kernel_size=(7, 7), stride=(1, 1), dilation=(8, 8))\r\n(9): Conv2d(128, 128, kernel_size=(7, 7), stride=(1, 1), dilation=(16, 16))\r\n(10): Conv2d(128, 128, kernel_size=(7, 7), stride=(1, 1))\r\n(11): Conv2d(128, 128, kernel_size=(7, 7), stride=(1, 1))\r\n(12): PureUpsampling()\r\n)\r\n(EB2): ModuleList(\r\n(0): Conv2d(4, 32, kernel_size=(5, 5), stride=(1, 1))\r\n(1): Conv2d(32, 64, kernel_size=(5, 5), stride=(2, 2))\r\n(2): Conv2d(64, 64, kernel_size=(5, 5), stride=(1, 1))\r\n(3): Conv2d(64, 128, kernel_size=(5, 5), stride=(2, 2))\r\n(4): Conv2d(128, 128, kernel_size=(5, 5), stride=(1, 1))\r\n(5): Conv2d(128, 128, kernel_size=(5, 5), stride=(1, 1))\r\n(6): Conv2d(128, 128, kernel_size=(5, 5), stride=(1, 1), dilation=(2, 2))\r\n(7): Conv2d(128, 128, kernel_size=(5, 5), stride=(1, 1), dilation=(4, 4))\r\n(8): Conv2d(128, 128, kernel_size=(5, 5), stride=(1, 1), dilation=(8, 8))\r\n(9): Conv2d(128, 128, kernel_size=(5, 5), stride=(1, 1), dilation=(16, 16))\r\n(10): Conv2d(128, 128, kernel_size=(5, 5), stride=(1, 1))\r\n(11): Conv2d(128, 128, kernel_size=(5, 5), stride=(1, 1))\r\n(12): PureUpsampling()\r\n(13): Conv2d(128, 64, kernel_size=(5, 5), stride=(1, 1))\r\n(14): Conv2d(64, 64, kernel_size=(5, 5), stride=(1, 1))\r\n(15): PureUpsampling()\r\n)\r\n(EB3): ModuleList(\r\n(0): Conv2d(4, 32, kernel_size=(3, 3), stride=(1, 1))\r\n(1): Conv2d(32, 64, kernel_size=(3, 3), stride=(2, 2))\r\n(2): Conv2d(64, 64, kernel_size=(3, 3), stride=(1, 1))\r\n(3): Conv2d(64, 128, kernel_size=(3, 3), stride=(2, 2))\r\n(4): Conv2d(128, 128, kernel_size=(3, 3), stride=(1, 1))\r\n(5): Conv2d(128, 128, kernel_size=(3, 3), stride=(1, 1))\r\n(6): Conv2d(128, 128, kernel_size=(3, 3), stride=(1, 1), dilation=(2, 2))\r\n(7): Conv2d(128, 128, kernel_size=(3, 3), stride=(1, 1), dilation=(4, 4))\r\n(8): Conv2d(128, 128, kernel_size=(3, 3), stride=(1, 1), dilation=(8, 8))\r\n(9): Conv2d(128, 128, kernel_size=(3, 3), stride=(1, 1), dilation=(16, 16))\r\n(10): Conv2d(128, 128, kernel_size=(3, 3), stride=(1, 1))\r\n(11): Conv2d(128, 128, kernel_size=(3, 3), stride=(1, 1))\r\n(12): PureUpsampling()\r\n(13): Conv2d(128, 64, kernel_size=(3, 3), stride=(1, 1))\r\n(14): Conv2d(64, 64, kernel_size=(3, 3), stride=(1, 1))\r\n(15): PureUpsampling()\r\n(16): Conv2d(64, 32, kernel_size=(3, 3), stride=(1, 1))\r\n(17): Conv2d(32, 32, kernel_size=(3, 3), stride=(1, 1))\r\n)\r\n(decoding_layers): ModuleList(\r\n(0): Conv2d(224, 16, kernel_size=(3, 3), stride=(1, 1))\r\n(1): Conv2d(16, 3, kernel_size=(3, 3), stride=(1, 1))\r\n)\r\n(pads): ModuleList(\r\n(0): ReflectionPad2d((0, 0, 0, 0))\r\n(1): ReflectionPad2d((1, 1, 1, 1))\r\n(2): ReflectionPad2d((2, 2, 2, 2))\r\n(3): ReflectionPad2d((3, 3, 3, 3))\r\n(4): ReflectionPad2d((4, 4, 4, 4))\r\n(5): ReflectionPad2d((5, 5, 5, 5))\r\n(6): ReflectionPad2d((6, 6, 6, 6))\r\n(7): ReflectionPad2d((7, 7, 7, 7))\r\n(8): ReflectionPad2d((8
…
