…
mohan/events{/privacy}","received_events_url":"https://api.github.com/users/tejaschandramohan/received_events","type":"User","site_admin":false},"created_at":"2021-11-18T17:38:07Z","updated_at":"2021-11-18T17:38:07Z","author_association":"NONE","body":"I tried training your model on the LIVE dataset. Once 50 epochs are done, the training starts again?\r\nHere is the console output\r\n.............................................................................................\r\n\r\nPrepare the network and data.\r\nDataParallel(\r\n  (module): DBCNN(\r\n    (features1): Sequential(\r\n      (0): Conv2d(3, 64, kernel_size=(3, 3), stride=(1, 1), padding=(1, 1))\r\n      (1): ReLU(inplace)\r\n      (2): Conv2d(64, 64, kernel_size=(3, 3), stride=(1, 1), padding=(1, 1))\r\n      (3): ReLU(inplace)\r\n      (4): MaxPool2d(kernel_size=2, stride=2, padding=0, dilation=1, ceil_mode=False)\r\n      (5): Conv2d(64, 128, kernel_size=(3, 3), stride=(1, 1), padding=(1, 1))\r\n      (6): ReLU(inplace)\r\n      (7): Conv2d(128, 128, kernel_size=(3, 3), stride=(1, 1), padding=(1, 1))\r\n      (8): ReLU(inplace)\r\n      (9): MaxPool2d(kernel_size=2, stride=2, padding=0, dilation=1, ceil_mode=False)\r\n      (10): Conv2d(128, 256, kernel_size=(3, 3), stride=(1, 1), padding=(1, 1))\r\n      (11): ReLU(inplace)\r\n      (12): Conv2d(256, 256, kernel_size=(3, 3), stride=(1, 1), padding=(1, 1))\r\n      (13): ReLU(inplace)\r\n      (14): Conv2d(256, 256, kernel_size=(3, 3), stride=(1, 1), padding=(1, 1))\r\n      (15): ReLU(inplace)\r\n      (16): MaxPool2d(kernel_size=2, stride=2, padding=0, dilation=1, ceil_mode=False)\r\n      (17): Conv2d(256, 512, kernel_size=(3, 3), stride=(1, 1), padding=(1, 1))\r\n      (18): ReLU(inplace)\r\n      (19): Conv2d(512, 512, kernel_size=(3, 3), stride=(1, 1), padding=(1, 1))\r\n      (20): ReLU(inplace)\r\n      (21): Conv2d(512, 512, kernel_size=(3, 3), stride=(1, 1), padding=(1, 1))\r\n      (22): ReLU(inplace)\r\n      (23): MaxPool2d(kernel_size=2, stride=2, padding=0, dilation=1, ceil_mode=False)\r\n      (24): Conv2d(512, 512, kernel_size=(3, 3), stride=(1, 1), padding=(1, 1))\r\n      (25): ReLU(inplace)\r\n      (26): Conv2d(512, 512, kernel_size=(3, 3), stride=(1, 1), padding=(1, 1))\r\n      (27): ReLU(inplace)\r\n      (28): Conv2d(512, 512, kernel_size=(3, 3), stride=(1, 1), padding=(1, 1))\r\n      (29): ReLU(inplace)\r\n    )\r\n    (features2): Sequential(\r\n      (0): Conv2d(3, 48, kernel_size=(3, 3), stride=(1, 1), padding=(1, 1))\r\n      (1): BatchNorm2d(48, eps=1e-05, momentum=0.1, affine=True, track_running_stats=True)\r\n      (2): ReLU(inplace)\r\n      (3): Conv2d(48, 48, kernel_size=(3, 3), stride=(2, 2), padding=(1, 1))\r\n      (4): BatchNorm2d(48, eps=1e-05, momentum=0.1, affine=True, track_running_stats=True)\r\n      (5): ReLU(inplace)\r\n      (6): Conv2d(48, 64, kernel_size=(3, 3), stride=(1, 1), padding=(1, 1))\r\n      (7): BatchNorm2d(64, eps=1e-05, momentum=0.1, affine=True, track_running_stats=True)\r\n      (8): ReLU(inplace)\r\n      (9): Conv2d(64, 64, kernel_size=(3, 3), stride=(2, 2), padding=(1, 1))\r\n      (10): BatchNorm2d(64, eps=1e-05, momentum=0.1, affine=True, track_running_stats=True)\r\n      (11): ReLU(inplace)\r\n      (12): Conv2d(64, 64, kernel_size=(3, 3), stride=(1, 1), padding=(1, 1))\r\n      (13): BatchNorm2d(64, eps=1e-05, momentum=0.1, affine=True, track_running_stats=True)\r\n      (14): ReLU(inplace)\r\n      (15): Conv2d(64, 64, kernel_size=(3, 3), stride=(2, 2), padding=(1, 1))\r\n      (16): BatchNorm2d(64, eps=1e-05, momentum=0.1, affine=True, track_running_stats=True)\r\n      (17): ReLU(inplace)\r\n      (18): Conv2d(64, 128, kernel_size=(3, 3), stride=(1, 1), padding=(1, 1))\r\n      (19): BatchNorm2d(128, eps=1e-05, momentum=0.1, affine=True, track_running_stats=True)\r\n      (20): ReLU(inplace)\r\n      (21): Conv2d(128, 128, kernel_size=(3, 3), stride=(1, 1), padding=(1, 1))\r\n      (22): BatchNorm2d(128, eps=1e-05, momentum=0.1, affine=True, track_running_stats=True)\r\n      (23): ReLU(inplace)\r\n      (24): Conv2d(128, 128, kernel_size=(3, 3), stride=(2, 2), padding=(1, 1))\r\n      (25): BatchNorm2d(128, eps=1e-05, momentum=0.1, affine=True, track_running_stats=True)\r\n      (26): ReLU(inplace)\r\n    )\r\n    (fc): Linear(in_features=65536, out_features=1, bias=True)\r\n  )\r\n)\r\nTraining.\r\nEpoch\tTrain loss\tTrain_SRCC\tTest_SRCC\tTest_PLCC\r\n*1\t1401.993\t\t0.0220\t\t0.4140\t0.1699\r\n*2\t689.525\t\t0.5538\t\t0.6214\t0.5539\r\n*3\t634.954\t\t0.8013\t\t0.7906\t0.7681\r\n*4\t591.026\t\t0.8610\t\t0.8254\t0.8106\r\n*5\t540.908\t\t0.8604\t\t0.8288\t0.8255\r\n*6\t494.674\t\t0.8823\t\t0.8343\t0.8385\r\n7\t481.704\t
…
8498\t0.8627\r\n41\t129.561\t\t0.9204\t\t0.8508\t0.8592\r\n42\t132.605\t\t0.9141\t\t0.8507\t0.8634\r\n*43\t136.929\t\t0.9125\t\t0.8562\t0.8633\r\n44\t121.058\t\t0.9240\t\t0.8535\t0.8638\r\n45\t138.226\t\t0.9139\t\t0.8490\t0.8600\r\n*46\t129.945\t\t0.9186\t\t0.8571\t0.8654\r\n47\t118.168\t\t0.9246\t\t0.8543\t0.8651\r\n48\t122.131\t\t0.9253\t\t0.8529\t0.8665\r\n49\t122.887\t\t0.9210\t\t0.8545\t0.8647\r\n50\t114.222\t\t0.9246\t\t0.8508\t0.8596\r\nBest at epoch 46, test srcc 0.857112\r\nPrepare the network and data.\r\nDataParallel(\r\n  (module): DBCNN(\r\n    (features1): Sequential(\r\n      (0): Conv2d(3, 64, kernel_size=(3, 3), stride=(1, 1), padding=(1, 1))\r\n      (1): ReLU(inplace)\r\n      (2): Conv2d(64, 64, kernel_size=(3, 3), stride=(1, 1), padding=(1, 1))\r\n      (3): ReLU(inplace)\r\n      (4): MaxPool2d(kernel_size=2, stride=2, padding=0, dilation=1, ceil_mode=False)\r\n      (5): Conv2d(64, 128, kernel_size=(3, 3), stride=(1, 1), padding=(1, 1))\r\n      (6): ReLU(inplace)\r\n      (7): Conv2d(128, 128, kernel_size=(3, 3), stride=(1, 1), padding=(1, 1))\r\n      (8): ReLU(inplace)\r\n      (9): MaxPool2d(kernel_size=2, stride=2, padding=0, dilation=1, ceil_mode=False)\r\n      (10): Conv2d(128, 256, kernel_size=(3, 3), stride=(1, 1), padding=(1, 1))\r\n      (11): ReLU(inplace)\r\n      (12): Conv2d(256, 256, kernel_size=(3, 3), stride=(1, 1), padding=(1, 1))\r\n      (13): ReLU(inplace)\r\n      (14): Conv2d(256, 256, kernel_size=(3, 3), stride=(1, 1), padding=(1, 1))\r\n      (15): ReLU(inplace)\r\n      (16): MaxPool2d(kernel_size=2, stride=2, padding=0, dilation=1, ceil_mode=False)\r\n      (17): Conv2d(256, 512, kernel_size=(3, 3), stride=(1, 1), padding=(1, 1))\r\n      (18): ReLU(inplace)\r\n      (19): Conv2d(512, 512, kernel_size=(3, 3), stride=(1, 1), padding=(1, 1))\r\n      (20): ReLU(inplace)\r\n      (21): Conv2d(512, 512, kernel_size=(3, 3), stride=(1, 1), padding=(1, 1))\r\n      (22): ReLU(inplace)\r\n      (23): MaxPool2d(kernel_size=2, stride=2, padding=0, dilation=1, ceil_mode=False)\r\n      (24): Conv2d(512, 512, kernel_size=(3, 3), stride=(1, 1), padding=(1, 1))\r\n      (25): ReLU(inplace)\r\n      (26): Conv2d(512, 512, kernel_size=(3, 3), stride=(1, 1), padding=(1, 1))\r\n      (27): ReLU(inplace)\r\n      (28): Conv2d(512, 512, kernel_size=(3, 3), stride=(1, 1), padding=(1, 1))\r\n      (29): ReLU(inplace)\r\n    )\r\n    (features2): Sequential(\r\n      (0): Conv2d(3, 48, kernel_size=(3, 3), stride=(1, 1), padding=(1, 1))\r\n      (1): BatchNorm2d(48, eps=1e-05, momentum=0.1, affine=True, track_running_stats=True)\r\n      (2): ReLU(inplace)\r\n      (3): Conv2d(48, 48, kernel_size=(3, 3), stride=(2, 2), padding=(1, 1))\r\n      (4): BatchNorm2d(48, eps=1e-05, momentum=0.1, affine=True, track_running_stats=True)\r\n      (5): ReLU(inplace)\r\n      (6): Conv2d(48, 64, kernel_size=(3, 3), stride=(1, 1), padding=(1, 1))\r\n      (7): BatchNorm2d(64, eps=1e-05, momentum=0.1, affine=True, track_running_stats=True)\r\n      (8): ReLU(inplace)\r\n      (9): Conv2d(64, 64, kernel_size=(3, 3), stride=(2, 2), padding=(1, 1))\r\n      (10): BatchNorm2d(64, eps=1e-05, momentum=0.1, affine=True, track_running_stats=True)\r\n      (11): ReLU(inplace)\r\n      (12): Conv2d(64, 64, kernel_size=(3, 3), stride=(1, 1), padding=(1, 1))\r\n      (13): BatchNorm2d(64, eps=1e-05, momentum=0.1, affine=True, track_running_stats=True)\r\n      (14): ReLU(inplace)\r\n      (15): Conv2d(64, 64, kernel_size=(3, 3), stride=(2, 2), padding=(1, 1))\r\n      (16): BatchNorm2d(64, eps=1e-05, momentum=0.1, affine=True, track_running_stats=True)\r\n      (17): ReLU(inplace)\r\n      (18): Conv2d(64, 128, kernel_size=(3, 3), stride=(1, 1), padding=(1, 1))\r\n      (19): BatchNorm2d(128, eps=1e-05, momentum=0.1, affine=True, track_running_stats=True)\r\n      (20): ReLU(inplace)\r\n      (21): Conv2d(128, 128, kernel_size=(3, 3), stride=(1, 1), padding=(1, 1))\r\n      (22): BatchNorm2d(128, eps=1e-05, momentum=0.1, affine=True, track_running_stats=True)\r\n      (23): ReLU(inplace)\r\n      (24): Conv2d(128, 128, kernel_size=(3, 3), stride=(2, 2), padding=(1, 1))\r\n      (25): BatchNorm2d(128, eps=1e-05, momentum=0.1, affine=True, track_running_stats=True)\r\n      (26): ReLU(inplace)\r\n    )\r\n    (fc): Linear(in_features=65536, out_features=1, bias=True)\r\n  )\r\n)\r\nTraining.\r\nEpoch\tTrain loss\tTrain_SRCC\tTest_SRCC\tTest_PLCC\r\n*1\t86.879\t\t0.9386\t\t0.8715\t0.8837\r\n*2\t57.947\t\t0.9592\t\t0.8897\t0.8969\r\n","reactions":{"url":"https://api.github.com/repos/zwx8981/DBCNN-PyTorch/issues/comments/973103379/reactions","total_count":0,"+1":0,"-1":0,"laugh":0,"hooray":0,"confused":0,"heart":0,"ro
…
