…
ample.1.running_var', 'layer4.0.conv2.weight', 'layer4.0.bn1.weight', 'layer4.1.bn2.running_mean'}\r\n[2020-10-04 05:59:01,347-rk0-load_helper.py# 17] unused checkpoint keys:50\r\n[2020-10-04 05:59:01,347-rk0-load_helper.py# 18] used keys:215\r\n[2020-10-04 05:59:01,358-rk0-features.py# 66] Current training 0 layers:\t\r\n[2020-10-04 05:59:01,359-rk0-features.py# 66] Current training 1 layers:\t\r\n[2020-10-04 05:59:01,384-rk0-train_siammask.py#146] Custom(\r\n  (upSample): UpsamplingBilinear2d(size=[127, 127], mode=bilinear)\r\n  (features): ResDown(\r\n    (features): ResNet(\r\n      (conv1): Conv2d(3, 64, kernel_size=(7, 7), stride=(2, 2), bias=False)\r\n      (bn1): BatchNorm2d(64, eps=1e-05, momentum=0.1, affine=True, track_running_stats=True)\r\n      (relu): ReLU(inplace)\r\n      (maxpool): MaxPool2d(kernel_size=3, stride=2, padding=1, dilation=1, ceil_mode=False)\r\n      (layer1): Sequential(\r\n        (0): Bottleneck(\r\n          (conv1): Conv2d(64, 64, kernel_size=(1, 1), stride=(1, 1), bias=False)\r\n          (bn1): BatchNorm2d(64, eps=1e-05, momentum=0.1, affine=True, track_running_stats=True)\r\n          (conv2): Conv2d(64, 64, kernel_size=(3, 3), stride=(1, 1), padding=(1, 1), bias=False)\r\n          (bn2): BatchNorm2d(64, eps=1e-05, momentum=0.1, affine=True, track_running_stats=True)\r\n          (conv3): Conv2d(64, 256, kernel_size=(1, 1), stride=(1, 1), bias=False)\r\n          (bn3): BatchNorm2d(256, eps=1e-05, momentum=0.1, affine=True, track_running_stats=True)\r\n          (relu): ReLU(inplace)\r\n          (downsample): Sequential(\r\n            (0): Conv2d(64, 256, kernel_size=(1, 1), stride=(1, 1), bias=False)\r\n            (1): BatchNorm2d(256, eps=1e-05, momentum=0.1, affine=True, track_running_stats=True)\r\n          )\r\n        )\r\n        (1): Bottleneck(\r\n          (conv1): Conv2d(256, 64, kernel_size=(1, 1), stride=(1, 1), bias=False)\r\n          (bn1): BatchNorm2d(64, eps=1e-05, momentum=0.1, affine=True, track_running_stats=True)\r\n          (conv2): Conv2d(64, 64, kernel_size=(3, 3), stride=(1, 1), padding=(1, 1), bias=False)\r\n          (bn2): BatchNorm2d(64, eps=1e-05, momentum=0.1, affine=True, track_running_stats=True)\r\n          (conv3): Conv2d(64, 256, kernel_size=(1, 1), stride=(1, 1), bias=False)\r\n          (bn3): BatchNorm2d(256, eps=1e-05, momentum=0.1, affine=True, track_running_stats=True)\r\n          (relu): ReLU(inplace)\r\n        )\r\n        (2): Bottleneck(\r\n          (conv1): Conv2d(256, 64, kernel_size=(1, 1), stride=(1, 1), bias=False)\r\n          (bn1): BatchNorm2d(64, eps=1e-05, momentum=0.1, affine=True, track_running_stats=True)\r\n          (conv2): Conv2d(64, 64, kernel_size=(3, 3), stride=(1, 1), padding=(1, 1), bias=False)\r\n          (bn2): BatchNorm2d(64, eps=1e-05, momentum=0.1, affine=True, track_running_stats=True)\r\n          (conv3): Conv2d(64, 256, kernel_size=(1, 1), stride=(1, 1), bias=False)\r\n          (bn3): BatchNorm2d(256, eps=1e-05, momentum=0.1, affine=True, track_running_stats=True)\r\n          (relu): ReLU(inplace)\r\n        )\r\n      )\r\n      (layer2): Sequential(\r\n        (0): Bottleneck(\r\n          (conv1): Conv2d(256, 128, kernel_size=(1, 1), stride=(1, 1), bias=False)\r\n          (bn1): BatchNorm2d(128, eps=1e-05, momentum=0.1, affine=True, track_running_stats=True)\r\n          (conv2): Conv2d(128, 128, kernel_size=(3, 3), stride=(2, 2), bias=False)\r\n          (bn2): BatchNorm2d(128, eps=1e-05, momentum=0.1, affine=True, track_running_stats=True)\r\n          (conv3): Conv2d(128, 512, kernel_size=(1, 1), stride=(1, 1), bias=False)\r\n          (bn3): BatchNorm2d(512, eps=1e-05, momentum=0.1, affine=True, track_running_stats=True)\r\n          (relu): ReLU(inplace)\r\n          (downsample): Sequential(\r\n            (0): Conv2d(256, 512, kernel_size=(3, 3), stride=(2, 2), bias=False)\r\n            (1): BatchNorm2d(512, eps=1e-05, momentum=0.1, affine=True, track_running_stats=True)\r\n          )\r\n        )\r\n        (1): Bottleneck(\r\n          (conv1): Conv2d(512, 128, kernel_size=(1, 1), stride=(1, 1), bias=False)\r\n          (bn1): BatchNorm2d(128, eps=1e-05, momentum=0.1, affine=True, track_running_stats=True)\r\n          (conv2): Conv2d(128, 128, kernel_size=(3, 3), stride=(1, 1), padding=(1, 1), bias=False)\r\n          (bn2): BatchNorm2d(128, eps=1e-05, momentum=0.1, affine=True, track_running_stats=True)\r\n          (conv3): Conv2d(128, 512, kernel_size=(1, 1), stride=(1, 1), bias=False)\r\n          (bn3): BatchNorm2d(512, eps=1e-05, momentum=0.1, affine=True, track_running_stats=True)\r\n          (relu): ReLU(inplace)\r\n        )\r\n        (2): Bottleneck(\r\n          (conv1): Conv2d(512, 128, kernel_size=(1, 1), stride=(1, 1), bias=False)\r\n          (bn1): BatchNorm2d(128, eps=1e-05, momentum=0.1, affine=True, track_running_stats=True)\r\n          (conv2): Conv2d(128, 128, kernel_size=(3, 3), stride=(1, 1), padding=(1, 1), bias=False)\r\n          (bn2): BatchNorm2d(128, eps=1e-05, momentum=0.1, affine=True, track_running_stats=True)\r\n          (conv3): Conv2d(128, 512, kernel_size=(1, 1), stride=(1, 1), bias=False)\r\n          (bn3): BatchNorm2d(512, eps=1e-05, momentum=0.1, affine=True, track_running_stats=True)\r\n          (relu): ReLU(inplace)\r\n        )\r\n        (3): Bottleneck(\r\n          (conv1): Conv2d(512, 128, kernel_size=(1, 1), stride=(1, 1), bias=False)\r\n          (bn1): BatchNorm2d(128, eps=1e-05, momentum=0.1, affine=True, track_running_stats=True)\r\n          (conv2): Conv2d(128, 128, kernel_size=(3, 3), stride=(1, 1), padding=(1, 1), bias=False)\r\n          (bn2): BatchNorm2d(128, eps=1e-05, momentum=0.1, affine=True, track_running_stats=True)\r\n          (conv3): Conv2d(128, 512, kernel_size=(1, 1), stride=(1, 1), bias=False)\r\n          (bn3): BatchNorm2d(512, eps=1e-05, momentum=0.1, affine=True, track_running_stats=True)\r\n          (relu): ReLU(inplace)\r\n        )\r\n      )\r\n      (layer3): Sequential(\r\n        (0): Bottleneck(\r\n          (conv1): Conv2d(512, 256, kernel_size=(1, 1), stride=(1, 1), bias=False)\r\n          (bn1): BatchNorm2d(256, eps=1e-05, momentum=0.1, affine=True, track_running_stats=True)\r\n          (conv2): Conv2d(256, 256, kernel_size=(3, 3), stride=(1, 1), padding=(1, 1), bias=False)\r\n          (bn2): BatchNorm2d(256, eps=1e-05, momentum=0.1, affine=True, track_running_stats=True)\r\n          (conv3): Conv2d(256, 1024, kernel_size=(1, 1), stride=(1, 1), bias=False)\r\n          (bn3): BatchNorm2d(1024, eps=1e-05, momentum=0.1, affine=True, track_running_stats=True)\r\n          (relu): ReLU(inplace)\r\n          (downsample): Sequential(\r\n            (0): Conv2d(512, 1024, kernel_size=(3, 3), stride=(1, 1), padding=(1, 1), bias=False)\r\n            (1): BatchNorm2d(1024, eps=1e-05, momentum=0.1, affine=True, track_running_stats=True)\r\n          )\r\n        )\r\n        (1): Bottleneck(\r\n          (conv1): Conv2d(1024, 256, kernel_size=(1, 1), stride=(1, 1), bias=False)\r\n          (bn1): BatchNorm2d(256, eps=1e-05, momentum=0.1, affine=True, track_running_stats=True)\r\n          (conv2): Conv2d(256, 256, kernel_size=(3, 3), stride=(1, 1), padding=(2, 2), dilation=(2, 2), bias=False)\r\n          (bn2): BatchNorm2d(256, eps=1e-05, momentum=0.1, affine=True, track_running_stats=True)\r\n          (conv3): Conv2d(256, 1024, kernel_size=(1, 1), stride=(1, 1), bias=False)\r\n          (bn3): BatchNorm2d(1024, eps=1e-05, momentum=0.1, affine=True, track_running_stats=True)\r\n          (relu): ReLU(inplace)\r\n        )\r\n        (2): Bottleneck(\r\n          (conv1): Conv2d(1024, 256, kernel_size=(1, 1), stride=(1, 1), bias=False)\r\n          (bn1): BatchNorm2d(256, eps=1e-05, momentum=0.1, affine=True, track_running_stats=True)\r\n          (conv2): Conv2d(256, 256, kernel_size=(3, 3), stride=(1, 1), padding=(2, 2), dilation=(2, 2), bias=False)\r\n          (bn2): BatchNorm2d(256, eps=1e-05, momentum=0.1, affine=True, track_running_stats=True)\r\n          (conv3): Conv2d(256, 1024, kernel_size=(1, 1), stride=(1, 1), bias=False)\r\n          (bn3): BatchNorm2d(1024, eps=1e-05, momentum=0.1, affine=True, track_running_stats=True)\r\n          (relu): ReLU(inplace)\r\n        )\r\n        (3): Bottleneck(\r\n          (conv1): Conv2d(1024, 256, kernel_size=(1, 1), stride=(1, 1), bias=False)\r\n          (bn1): BatchNorm2d(256, eps=1e-05, momentum=0.1, affine=True, track_running_stats=True)\r\n          (conv2): Conv2d(256, 256, kernel_size=(3, 3), stride=(1, 1), padding=(2, 2), dilation=(2, 2), bias=False)\r\n          (bn2): BatchNorm2d(256, eps=1e-05, momentum=0.1, affine=True, track_running_stats=True)\r\n          (conv3): Conv2d(256, 1024, kernel_size=(1, 1), stride=(1, 1), bias=False)\r\n          (bn3): BatchNorm2d(1024, eps=1e-05, momentum=0.1, affine=True, track_running_stats=True)\r\n          (relu): ReLU(inplace)\r\n        )\r\n        (4): Bottleneck(\r\n          (conv1): Conv2d(1024, 256, kernel_size=(1, 1), stride=(1, 1), bias=False)\r\n          (bn1): BatchNorm2d(256, eps=1e-05, momentum=0.1, affine=True, track_running_stats=True)\r\n          (conv2): Conv2d(256, 256, kernel_size=(3, 3), stride=(1, 1), padding=(2, 2), dilation=(2, 2), bias=False)\r\n          (bn2): BatchNorm2d(256, eps=1e-05, momentum=0.1, affine=True, track_running_stats=True)\r\n          (conv3): Conv2d(256, 1024, kernel_size=(1, 1), stride=(1, 1), bias=False)\r\n          (bn3): BatchNorm2d(1024, eps=1e-05, momentum=0.1, affine=True, track_running_stats=True)\r\n          (relu): ReLU(inplace)\r\n        )\r\n        (5): Bottleneck(\r\n          (conv1): Conv2d(1024, 256, kernel_size=(1, 1), stride=(1, 1), bias=False)\r\n          (bn1): BatchNorm2d(256, eps=1e-05, momentum=0.1, affine=True, track_running_stats=True)\r\n          (conv2): Conv2d(256, 256, kernel_size=(3, 3), stride=(1, 1), padding=(2, 2), dilation=(2, 2), bias=False)\r\n          (bn2): BatchNorm2d(256, eps=1e-05, momentum=0.1, affine=True, track_running_stats=True)\r\n          (conv3): Conv2d(256, 1024, kernel_size=(1, 1), stride=(1, 1), bias=False)\r\n          (bn3): BatchNorm2d(1024, eps=1e-05, momentum=0.1, affine=True, track_running_stats=True)\r\n          (relu): ReLU(inplace)\r\n        )\r\n      )\r\n    )\r\n    (downsample): ResDownS(\r\n      (downsample): Sequential(\r\n        (0): Conv2d(1024, 256, kernel_size=(1, 1), stride=(1, 1), bias=False)\r\n        (1): BatchNorm2d(256, eps=1e-05, momentum=0.1, affine=True, track_running_stats=True)\r\n      )\r\n    )\r\n  )\r\n  (rpn_model): UP(\r\n    (cls): DepthCorr(\r\n      (conv_kernel): Sequential(\r\n        (0): Conv2d(256, 256, kernel_size=(3, 3), stride=(1, 1), bias=False)\r\n        (1): BatchNorm2d(256, eps=1e-05, momentum=0.1, affine=True, track_running_stats=True)\r\n        (2): ReLU(inplace)\r\n      )\r\n      (conv_search): Sequential(\r\n        (0): Conv2d(256, 256, kernel_size=(3, 3), stride=(1, 1), bias=False)\r\n        (1): BatchNorm2d(256, eps=1e-05, momentum=0.1, affine=True, track_running_stats=True)\r\n        (2): ReLU(inplace)\r\n      )\r\n      (head): Sequential(\r\n        (0): Conv2d(256, 256, kernel_size=(1, 1), stride=(1, 1), bias=False)\r\n        (1): BatchNorm2d(256, eps=1e-05, momentum=0.1, affine=True, track_running_stats=True)\r\n        (2): ReLU(inplace)\r\n        (3): Conv2d(256, 10, kernel_size=(1, 1), stride=(1, 1))\r\n      )\r\n    )\r\n    (loc): DepthCorr(\r\n      (conv_kernel): Sequential(\r\n        (0): Conv2d(256, 256, kernel_size=(3, 3), stride=(1, 1), bias=False)\r\n        (1): BatchNorm2d(256, eps=1e-05, momentum=0.1, affine=True, track_running_stats=True)\r\n        (2): ReLU(inplace)\r\n      )\r\n      (conv_search): Sequential(\r\n        (0): Conv2d(256, 256, kernel_size=(3, 3), stride=(1, 1), bias=False)\r\n        (1): BatchNorm2d(256, eps=1e-05, momentum=0.1, affine=True, track_running_stats=True)\r\n        (2): ReLU(inplace)\r\n      )\r\n      (head): Sequential(\r\n        (0): Conv2d(256, 256, kernel_size=(1, 1), stride=(1, 1), bias=False)\r\n        (1): BatchNorm2d(256, eps=1e-05, momentum=0.1, affine=True, track_running_stats=True)\r\n        (2): ReLU(inplace)\r\n        (3): Conv2d(256, 20, kernel_size=(1, 1), stride=(1, 1))\r\n      )\r\n    )\r\n  )\r\n  (mask_model): MaskCorr(\r\n    (mask): DepthCorr(\r\n      (conv_kernel): Sequential(\r\n        (0): Conv2d(256, 256, kernel_size=(3, 3), stride=(1, 1), bias=False)\r\n        (1): BatchNorm2d(256, eps=1e-05, momentum=0.1, affine=True, track_running_stats=True)\r\n        (2): ReLU(inplace)\r\n      )\r\n      (conv_search): Sequential(\r\n        (0): Conv2d(256, 256, kernel_size=(3, 3), stride=(1, 1), bias=False)\r\n        (1): BatchNorm2d(256, eps=1e-05, momentum=0.1, affine=True, track_running_stats=True)\r\n        (2): ReLU(inplace)\r\n      )\r\n      (head): Sequential(\r\n        (0): Conv2d(256, 256, kernel_size=(1, 1), stride=(1, 1), bias=False)\r\n        (1): BatchNorm2d(256, eps=1e-05, momentum=0.1, affine=True, track_running_stats=True)\r\n        (2): ReLU(inplace)\r\n        (3): Conv2d(256, 3969, kernel_size=(1, 1), stride=(1, 1))\r\n      )\r\n    )\r\n  )\r\n)\r\n[2020-10-04 05:59:01,406-rk0-train_siammask.py#164] (WarmUPScheduler) lr spaces: \r\n[0.001      0.00137973 0.00190365 0.00262653 0.0036239  0.005\r\n 0.00475848 0.00452862 0.00430986 0.00410168 0.00390355 0.00371499\r\n 0.00353553 0.00336475 0.00320222 0.00304753 0.00290032 0.00276022\r\n 0.00262689 0.0025    ]\r\n[2
…
