…
= '256'\r\n FLAGS.return_sequences = '0'\r\n FLAGS.dropout1 = 0.1\r\n FLAGS.units1 = '128,256'\r\n FLAGS.act1 = \"'linear','relu'\"\r\n FLAGS.stateful = 1\r\n```\r\n\r\nThe model summary is\r\n```\r\n\r\nModel: \"model_1\"\r\n_________________________________________________________________\r\nLayer (type)                 Output Shape              Param #   \r\n=================================================================\r\ninput_2 (InputLayer)         [(100, 64000)]            0         \r\n_________________________________________________________________\r\nspeech_features_1 (SpeechFea (100, 49, 80)             0         \r\n_________________________________________________________________\r\ntf_op_layer_ExpandDims_1 (Te [(100, 49, 80, 1)]        0         \r\n_________________________________________________________________\r\nstream_3 (Stream)            (100, 47, 78, 16)         160       \r\n_________________________________________________________________\r\nstream_4 (Stream)            (100, 43, 76, 16)         3856      \r\n_________________________________________________________________\r\nreshape_1 (Reshape)          (100, 43, 1216)           0         \r\n_________________________________________________________________\r\ngru_1 (GRU)                  (100, 1, 256)             1132032   \r\n_________________________________________________________________\r\nstream_5 (Stream)            (100, 256)                0         \r\n_________________________________________________________________\r\ndropout_1 (Dropout)          (100, 256)                0         \r\n_________________________________________________________________\r\ndense_3 (Dense)              (100, 128)                32896     \r\n_________________________________________________________________\r\ndense_4 (Dense)              (100, 256)                33024     \r\n_________________________________________________________________\r\ndense_5 (Dense)              (100, 24)                 6168      \r\n=================================================================\r\nTotal params: 1,208,136\r\nTrainable params: 1,208,136\r\nNon-trainable params: 0\r\n_________________________________________________________________\r\n\r\n```\r\nCurrently I am getting accuracy around 93.5%. Can you please suggest what are the other parameters of the model I need to change in order to get a accuracy 
…
