…
.conv2D`. In addition, since I would like to try \"group pointwise convolution + depthwise convolution\", I didn't just use \"separable convolution\" to implement mobilenet version of TCN.\r\n\r\n\r\n> **V2.0**\r\n> _________________________________________________________________\r\n> Layer (type)                 Output Shape              Param #   \r\n> =================================================================\r\n> input_1 (InputLayer)         [(128, 16000)]            0         \r\n> _________________________________________________________________\r\n> speech_features (SpeechFeatu (128, 49, 30)             0         \r\n> _________________________________________________________________\r\n> tf_op_layer_ExpandDims (Tens [(128, 49, 30, 1)]        0         \r\n> _________________________________________________________________\r\n> tf_op_layer_Reshape (TensorF [(128, 49, 1, 30)]        0         \r\n> _________________________________________________________________\r\n> conv2d (Conv2D)              (128, 49, 1, 36)          3276      \r\n> _________________________________________________________________\r\n> batch_normalization (BatchNo (128, 49, 1, 36)          144       \r\n> _________________________________________________________________\r\n> activation (Activation)      (128, 49, 1, 36)          0         \r\n> _________________________________________________________________\r\n> conv2d_1 (Conv2D)            (128, 49, 1, 36)          3924      \r\n> _________________________________________________________________\r\n> batch_normalization_1 (Batch (128, 49, 1, 36)          144       \r\n> _________________________________________________________________\r\n> activation_1 (Activation)    (128, 49, 1, 36)          0         \r\n> _________________________________________________________________\r\n> conv2d_2 (Conv2D)            (128, 49, 1, 36)          3924      \r\n> _________________________________________________________________\r\n> batch_normalization_2 (Batch (128, 49, 1, 36)          144       \r\n> _________________________________________________________________\r\n> activation_2 (Activation)    (128, 49, 1, 36)          0         \r\n> _________________________________________________________________\r\n> conv2d_3 (Conv2D)            (128, 49, 1, 36)          3924      \r\n> _________________________________________________________________\r\n> batch_normalization_3 (Batch (128, 49, 1, 36)          144       \r\n> _________________________________________________________________\r\n> activation_3 (Activation)    (128, 49, 1, 36)          0         \r\n> _________________________________________________________________\r\n> conv2d_4 (Conv2D)            (128, 49, 1, 36)          3924      \r\n> _________________________________________________________________\r\n> batch_normalization_4 (Batch (128, 49, 1, 36)          144       \r\n> _________________________________________________________________\r\n> activation_4 (Activation)    (128, 49, 1, 36)          0         \r\n> _________________________________________________________________\r\n> conv2d_5 (Conv2D)            (128, 49, 1, 36)          3924      \r\n> _________________________________________________________________\r\n> batch_normalization_5 (Batch (128, 49, 1, 36)          144       \r\n> _________________________________________________________________\r\n> activation_5 (Activation)    (128, 49, 1, 36)          0         \r\n> _________________________________________________________________\r\n> conv2d_6 (Conv2D)            (128, 49, 1, 36)          3924      \r\n> _________________________________________________________________\r\n> batch_normalization_6 (Batch (128, 49, 1, 36)          144       \r\n> _________________________________________________________________\r\n> activation_6 (Activation)    (128, 49, 1, 36)          0         \r\n> _________________________________________________________________\r\n> average_pooling2d (AveragePo (128, 1, 1, 36)           0         \r\n> _________________________________________________________________\r\n> dropout (Dropout)            (128, 1, 1, 36)           0         \r\n> _________________________________________________________________\r\n> conv2d_7 (Conv2D)            (128, 1, 1, 12)           444       \r\n> _________________________________________________________________\r\n> tf_op_layer_Reshape_1 (Tenso [(128, 12)]               0         \r\n> _________________________________________________________________\r\n> =================================================================\r\n> Total params: 28,272\r\n> Trainable params: 27,768\r\n> Non-trainable params: 504\r\n> _________________________________________________________________\r\n\r\n> **V2.2**\r\n> _________________________________________________________________\r\n> Layer (type)                 Output Shape              Param #   \r\n> =================================================================\r\n> input_1 (InputLayer)         [(128, 16000)]            0         \r\n> _________________________________________________________________\r\n> speech_features (SpeechFeatu (128, 49, 30)             0         \r\n> _________________________________________________________________\r\n> tf_op_layer_ExpandDims (Tens [(128, 49, 30, 1)]        0         \r\n> _________________________________________________________________\r\n> tf_op_layer_Reshape (TensorF [(128, 49, 1, 30)]        0         \r\n> _________________________________________________________________\r\n> conv2d (Conv2D)              (128, 49, 1, 36)          3276      \r\n> _________________________________________________________________\r\n> batch_normalization (BatchNo (128, 49, 1, 36)          144       \r\n> _________________________________________________________________\r\n> activation (Activation)      (128, 49, 1, 36)          0         \r\n> _________________________________________________________________\r\n> depthwise_conv2d (DepthwiseC (128, 49, 1, 36)          144       \r\n> _________________________________________________________________\r\n> conv2d_1 (Conv2D)            (128, 49, 1, 36)          1332      \r\n> _________________________________________________________________\r\n> batch_normalization_1 (Batch (128, 49, 1, 36)          144       \r\n> _________________________________________________________________\r\n> activation_1 (Activation)    (128, 49, 1, 36)          0         \r\n> _________________________________________________________________\r\n> depthwise_conv2d_1 (Depthwis (128, 49, 1, 36)          144       \r\n> _________________________________________________________________\r\n> conv2d_2 (Conv2D)            (128, 49, 1, 36)          1332      \r\n> _________________________________________________________________\r\n> batch_normalization_2 (Batch (128, 49, 1, 36)          144       \r\n> _________________________________________________________________\r\n> activation_2 (Activation)    (128, 49, 1, 36)          0         \r\n> _________________________________________________________________\r\n> depthwise_conv2d_2 (Depthwis (128, 49, 1, 36)          144       \r\n> _________________________________________________________________\r\n> conv2d_3 (Conv2D)            (128, 49, 1, 36)          1332      \r\n> _________________________________________________________________\r\n> batch_normalization_3 (Batch (128, 49, 1, 36)          144       \r\n> _________________________________________________________________\r\n> activation_3 (Activation)    (128, 49, 1, 36)          0         \r\n> _________________________________________________________________\r\n> depthwise_conv2d_3 (Depthwis (128, 49, 1, 36)          144       \r\n> _________________________________________________________________\r\n> conv2d_4 (Conv2D)            (128, 49, 1, 36)          1332      \r\n> _________________________________________________________________\r\n> batch_normalization_4 (Batch (128, 49, 1, 36)          144       \r\n> _________________________________________________________________\r\n> activation_4 (Activation)    (128, 49, 1, 36)          0         \r\n> _________________________________________________________________\r\n> depthwise_conv2d_4 (Depthwis (128, 49, 1, 36)          144       \r\n> _________________________________________________________________\r\n> conv2d_5 (Conv2D)            (128, 49, 1, 36)          1332      \r\n> _________________________________________________________________\r\n> batch_normalization_5 (Batch (128, 49, 1, 36)          144       \r\n> _________________________________________________________________\r\n> activation_5 (Activation)    (128, 49, 1, 36)          0         \r\n> _________________________________________________________________\r\n> depthwise_conv2d_5 (Depthwis (128, 49, 1, 36)          144       \r\n> _________________________________________________________________\r\n> conv2d_6 (Conv2D)            (128, 49, 1, 36)          1332      \r\n> _________________________________________________________________\r\n> batch_normalization_6 (Batch (128, 49, 1, 36)          144       \r\n> _________________________________________________________________\r\n> activation_6 (Activation)    (128, 49, 1, 36)          0         \r\n> _________________________________________________________________\r\n> average_pooling2d (AveragePo (128, 1, 1, 36)           0         \r\n> _________________________________________________________________\r\n> dropout (Dropout)            (128, 1, 1, 36)           0         \r\n> _________________________________________________________________\r\n> conv2d_7 (Conv2D)            (128, 1, 1, 12)           444       \r\n> _________________________________________________________________\r\n> tf_op_layer_Reshape_1 (Tenso [(128, 12)]               0         \r\n> _________________________________________________________________\r\n> =================================================================\r\n> Total params: 13,584\r\n> Trainable params: 13,080\r\n> Non-trainable params: 504\r\n> _________________________________________________________________\r\n\r\n> **V2.6**\r\n> _________________________________________________________________\r\n> Layer (type)                 Output Shape              Param #   \r\n> =================================================================\r\n> input_1 (InputLayer)         [(128, 16000)]            0         \r\n> _________________________________________________________________\r\n> feature_layer (SpeechFeature (128, 49, 30)             0         \r\n> _________________________________________________________________\r\n> tf_op_layer_ExpandDims (Tens [(128, 49, 30, 1)]        0         \r\n> _________________________________________________________________\r\n> tf_op_layer_Reshape (TensorF [(128, 49, 1, 30)]        0         \r\n> _________________________________________________________________\r\n> conv0 (Conv2D)               (128, 49, 1, 24)          744       \r\n> _________________________________________________________________\r\n> bn0 (BatchNormalization)     (128, 49, 1, 24)          96        \r\n> _________________________________________________________________\r\n> act0 (Activation)            (128, 49, 1, 24)          0         \r\n> _________________________________________________________________\r\n> dw1 (DepthwiseConv2D)        (128, 49, 1, 24)          144       \r\n> _________________________________________________________________\r\n> pw1 (Conv2D)                 (128, 49, 1, 24)          600       \r\n> _________________________________________________________________\r\n> bn1 (BatchNormalization)     (128, 49, 1, 24)          96        \r\n> _________________________________________________________________\r\n> act2 (Activation)            (128, 49, 1, 24)          0         \r\n> _________________________________________________________________\r\n> dw2 (DepthwiseConv2D)        (128, 49, 1, 24)          144       \r\n> _________________________________________________________________\r\n> pw2 (Conv2D)                 (128, 49, 1, 24)          600       \r\n> _________________________________________________________________\r\n> bn2 (BatchNormalization)     (128, 49, 1, 24)          96        \r\n> _________________________________________________________________\r\n> act3 (Activation)            (128, 49, 1, 24)          0         \r\n> _________________________________________________________________\r\n> dw3 (DepthwiseConv2D)        (128, 49, 1, 24)          144       \r\n> _________________________________________________________________\r\n> pw3 (Conv2D)                 (128, 49, 1, 24)          600       \r\n> _________________________________________________________________\r\n> bn3 (BatchNormalization)     (128, 49, 1, 24)          96        \r\n> _________________________________________________________________\r\n> act4 (Activation)            (128, 49, 1, 24)          0         \r\n> _________________________________________________________________\r\n> dw4 (DepthwiseConv2D)        (128, 49, 1, 24)          144       \r\n> _________________________________________________________________\r\n> pw4 (Conv2D)                 (128, 49, 1, 24)          600       \r\n> _________________________________________________________________\r\n> bn4 (BatchNormalization)     (128, 49, 1, 24)          96        \r\n> _________________________________________________________________\r\n> act5 (Activation)            (128, 49, 1, 24)          0         \r\n> _________________________________________________________________\r\n> pool (AveragePooling2D)      (128, 1, 1, 24)           0         \r\n> _________________________________________________________________\r\n> dropout (Dropout)            (128, 1, 1, 24)           0         \r\n> _________________________________________________________________\r\n> last_conv (Conv2D)           (128, 1, 1, 12)           300       \r\n> _________________________________________________________________\r\n> tf_op_layer_reshape_1 (Tenso [(128, 12)]               0      \r\n> _________________________________________________________________   \r\n> =================================================================\r\n> Total params: 4,500\r\n> Trainable params: 4,260\r\n> Non-trainable params: 240\r\n> __________________
…
