…
ogle-research/google-research/blob/master/kws_streaming/models/ds_tc_resnet.py) and found `kernel_size=(kernel_size, 1)` but in the case of `cnn_one_fpool3`, I guessed (1, 33) was good.\r\n\r\nand the model summary:\r\n```\r\n_________________________________________________________________\r\nLayer (type)                 Output Shape              Param #   \r\n=================================================================\r\ninput_1 (InputLayer)         [(100, 16000)]            0         \r\n_________________________________________________________________\r\nspeech_features (SpeechFeatu (100, 32, 40)             0         \r\n_________________________________________________________________\r\ntf_op_layer_ExpandDims (Tens [(100, 32, 40, 1)]        0         \r\n_________________________________________________________________\r\nconv2d (Conv2D)              (100, 1, 33, 54)          13878     \r\n_________________________________________________________________\r\nmax_pooling2d (MaxPooling2D) (100, 1, 33, 54)          0         \r\n_________________________________________________________________\r\ndepthwise_conv2d (DepthwiseC (100, 1, 1, 54)           1836      \r\n_________________________________________________________________\r\nconv2d_1 (Conv2D)            (100, 1, 1, 32)           1760      \r\n_________________________________________________________________\r\ndropout (Dropout)            (100, 1, 1, 32)           0         \r\n_________________________________________________________________\r\nflatten (Flatten)            (100, 32)                 0         \r\n_________________________________________________________________\r\ndense (Dense)                (100, 128)                4224      \r\n_________________________________________________________________\r\ndense_1 (Dense)              (100, 128)                16512     \r\n_________________________________________________________________\r\nflatten_1 (Flatten)          (100, 128)                0         \r\n_________________________________________________________________\r\ndense_2 (Dense)              (100, 12)                 1548      \r\n=================================================================\r\nTotal params: 39,758\r\nTrainable params: 39,758\r\nNon-trainable params: 0\r\n_________________________________________________________________\r\n* the last layer's output is different from the table above because this is the model for 12 labels.\r\n```\r\n\r\n`depthwise_conv2d` and `conv2d_1` should work as the linea
…
