…
\r\nW0515 01:51:18.979778 140248402396992 recurrent_v2.py:413] Layer cell will not use cuDNN kernels since it doesn't meet the criteria. It will use a generic GPU kernel as fallback when running on GPU.\r\nModel: \"model\"\r\n_________________________________________________________________\r\nLayer (type)                 Output Shape              Param #   \r\n=================================================================\r\ninput_1 (InputLayer)         [(100, 16000)]            0         \r\n_________________________________________________________________\r\nspeech_features (SpeechFeatu (100, 49, 20)             0         \r\n_________________________________________________________________\r\ntf_op_layer_ExpandDims (Tens [(100, 49, 20, 1)]        0         \r\n_________________________________________________________________\r\nstream (Stream)              (100, 47, 18, 16)         160       \r\n_________________________________________________________________\r\nstream_1 (Stream)            (100, 43, 16, 16)         3856      \r\n_________________________________________________________________\r\nreshape (Reshape)            (100, 43, 256)            0         \r\n_________________________________________________________________\r\ngru (GRU)                    (100, 1, 256)             394752    \r\n_________________________________________________________________\r\nstream_2 (Stream)            (100, 256)                0         \r\n_________________________________________________________________\r\ndropout (Dropout)            (100, 256)                0         \r\n_________________________________________________________________\r\ndense (Dense)                (100, 128)                32896     \r\n_________________________________________________________________\r\ndense_1 (Dense)              (100, 256)                33024     \r\n_________________________________________________________________\r\ndense_2 (Dense)              (100, 3)                  771       \r\n=================================================================\r\nTotal params: 465,459\r\nTrainable params: 465,459\r\nNon-trainable params: 0\r\n_________________________________________________________________\r\nI0515 01:51:19.321968 140248402396992 train.py:71] None\r\nI0515 01:51:19.619409 140248402396992 train.py:107] Training from step: 1 \r\n2021-05-15 01:51:21.140477: W ten
…
