…
s handled automatically by placer.\r\nModel: \"model\"\r\n__________________________________________________________________________________________________\r\nLayer (type)                    Output Shape         Param #     Connected to                     \r\n==================================================================================================\r\ninput_1 (InputLayer)            [(100, 16000)]       0           []                               \r\n__________________________________________________________________________________________________\r\nspeech_features (SpeechFeature  (100, 49, 40)        0           ['input_1[0][0]']                \r\ns)                                                                                                \r\n__________________________________________________________________________________________________\r\ndense_1 (Dense)                 (100, 49, 32)        1280        ['speech_features[0][0]']        \r\n__________________________________________________________________________________________________\r\nsvdf_1_0 (Svdf)                 (100, 49, 32)        1632        ['speech_features[0][0]']        \r\n__________________________________________________________________________________________________\r\nbatch_normalization_1 (BatchNo  (100, 49, 32)        128         ['dense_1[0][0]']                \r\nrmalization)                                                                                      \r\n__________________________________________________________________________________________________\r\nadd (Add)                       (100, 49, 32)        0           ['svdf_1_0[0][0]',               \r\n                                                                  'batch_normalization_1[0][0]']  \r\n__________________________________________________________________________________________________\r\nactivation (Activation)         (100, 49, 32)        0           ['add[0][0]']                    \r\n__________________________________________________________________________________________________\r\nmax_pooling1d (MaxPooling1D)    (100, 24, 32)        0           ['activation[0][0]']             \r\n__________________________________________________________________________________________________\r\ndense_3 (Dense)                 (100, 24, 50)        1600        ['max_pooling1d[0][0]']          \r\n__________________________________________________________________________________________________\r\nsvdf_2_0 (Svdf)                 (100, 24, 50)        2150        ['max_pooling1d[0][0]']          \r\n__________________________________________________________________________________________________\r\nbatch_normalization_3 (BatchNo  (100, 24, 50)        200         ['dense_3[0][0]']                \r\nrmalization)                                                                                      \r\n__________________________________________________________________________________________________\r\nadd_1 (Add)                     (100, 24, 50)        0           ['svdf_2_0[0][0]',               \r\n                                                                  'batch_normalization_3[0][0]']  \r\n__________________________________________________________________________________________________\r\nactivation_1 (Activation)       (100, 24, 50)        0           ['add_1[0][0]']                  \r\n__________________________________________________________________________________________________\r\nmax_pooling1d_1 (MaxPooling1D)  (100, 11, 50)        0           ['activation_1[0][0]']           \r\n__________________________________________________________________________________________________\r\nsvdf_3_0 (Svdf)                 (100, 11, 50)        3250        ['max_pooling1d_1[0][0]']        \r\n__________________________________________________________________________________________________\r\ndense_6 (Dense)                 (100, 11, 128)       6400        ['max_pooling1d_1[0][0]']        \r\n__________________________________________________________________________________________________\r\nsvdf_3_1 (Svdf)                 (100, 11, 128)       8320        ['svdf_3_0[0][0]']               \r\n__________________________________________________________________________________________________\r\nbatch_normalization_6 (BatchNo  (100, 11, 128)       512         ['dense_6[0][0]']                \r\nrmalization)                                                                                      \r\n__________________________________________________________________________________________________\r\nadd_2 (Add)                     (100, 11, 128)       0           ['svdf_3_1[0][0]',               \r\n                                                                  'batch_normalization_6[0][0]']  \r\n__________________________________________________________________________________________________\r\nactivation_2 (Activation)       (100, 11, 128)       0           ['add_2[0][0]']                  \r\n__________________________________________________________________________________________________\r\nmax_pooling1d_2 (MaxPooling1D)  (100, 9, 128)        0           ['activation_2[0][0]']           \r\n__________________________________________________________________________________________________\r\nglobal_average_pooling1d (Glob  (100, 128)           0           ['max_pooling1d_2[0][0]']        \r\nalAveragePooling1D)                                                                               \r\n__________________________________________________________________________________________________\r\ndropout (Dropout)               (100, 128)           0           ['global_average_pooling1d[0][0]'\r\n                                                                 ]                                \r\n__________________________________________________________________________________________________\r\ndense_7 (Dense)                 (100, 64)            8256        ['dropout[0][0]']                \r\n__________________________________________________________________________________________________\r\ndense_8 (Dense)                 (100, 3)             195         ['dense_7[0][0]']                \r\n==================================================================================================\r\nTotal params: 33,923\r\nTrainable params: 32,983\r\nNon-trainable params: 940\r\n__________________________________________________________________________________________________\r\nI0903 18:00:45.455425 140373190989632 train.py:71] None\r\n```\r\n\r\
…
