…
:"https://api.github.com/users/onurdanaci/orgs","repos_url":"https://api.github.com/users/onurdanaci/repos","events_url":"https://api.github.com/users/onurdanaci/events{/privacy}","received_events_url":"https://api.github.com/users/onurdanaci/received_events","type":"User","site_admin":false},"created_at":"2019-08-30T14:15:11Z","updated_at":"2019-08-30T14:15:11Z","author_association":"NONE","body":"Model is, more or less:\r\n\r\nLayer (type)                 Output Shape              Param #   \r\n=================================================================\r\nconv1d_63 (Conv1D)           (None, 18488, 128)        384       \r\n_________________________________________________________________\r\nbatch_normalization_19 (Batc (None, 18488, 128)        512       \r\n_________________________________________________________________\r\nactivation_19 (Activation)   (None, 18488, 128)        0         \r\n_________________________________________________________________\r\nmax_pooling1d_30 (MaxPooling (None, 9244, 128)         0         \r\n_________________________________________________________________\r\nconv1d_64 (Conv1D)           (None, 9244, 64)          24640     \r\n_________________________________________________________________\r\nmax_pooling1d_31 (MaxPooling (None, 4622, 64)          0         \r\n_________________________________________________________________\r\nconv1d_65 (Conv1D)           (None, 4622, 32)          6176      \r\n_________________________________________________________________\r\nmax_pooling1d_45 (MaxPooling (None, 2311, 32)          0         \r\n_________________________________________________________________\r\nconv1d_41 (Conv1D)           (None, 2309, 1)           97        \r\n_________________________________________________________________\r\nflatten_43 (Flatten)         (None, 2309)              0         \r\n_________________________________________________________________\r\ndense_249 (Dense)            (None, 512)               1182720   \r\n_________________________________________________________________\r\ndense_250 (Dense)            (None, 512)               262656    \r\n_________________________________________________________________\r\ndense_251 (Dense)            (None, 64)                32832     \r\n_________________________________________________________________\r\ndense_252 (Dense)            (None, 1)                 65        \r\n=================================================================\r\nTotal params: 1,510,082\r\nTrainable params: 1,478,370\r\nNon-trainable params: 31,712\r\n\r\nBut, first 7 layers are transferred from an encoder of an autoencoder, so they are frozen and not trained.","reactions":{"url":"https://api.github.com/repos/netrack/keras-metrics/issues/comments/526618006/reactions","total_co
…
