…
_at":"2019-03-16T10:03:17Z","closed_at":"2019-03-16T10:03:17Z","author_association":"OWNER","active_lock_reason":null,"body":"As @vincelui21 pointed out to me by email, the default padding value is 'none' so the output size should decrease to 26x26 and not 28x28. This propagates to the other conv layers as well. \r\nSee keras.summary() output below \r\n\r\n`>>> model.summary()\r\n_________________________________________________________________\r\nLayer (type)                 Output Shape              Param #\r\n=================================================\r\nconv2d_1 (Conv2D)            (None, 26, 26, 32)        320\r\n_________________________________________________________________\r\nconv2d_2 (Conv2D)            (None, 24, 24, 64)        18496\r\n_________________________________________________________________\r\nmax_pooling2d_1 (MaxPooling2 (None, 12, 12, 64)        0\r\n_________________________________________________________________\r\ndropout_1 (Dropout)          (None, 12, 12, 64)        0\r\n_________________________________________________________________\r\nflatten_1 (Flatten)          (None, 9216)              0\r\n_________________________________________________________________\r\ndense_1 (Dense)              (None, 128)               1179776\r\n_________________________________________________________________\r\ndropout_2 (Dropout)          (None, 128)               0\r\n_________________________________________________________________\r\ndense_2 (Dense)              (None, 6)                 774\r\n================================================\r\nTotal params: 1,199,366\r\nTrainable params: 1,199,366\r\nNon-trainable params: 0\r\n_________________________________________________________________`\r\n\r\nCNN architecture image should be fixed.","closed_by":{"login":"MrEliptik","id":24484962,"node_id":"MDQ6VXNlcjI0NDg0OTYy","avatar_url":"https://avatars.githubusercontent.com/u/24484962?v
…
