…
duces the error (no params yet):\r\n```python\r\nparams = {\r\n    \r\n}\r\nh = ta.Scan(X_train.values, y_train.values, params, build_deep_model, val_split=0.2, dataset_name='em-wave-pos', experiment_no='1')\r\n```\r\n\r\nHere is the output:\r\n\r\n```python\r\n__________________________________________________________________________________________________\r\nLayer (type)                    Output Shape         Param #     Connected to                     \r\n==================================================================================================\r\nx (InputLayer)                  (None, 200, 1)       0                                            \r\n__________________________________________________________________________________________________\r\ny (InputLayer)                  (None, 200, 1)       0                                            \r\n__________________________________________________________________________________________________\r\nz (InputLayer)                  (None, 200, 1)       0                                            \r\n__________________________________________________________________________________________________\r\nconv1d_13 (Conv1D)              (None, 100, 32)      192         x[0][0]                          \r\n__________________________________________________________________________________________________\r\nconv1d_17 (Conv1D)              (None, 100, 32)      192         y[0][0]                          \r\n__________________________________________________________________________________________________\r\nconv1d_21 (Conv1D)              (None, 100, 32)      192         z[0][0]                          \r\n__________________________________________________________________________________________________\r\nconv1d_14 (Conv1D)              (None, 50, 32)       5152        conv1d_13[0][0]                  \r\n__________________________________________________________________________________________________\r\nconv1d_18 (Conv1D)              (None, 50, 32)       5152        conv1d_17[0][0]                  \r\n__________________________________________________________________________________________________\r\nconv1d_22 (Conv1D)              (None, 50, 32)       5152        conv1d_21[0][0]                  \r\n__________________________________________________________________________________________________\r\nconv1d_15 (Conv1D)              (None, 25, 32)       5152        conv1d_14[0][0]                  \r\n__________________________________________________________________________________________________\r\nconv1d_19 (Conv1D)              (None, 25, 32)       5152        conv1d_18[0][0]                  \r\n__________________________________________________________________________________________________\r\nconv1d_23 (Conv1D)              (None, 25, 32)       5152        conv1d_22[0][0]                  \r\n__________________________________________________________________________________________________\r\nconv1d_16 (Conv1D)              (None, 11, 32)       5152        conv1d_15[0][0]                  \r\n__________________________________________________________________________________________________\r\nconv1d_20 (Conv1D)              (None, 11, 32)       5152        conv1d_19[0][0]                  \r\n__________________________________________________________________________________________________\r\nconv1d_24 (Conv1D)              (None, 11, 32)       5152        conv1d_23[0][0]                  \r\n__________________________________________________________________________________________________\r\nflatten_4 (Flatten)             (None, 352)          0           conv1d_16[0][0]                  \r\n__________________________________________________________________________________________________\r\nflatten_5 (Flatten)             (None, 352)          0           conv1d_20[0][0]                  \r\n__________________________________________________________________________________________________\r\nflatten_6 (Flatten)             (None, 352)          0           conv1d_24[0][0]                  \r\n__________________________________________________________________________________________________\r\nfeature_x (Dense)               (None, 64)           22592       flatten_4[0][0]                  \r\n__________________________________________________________________________________________________\r\nfeature_y (Dense)               (None, 64)           22592       flatten_5[0][0]                  \r\n__________________________________________________________________________________________________\r\nfeature_z (Dense)               (None, 64)           22592       flatten_6[0][0]                  \r\n__________________________________________________________________________________________________\r\nq (InputLayer)                  (None, 4)            0                                            \r\n__________________________________________________________________________________________________\r\nconcatenate_2 (Concatenate)     (None, 196)          0           feature_x[0][0]                  \r\n                                                                 feature_y[0][0]                  \r\n                                                                 feature_z[0][0]                  \r\n                                                                 q[0][0]                          \r\n__________________________________________________________________________________________________\r\ndense_2 (Dense)                 (None, 32)           6304        concatenate_2[0][0]              \r\n__________________________________________________________________________________________________\r\nreadout (Dense)                 (None, 3)            99          dense_2[0][0]                    \r\n==================================================================================================\r\nTotal params: 121,123\r\nTrainable params: 121,123\r\nNon-trainable params: 0\r\n__________________________________________________________________________________________________\r\nTrain on 9379 samples, validate on 2345 samples\r\nEpoch 1/500\r\n -
…
