…
060, Compute Capability 6.1\r\nModel: \"functional_3\"\r\n__________________________________________________________________________________________________\r\nLayer (type)                    Output Shape         Param #     Connected to                     \r\n==================================================================================================\r\ninput (InputLayer)              [(None, 64, 64, 1)]  0                                            \r\n__________________________________________________________________________________________________\r\nconv1_pad (ZeroPadding2D)       (None, 70, 70, 1)    0           input[0][0]                      \r\n__________________________________________________________________________________________________\r\nconv1 (Conv2D)                  (None, 32, 32, 64)   3200        conv1_pad[0][0]                  \r\n__________________________________________________________________________________________________\r\nbatch_normalization (BatchNorma (None, 32, 32, 64)   256         conv1[0][0]                      \r\n__________________________________________________________________________________________________\r\nactivation (Activation)         (None, 32, 32, 64)   0           batch_normalization[0][0]        \r\n__________________________________________________________________________________________________\r\npool1_pad (ZeroPadding2D)       (None, 34, 34, 64)   0           activation[0][0]                 \r\n__________________________________________________________________________________________________\r\nmax_pooling2d (MaxPooling2D)    (None, 16, 16, 64)   0           pool1_pad[0][0]                  \r\n__________________________________________________________________________________________________\r\nzero_padding2d (ZeroPadding2D)  (None, 18, 18, 64)   0           max_pooling2d[0][0]              \r\n__________________________________________________________________________________________________\r\nconv2d (Conv2D)                 (None, 8, 8, 64)     36928       zero_padding2d[0][0]             \r\n__________________________________________________________________________________________________\r\nbatch_normalization_1 (BatchNor (None, 8, 8, 64)     256         conv2d[0][0]                     \r\n__________________________________________________________________________________________________\r\nactivation_1 (Activation)       (None, 8, 8, 64)     0           batch_normalization_1[0][0]      \r\n__________________________________________________________________________________________________\r\nzero_padding2d_1 (ZeroPadding2D (None, 10, 10, 64)   0           activation_1[0][0]               \r\n__________________________________________________________________________________________________\r\nconv2d_1 (Conv2D)               (None, 8, 8, 64)     36928       zero_padding2d_1[0][0]           \r\n__________________________________________________________________________________________________\r\nconv2d_2 (Conv2D)               (None, 8, 8, 64)     4160        max_pooling2d[0][0]              \r\n__________________________________________________________________________________________________\r\nbatch_normalization_2 (BatchNor (None, 8, 8, 64)     256         conv2d_1[0][0]                   \r\n__________________________________________________________________________________________________\r\nbatch_normalization_3 (BatchNor (None, 8, 8, 64)     256         conv2d_2[0][0]                   \r\n__________________________________________________________________________________________________\r\nadd (Add)                       (None, 8, 8, 64)     0           batch_normalization_2[0][0]      \r\n                                                                 batch_normalization_3[0][0]      \r\n__________________________________________________________________________________________________\r\nactivation_2 (Activation)       (None, 8, 8, 64)     0           add[0][0]                        \r\n__________________________________________________________________________________________________\r\nzero_padding2d_2 (ZeroPadding2D (None, 10, 10, 64)   0           activation_2[0][0]               \r\n__________________________________________________________________________________________________\r\nconv2d_3 (Conv2D)               (None, 8, 8, 64)     36928       zero_padding2d_2[0][0]           \r\n__________________________________________________________________________________________________\r\nbatch_normalization_4 (BatchNor (None, 8, 8, 64)     256         conv2d_3[0][0]                   \r\n__________________________________________________________________________________________________\r\nactivation_3 (Activation)       (None, 8, 8, 64)     0           batch_normalization_4[0][0]      \r\n__________________________________________________________________________________________________\r\nzero_padding2d_3 (ZeroPadding2D (None, 10, 10, 64)   0           activation_3[0][0]               \r\n__________________________________________________________________________________________________\r\nconv2d_4 (Conv2D)               (None, 8, 8, 64)     36928       zero_padding2d_3[0][0]           \r\n__________________________________________________________________________________________________\r\nbatch_normalization_5 (BatchNor (None, 8, 8, 64)     256         conv2d_4[0][0]                   \r\n__________________________________________________________________________________________________\r\nadd_1 (Add)                     (None, 8, 8, 64)     0           batch_normalization_5[0][0]      \r\n                                                                 activation_2[0][0]               \r\n__________________________________________________________________________________________________\r\nactivation_4 (Activation)       (None, 8, 8, 64)     0           add_1[0][0]                      \r\n__________________________________________________________________________________________________\r\nzero_padding2d_4 (ZeroPadding2D (None, 10, 10, 64)   0           activation_4[0][0]               \r\n__________________________________________________________________________________________________\r\nconv2d_5 (Conv2D)               (None, 4, 4, 128)    73856       zero_padding2d_4[0][0]           \r\n__________________________________________________________________________________________________\r\nbatch_normalization_6 (BatchNor (None, 4, 4, 128)    512         conv2d_5[0][0]                   \r\n__________________________________________________________________________________________________\r\nactivation_5 (Activation)       (None, 4, 4, 128)    0           batch_normalization_6[0][0]      \r\n__________________________________________________________________________________________________\r\nzero_padding2d_5 (ZeroPadding2D (None, 6, 6, 128)    0           activation_5[0][0]               \r\n__________________________________________________________________________________________________\r\nconv2d_6 (Conv2D)               (None, 4, 4, 128)    147584      zero_padding2d_5[0][0]           \r\n__________________________________________________________________________________________________\r\nconv2d_7 (Conv2D)               (None, 4, 4, 128)    8320        activation_4[0][0]               \r\n__________________________________________________________________________________________________\r\nbatch_normalization_7 (BatchNor (None, 4, 4, 128)    512         conv2d_6[0][0]                   \r\n__________________________________________________________________________________________________\r\nbatch_normalization_8 (BatchNor (None, 4, 4, 128)    512         conv2d_7[0][0]                   \r\n__________________________________________________________________________________________________\r\nadd_2 (Add)                     (None, 4, 4, 128)    0           batch_normalization_7[0][0]      \r\n                                                                 batch_normalization_8[0][0]      \r\n__________________________________________________________________________________________________\r\nactivation_6 (Activation)       (None, 4, 4, 128)    0           add_2[0][0]                      \r\n__________________________________________________________________________________________________\r\nzero_padding2d_6 (ZeroPadding2D (None, 6, 6, 128)    0           activation_6[0][0]               \r\n__________________________________________________________________________________________________\r\nconv2d_8 (Conv2D)               (None, 4, 4, 128)    147584      zero_padding2d_6[0][0]           \r\n__________________________________________________________________________________________________\r\nbatch_normalization_9 (BatchNor (None, 4, 4, 128)    512         conv2d_8[0][0]                   \r\n__________________________________________________________________________________________________\r\nactivation_7 (Activation)       (None, 4, 4, 128)    0           batch_normalization_9[0][0]      \r\n__________________________________________________________________________________________________\r\nzero_padding2d_7 (ZeroPadding2D (None, 6, 6, 128)    0           activation_7[0][0]               \r\n__________________________________________________________________________________________________\r\nconv2d_9 (Conv2D)               (None, 4, 4, 128)    147584      zero_padding2d_7[0][0]           \r\n__________________________________________________________________________________________________\r\nbatch_normalization_10 (BatchNo (None, 4, 4, 128)    512         conv2d_9[0][0]                   \r\n__________________________________________________________________________________________________\r\nadd_3 (Add)                     (None, 4, 4, 128)    0           batch_normalization_10[0][0]     \r\n                                                                 activation_6[0][0]               \r\n__________________________________________________________________________________________________\r\nactivation_8 (Activation)       (None, 4, 4, 128)    0           add_3[0][0]                      \r\n__________________________________________________________________________________________________\r\nzero_padding2d_8 (ZeroPadding2D (None, 6, 6, 128)    0           activation_8[0][0]               \r\n__________________________________________________________________________________________________\r\nconv2d_10 (Conv2D)              (None, 2, 2, 256)    295168      zero_padding2d_8[0][0]           \r\n__________________________________________________________________________________________________\r\nbatch_normalization_11 (BatchNo (None, 2, 2, 256)    1024        conv2d_10[0][0]                  \r\n__________________________________________________________________________________________________\r\nactivation_9 (Activation)       (None, 2, 2, 256)    0           batch_normalization_11[0][0]     \r\n__________________________________________________________________________________________________\r\nzero_padding2d_9 (ZeroPadding2D (None, 4, 4, 256)    0           activation_9[0][0]               \r\n__________________________________________________________________________________________________\r\nconv2d_11 (Conv2D)              (None, 2, 2, 256)    590080      zero_padding2d_9[0][0]           \r\n__________________________________________________________________________________________________\r\nconv2d_12 (Conv2D)              (None, 2, 2, 256)    33024       activation_8[0][0]               \r\n__________________________________________________________________________________________________\r\nbatch_normalization_12 (BatchNo (None, 2, 2, 256)    1024        conv2d_11[0][0]                  \r\n__________________________________________________________________________________________________\r\nbatch_normalization_13 (BatchNo (None, 2, 2, 256)    1024        conv2d_12[0][0]                  \r\n__________________________________________________________________________________________________\r\nadd_4 (Add)                     (None, 2, 2, 256)    0           batch_normalization_12[0][0]     \r\n                                                                 batch_normalization_13[0][0]     \r\n__________________________________________________________________________________________________\r\nactivation_10 (Activation)      (None, 2, 2, 256)    0           add_4[0][0]                      \r\n__________________________________________________________________________________________________\r\nzero_padding2d_10 (ZeroPadding2 (None, 4, 4, 256)    0           activation_10[0][0]              \r\n__________________________________________________________________________________________________\r\nconv2d_13 (Conv2D)              (None, 2, 2, 256)    590080      zero_padding2d_10[0][0]          \r\n__________________________________________________________________________________________________\r\nbatch_normalization_14 (BatchNo (None, 2, 2, 256)    1024        conv2d_13[0][0]                  \r\n__________________________________________________________________________________________________\r\nactivation_11 (Activation)      (None, 2, 2, 256)    0           batch_normalization_14[0][0]     \r\n__________________________________________________________________________________________________\r\nzero_padding2d_11 (ZeroPadding2 (None, 4, 4, 256)    0           activation_11[0][0]              \r\n__________________________________________________________________________________________________\r\nconv2d_14 (Conv2D)              (None, 2, 2, 256)    590080      zero_padding2d_11[0][0]          \r\n__________________________________________________________________________________________________\r\nbatch_normalization_15 (BatchNo (None, 2, 2, 256)    1024        conv2d_14[0][0]                  \r\n__________________________________________________________________________________________________\r\nadd_5 (Add)                     (None, 2, 2, 256)    0           batch_normalization_15[0][0]     \r\n                                                                 activation_10[0][0]              \r\n__________________________________________________________________________________________________\r\nactivation_12 (Activation)      (None, 2, 2, 256)    0           add_5[0][0]                      \r\n__________________________________________________________________________________________________\r\nzero_padding2d_12 (ZeroPadding2 (None, 4, 4, 256)    0           activation_12[0][0]              \r\n__________________________________________________________________________________________________\r\nconv2d_15 (Conv2D)              (None, 1, 1, 512)    1180160     zero_padding2d_12[0][0]          \r\n__________________________________________________________________________________________________\r\nbatch_normalization_16 (BatchNo (None, 1, 1, 512)    2048        conv2d_15[0][0]                  \r\n__________________________________________________________________________________________________\r\nactivation_13 (Activation)      (None, 1, 1, 512)    0           batch_normalization_16[0][0]     \r\n__________________________________________________________________________________________________\r\nzero_padding2d_13 (ZeroPadding2 (None, 3, 3, 512)    0           activation_13[0][0]              \r\n__________________________________________________________________________________________________\r\nconv2d_16 (Conv2D)              (None, 1, 1, 512)    2359808     zero_padding2d_13[0][0]          \r\n__________________________________________________________________________________________________\r\nconv2d_17 (Conv2D)              (None, 1, 1, 512)    131584      activation_12[0][0]              \r\n__________________________________________________________________________________________________\r\nbatch_normalization_17 (BatchNo (None, 1, 1, 512)    2048        conv2d_16[0][0]                  \r\n__________________________________________________________________________________________________\r\nbatch_normalization_18 (BatchNo (None, 1, 1, 512)    2048        conv2d_17[0][0]                  \r\n__________________________________________________________________________________________________\r\nadd_6 (Add)                     (None, 1, 1, 512)    0           batch_normalization_17[0][0]     \r\n                                                                 batch_normalization_18[0][0]     \r\n__________________________________________________________________________________________________\r\nactivation_14 (Activation)      (None, 1, 1, 512)    0           add_6[0][0]                      \r\n__________________________________________________________________________________________________\r\nzero_padding2d_14 (ZeroPadding2 (None, 3, 3, 512)    0           activation_14[0][0]              \r\n__________________________________________________________________________________________________\r\nconv2d_18 (Conv2D)              (None, 1, 1, 512)    2359808     zero_padding2d_14[0][0]          \r\n__________________________________________________________________________________________________\r\nbatch_normalization_19 (BatchNo (None, 1, 1, 512)    2048        conv2d_18[0][0]                  \r\n__________________________________________________________________________________________________\r\nactivation_15 (Activation)      (None, 1, 1, 512)    0           batch_normalization_19[0][0]     \r\n__________________________________________________________________________________________________\r\nzero_padding2d_15 (ZeroPadding2 (None, 3, 3, 512)    0           activation_15[0][0]              \r\n__________________________________________________________________________________________________\r\nconv2d_19 (Conv2D)              (None, 1, 1, 512)    2359808     zero_padding2d_15[0][0]          \r\n__________________________________________________________________________________________________\r\nbatch_normalization_20 (BatchNo (None, 1, 1, 512)    2048        conv2d_19[0][0]                  \r\n__________________________________________________________________________________________________\r\nadd_7 (Add)                     (None, 1, 1, 512)    0           batch_normalization_20[0][0]     \r\n                                                                 activation_14[0][0]              \r\n__________________________________________________________________________________________________\r\nactivation_16 (Activation)      (None, 1, 1, 512)    0           add_7[0][0]                      \r\n__________________________________________________________________________________________________\r\nfeature (GlobalAveragePooling2D (None, 512)          0           activation_16[0][0]              \r\n__________________________________________________________________________________________________\r\ndropout (Dropout)               (None, 512)          0           feature[0][0]                    \r\n__________________________________________________________________________________________________\r\npredictions (AMSoftmax)         (None, 40)           20480       dropout[0][0]                    \r\n==================================================================================================\r\nTotal params: 11,209,536\r\nTrainable params: 11,199,808\r\nNon-trainable params: 9,728\r\n__________________________________________________________________________________________________\r\nWARNING:tensorflow:From F:/6_Source-code/SmooFaceEngine/train
…
