…
U(),\r\n        )\r\n\r\n    def forward(self, x):\r\n        x1 = self.features_1(x)\r\n        x2 = self.features_2(x)\r\n        return x1, x2\r\n    \r\ndevice = torch.device(\"cuda\" if torch.cuda.is_available() else \"cpu\")\r\nmodel = VeryLongNameSimpleMultiConv().to(device)\r\n\r\nsummary(model, (1, 16, 16))\r\n```\r\n\r\nNow the output is:\r\n\r\n```\r\n----------------------------------------------------------------\r\n        Layer (type)               Output Shape         Param #\r\n================================================================\r\n            Conv2d-1            [-1, 1, 16, 16]              10\r\n              ReLU-2            [-1, 1, 16, 16]               0\r\n            Conv2d-3            [-1, 2, 16, 16]              20\r\n              ReLU-4            [-1, 2, 16, 16]               0\r\nVeryLong...ltiConv-5            [-1, 1, 16, 16]               0\r\n                                [-1, 2, 16, 16]\r\n================================================================\r\nTotal params: 30\r\nTrainable params: 30\r\nNon-trainable params: 0\r\n----------------------------------------------------------------\r\nInput size (MB): 0.00\r\nForward/backward pass size (MB): 0.02\r\nParams size (MB): 0.00\r\nEstimated Total Size (MB): 0.02\r\n-----------
…
