…
f.config['hidden2']),\r\n            nn.GELU(),\r\n            nn.Linear(in_features=self.config['hidden2'], out_features=self.config['hidden3']),\r\n            nn.GELU(),\r\n            nn.Linear(in_features=self.config['hidden3'], out_features=self.action_dim),\r\n            nn.Softmax(dim=1)\r\n        )\r\n```\r\nthe run result is correct:\r\n\r\n```\r\n----------------------------------------------------------------\r\n        Layer (type)               Output Shape         Param #\r\n================================================================\r\n            Linear-1               [-1, 8, 128]           2,688\r\n              GELU-2               [-1, 8, 128]               0\r\n            Linear-3               [-1, 8, 128]          16,512\r\n              GELU-4               [-1, 8, 128]               0\r\n            Linear-5               [-1, 8, 128]          16,512\r\n              GELU-6               [-1, 8, 128]               0\r\n            Linear-7                 [-1, 8, 4]             516\r\n           Softmax-8                 [-1, 8, 4]               0\r\n================================================================\r\nTotal params: 36,228\r\nTrainable params: 36,228\r\nNon-trainable params: 0\r\n----------------------------------------------------------------\r\nInput size (MB): 0.00\r\nForward/backward pass size (MB): 0.05\r\nParams size (MB): 0.14\r\nEstimated Total Size (MB): 0.19\r\n------------------------------------------------------
…
