…
"body":"@mangotree3\r\n\r\nThis is not a `pytorch-sumamry`'s bug.\r\nThis is due to the implementation of PyTorch, and your unintended results are that `self.group1` and `self.group2` are declared as instance variables of `Model`.\r\nActually, when I change `self.group1` and` self.group2` to `group1` and` group2` and execute, I get the intended results:\r\n\r\n```\r\n----------------------------------------------------------------\r\n        Layer (type)               Output Shape         Param #\r\n================================================================\r\n            Conv3d-1       [-1, 69, 30, 30, 30]           5,658\r\n         LeakyReLU-2       [-1, 69, 30, 30, 30]               0\r\n            Conv3d-3     [-1, 1000, 29, 29, 29]       4,417,000\r\n         MaxPool3d-4     [-1, 1000, 15, 15, 15]               0\r\n              ReLU-5     [-1, 1000, 15, 15, 15]               0\r\n================================================================\r\nTotal params: 4,422,658\r\nTrainable params: 4,422,658\r\nNon-trainable params: 0\r\n----------------------------------------------------------------\r\nInput size (MB): 0.31\r\nForward/backward pass size (MB): 266.00\r\nParams size (MB): 16.87\r\nEstimated Total Size (MB): 283.18\r\n-------------------------------------------
…
