…
pen","locked":false,"assignee":null,"assignees":[],"milestone":null,"comments":0,"created_at":"2020-11-30T15:20:33Z","updated_at":"2020-11-30T15:20:33Z","closed_at":null,"author_association":"NONE","active_lock_reason":null,"body":"Hi, \r\ni didn't understand what i need to do in order to run a simulation locally using my own webcam. \r\nI tried running the online_test.py with the predefined models in the wiki but i got this output:\r\n`|Total number of trainable parameters:  33409104\r\n[INFO]: RGB model is used for init model\r\nModel 1 \r\n DataParallel(\r\n  (module): ResNet(\r\n    (conv1): Conv3d(3, 64, kernel_size=(3, 7, 7), stride=(1, 2, 2), padding=(1, 3, 3), bias=False)\r\n    (bn1): BatchNorm3d(64, eps=1e-05, momentum=0.1, affine=True, track_running_stats=True)\r\n    (relu): ReLU(inplace=True)\r\n    (maxpool): MaxPool3d(kernel_size=(3, 3, 3), stride=2, padding=1, dilation=1, ceil_mode=False)\r\n    (layer1): Sequential(\r\n      (0): BasicBlock(\r\n        (conv1): Conv3d(64, 64, kernel_size=(3, 3, 3), stride=(1, 1, 1), padding=(1, 1, 1), bias=False)\r\n        (bn1): BatchNorm3d(64, eps=1e-05, momentum=0.1, affine=True, track_running_stats=True)\r\n        (relu): ReLU(inplace=True)\r\n        (conv2): Conv3d(64, 64, kernel_size=(3, 3, 3), stride=(1, 1, 1), padding=(1, 1, 1), bias=False)\r\n        (bn2): BatchNorm3d(64, eps=1e-05, momentum=0.1, affine=True, track_running_stats=True)\r\n      )\r\n      (1): BasicBlock(\r\n        (conv1): Conv3d(64, 64, kernel_size=(3, 3, 3), stride=(1, 1, 1), padding=(1, 1, 1), bias=False)\r\n        (bn1): BatchNorm3d(64, eps=1e-05, momentum=0.1, affine=True, track_running_stats=True)\r\n        (relu): ReLU(inplace=True)\r\n        (conv2): Conv3d(64, 64, kernel_size=(3, 3, 3), stride=(1, 1, 1), padding=(1, 1, 1), bias=False)\r\n        (bn2): BatchNorm3d(64, eps=1e-05, momentum=0.1, affine=True, track_running_stats=True)\r\n      )\r\n    )\r\n    (layer2): Sequential(\r\n      (0): BasicBlock(\r\n        (conv1): Conv3d(64, 128, kernel_size=(3, 3, 3), stride=(2, 2, 2), padding=(1, 1, 1), bias=False)\r\n        (bn1): BatchNorm3d(128, eps=1e-05, momentum=0.1, affine=True, track_running_stats=True)\r\n        (relu): ReLU(inplace=True)\r\n        (conv2): Conv3d(128, 128, kernel_size=(3, 3, 3), stride=(1, 1, 1), padding=(1, 1, 1), bias=False)\r\n        (bn2): BatchNorm3d(128, eps=1e-05, momentum=0.1, affine=True, track_running_stats=True)\r\n        (downsample): Sequential(\r\n          (0): Conv3d(64, 128, kernel_size=(1, 1, 1), stride=(2, 2, 2), bias=False)\r\n          (1): BatchNorm3d(128, eps=1e-05, momentum=0.1, affine=True, track_running_stats=True)\r\n        )\r\n      )\r\n      (1): BasicBlock(\r\n        (conv1): Conv3d(128, 128, kernel_size=(3, 3, 3), stride=(1, 1, 1), padding=(1, 1, 1), bias=False)\r\n        (bn1): BatchNorm3d(128, eps=1e-05, momentum=0.1, affine=True, track_running_stats=True)\r\n        (relu): ReLU(inplace=True)\r\n        (conv2): Conv3d(128, 128, kernel_size=(3, 3, 3), stride=(1, 1, 1), padding=(1, 1, 1), bias=False)\r\n        (bn2): BatchNorm3d(128, eps=1e-05, momentum=0.1, affine=True, track_running_stats=True)\r\n      )\r\n    )\r\n    (layer3): Sequential(\r\n      (0): BasicBlock(\r\n        (conv1): Conv3d(128, 256, kernel_size=(3, 3, 3), stride=(2, 2, 2), padding=(1, 1, 1), bias=False)\r\n        (bn1): BatchNorm3d(256, eps=1e-05, momentum=0.1, affine=True, track_running_stats=True)\r\n        (relu): ReLU(inplace=True)\r\n        (conv2): Conv3d(256, 256, kernel_size=(3, 3, 3), stride=(1, 1, 1), padding=(1, 1, 1), bias=False)\r\n        (bn2): BatchNorm3d(256, eps=1e-05, momentum=0.1, affine=True, track_running_stats=True)\r\n        (downsample): Sequential(\r\n          (0): Conv3d(128, 256, kernel_size=(1, 1, 1), stride=(2, 2, 2), bias=False)\r\n          (1): BatchNorm3d(256, eps=1e-05, momentum=0.1, affine=True, track_running_stats=True)\r\n        )\r\n      )\r\n      (1): BasicBlock(\r\n        (conv1): Conv3d(256, 256, kernel_size=(3, 3, 3), stride=(1, 1, 1), padding=(1, 1, 1), bias=False)\r\n        (bn1): BatchNorm3d(256, eps=1e-05, momentum=0.1, affine=True, track_running_stats=True)\r\n        (relu): ReLU(inplace=True)\r\n        (conv2): Conv3d(256, 256, kernel_size=(3, 3, 3), stride=(1, 1, 1), padding=(1, 1, 1), bias=False)\r\n        (bn2): BatchNorm3d(256, eps=1e-05, momentum=0.1, affine=True, track_running_stats=True)\r\n      )\r\n    )\r\n    (layer4): Sequential(\r\n      (0): BasicBlock(\r\n        (conv1): Conv3d(256, 512, kernel_size=(3, 3, 3), stride=(2, 2, 2), padding=(1, 1, 1), bias=False)\r\n        (bn1): BatchNorm3d(512, eps=1e-05, momentum=0.1, affine=True, track_running_stats=True)\r\n        (relu): ReLU(inplace=True)\r\n        (conv2): Conv3d(512, 512, kernel_size=(3, 3, 3), stride=(1, 1, 1), padding=(1, 1, 1), bias=False)\r\n        (bn2): BatchNorm3d(512, eps=1e-05, momentum=0.1, affine=True, track_running_stats=True)\r\n        (downsample): Sequential(\r\n          (0): Conv3d(256, 512, kernel_size=(1, 1, 1), stride=(2, 2, 2), bias=False)\r\n          (1): BatchNorm3d(512, eps=1e-05, momentum=0.1, affine=True, track_running_stats=True)\r\n        )\r\n      )\r\n      (1): BasicBlock(\r\n        (conv1): Conv3d(512, 512, kernel_size=(3, 3, 3), stride=(1, 1, 1), padding=(1, 1, 1), bias=False)\r\n        (bn1): BatchNorm3d(512, eps=1e-05, momentum=0.1, affine=True, track_running_stats=True)\r\n        (relu): ReLU(inplace=True)\r\n        (conv2): Conv3d(512, 512, kernel_size=(3, 3, 3), stride=(1, 1, 1), padding=(1, 1, 1), bias=False)\r\n        (bn2): BatchNorm3d(512, eps=1e-05, momentum=0.1, affine=True, track_running_stats=True)\r\n      )\r\n    )\r\n    (avgpool): AvgPool3d(kernel_size=(1, 4, 4), stride=1, padding=0)\r\n    (fc): Linear(in_features=512, out_features=400, bias=True)\r\n  )\r\n)\r\nTotal number of trainable parameters:  33371472\r\nNamespace(annotation_path='/home1/haritan.amit@ef.technion.ac.il/YuvalAmit/PycharmProjects/HandGesture/kinetics.json', arch='resnet', batch_size=128, begin_epoch=1, checkpoint=10, clf_queue_size=1, clf_strategy='raw', clf_threshold_final=1, clf_threshold_pre=1, crop_position_in_test='c',
…
norm=False, store_name='model', stride_len=1, test=True, test_subset='val', train_crop='corner', video='data2/EgoGesture/videos/Subject02/Scene1/Color/rgb1.avi', video_path='/home1/haritan.amit@ef.technion.ac.il/YuvalAmit/PycharmProjects/HandGesture/video_kinetics_jpg', weight_decay=0.001, whole_path='video_kinetics_jpg', wide_resnet_k=2, wide_resnet_k_clf=2, wide_resnet_k_det=2, width_mult=1.0, width_mult_clf=1.0, width_mult_det=1.0)\r\nTotal number of trainable parameters:  33409104\r\n[INFO]: RGB model is used for init model\r\nModel 2 \r\n DataParallel(\r\n  (module): ResNet(\r\n    (conv1): Conv3d(3, 64, kernel_size=(3, 7, 7), stride=(1, 2, 2), padding=(1, 3, 3), bias=False)\r\n    (bn1): BatchNorm3d(64, eps=1e-05, momentum=0.1, affine=True, track_running_stats=True)\r\n    (relu): ReLU(inplace=True)\r\n    (maxpool): MaxPool3d(kernel_size=(3, 3, 3), stride=2, padding=1, dilation=1, ceil_mode=False)\r\n    (layer1): Sequential(\r\n      (0): BasicBlock(\r\n        (conv1): Conv3d(64, 64, kernel_size=(3, 3, 3), stride=(1, 1, 1), padding=(1, 1, 1), bias=False)\r\n        (bn1): BatchNorm3d(64, eps=1e-05, momentum=0.1, affine=True, track_running_stats=True)\r\n        (relu): ReLU(inplace=True)\r\n        (conv2): Conv3d(64, 64, kernel_size=(3, 3, 3), stride=(1, 1, 1), padding=(1, 1, 1), bias=False)\r\n        (bn2): BatchNorm3d(64, eps=1e-05, momentum=0.1, affine=True, track_running_stats=True)\r\n      )\r\n      (1): BasicBlock(\r\n        (conv1): Conv3d(64, 64, kernel_size=(3, 3, 3), stride=(1, 1, 1), padding=(1, 1, 1), bias=False)\r\n        (bn1): BatchNorm3d(64, eps=1e-05, momentum=0.1, affine=True, track_running_stats=True)\r\n        (relu): ReLU(inplace=True)\r\n        (conv2): Conv3d(64, 64, kernel_size=(3, 3, 3), stride=(1, 1, 1), padding=(1, 1, 1), bias=False)\r\n        (bn2): BatchNorm3d(64, eps=1e-05, momentum=0.1, affine=True, track_running_stats=True)\r\n      )\r\n    )\r\n    (layer2): Sequential(\r\n      (0): BasicBlock(\r\n        (conv1): Conv3d(64, 128, kernel_size=(3, 3, 3), stride=(2, 2, 2), padding=(1, 1, 1), bias=False)\r\n        (bn1): BatchNorm3d(128, eps=1e-05, momentum=0.1, affine=True, track_running_stats=True)\r\n        (relu): ReLU(inplace=True)\r\n        (conv2): Conv3d(128, 128, kernel_size=(3, 3, 3), stride=(1, 1, 1), padding=(1, 1, 1), bias=False)\r\n        (bn2): BatchNorm3d(128, eps=1e-05, momentum=0.1, affine=True, track_running_stats=True)\r\n        (downsample): Sequential(\r\n          (0): Conv3d(64, 128, kernel_size=(1, 1, 1), stride=(2, 2, 2), bias=False)\r\n          (1): BatchNorm3d(128, eps=1e-05, momentum=0.1, affine=True, track_running_stats=True)\r\n        )\r\n      )\r\n      (1): BasicBlock(\r\n        (conv1): Conv3d(128, 128, kernel_size=(3, 3, 3), stride=(1, 1, 1), padding=(1, 1, 1), bias=False)\r\n        (bn1): BatchNorm3d(128, eps=1e-05, momentum=0.1, affine=True, track_running_stats=True)\r\n        (relu): ReLU(inplace=True)\r\n        (conv2): Conv3d(128, 128, kernel_size=(3, 3, 3), stride=(1, 1, 1), padding=(1, 1, 1), bias=False)\r\n        (bn2): BatchNorm3d(128, eps=1e-05, momentum=0.1, affine=True, track_running_stats=True)\r\n      )\r\n    )\r\n    (layer3): Sequential(\r\n      (0): BasicBlock(\r\n        (conv1): Conv3d(128, 256, kernel_size=(3, 3, 3), stride=(2, 2, 2), padding=(1, 1, 1), bias=False)\r\n        (bn1): BatchNorm3d(256, eps=1e-05, momentum=0.1, affine=True, track_running_stats=True)\r\n        (relu): ReLU(inplace=True)\r\n        (conv2): Conv3d(256, 256, kernel_size=(3, 3, 3), stride=(1, 1, 1), padding=(1, 1, 1), bias=False)\r\n        (bn2): BatchNorm3d(256, eps=1e-05, momentum=0.1, affine=True, track_running_stats=True)\r\n        (downsample): Sequential(\r\n          (0): Conv3d(128, 256, kernel_size=(1, 1, 1), stride=(2, 2, 2), bias=False)\r\n          (1): BatchNorm3d(256, eps=1e-05, momentum=0.1, affine=True, track_running_stats=True)\r\n        )\r\n      )\r\n      (1): BasicBlock(\r\n        (conv1): Conv3d(256, 256, kernel_size=(3, 3, 3), stride=(1, 1, 1), padding=(1, 1, 1), bias=False)\r\n        (bn1): BatchNorm3d(256, eps=1e-05, momentum=0.1, affine=True, track_running_stats=True)\r\n        (relu): ReLU(inplace=True)\r\n        (conv2): Conv3d(256, 256, kernel_size=(3, 3, 3), stride=(1, 1, 1), padding=(1, 1, 1), bias=False)\r\n        (bn2): BatchNorm3d(256, eps=1e-05, momentum=0.1, affine=True, track_running_stats=True)\r\n      )\r\n    )\r\n    (layer4): Sequential(\r\n      (0): BasicBlock(\r\n        (conv1): Conv3d(256, 512, kernel_size=(3, 3, 3), stride=(2, 2, 2), padding=(1, 1, 1), bias=False)\r\n        (bn1): BatchNorm3d(512, eps=1e-05, momentum=0.1, affine=True, track_running_stats=True)\r\n        (relu): ReLU(inplace=True)\r\n        (conv2): Conv3d(512, 512, kernel_size=(3, 3, 3), stride=(1, 1, 1), padding=(1, 1, 1), bias=False)\r\n        (bn2): BatchNorm3d(512, eps=1e-05, momentum=0.1, affine=True, track_running_stats=True)\r\n        (downsample): Sequential(\r\n          (0): Conv3d(256, 512, kernel_size=(1, 1, 1), stride=(2, 2, 2), bias=False)\r\n          (1): BatchNorm3d(512, eps=1e-05, momentum=0.1, affine=True, track_running_stats=True)\r\n        )\r\n      )\r\n      (1): BasicBlock(\r\n        (conv1): Conv3d(512, 512, kernel_size=(3, 3, 3), stride=(1, 1, 1), padding=(1, 1, 1), bias=False)\r\n        (bn1): BatchNorm3d(512, eps=1e-05, momentum=0.1, affine=True, track_running_stats=True)\r\n        (relu): ReLU(inplace=True)\r\n        (conv2): Conv3d(512, 512, kernel_size=(3, 3, 3), stride=(1, 1, 1), padding=(1, 1, 1), bias=False)\r\n        (bn2): BatchNorm3d(512, eps=1e-05, momentum=0.1, affine=True, track_running_stats=True)\r\n      )\r\n    )\r\n    (avgpool): AvgPool3d(kernel_size=(1, 4, 4), stride=1, padding=0)\r\n    (fc): Linear(in_features=512, out_features=400, bias=True)\r\n  )\r\n)\r\nTotal number of trainable parameters:  33371472\r\nStart Evaluation\r\nAverage Levenshtein Accuracy= 0\r\n-----Evaluation is finished------`\r\ni am not sure this is the correct output.\r\nCan you please specify the steps and scripts i need to run? or what i did wrong?\r\nThanks,\r\nAmit","closed_by":null,"reactions":{"url":"https://api.
…
