…
nprint_freq: 100\r\nresize_or_crop: resize_and_crop\r\nsave_epoch_freq: 10\r\nsave_latest_freq: 1000\r\nserial_batches: False\r\ntf_log: False\r\nuse_dropout: False\r\nverbose: False\r\nwhich_epoch: latest\r\n-------------- End ----------------\r\ntrain.py:9: DeprecationWarning: fractions.gcd() is deprecated. Use math.gcd() instead.\r\n  def lcm(a,b): return abs(a * b)/fractions.gcd(a,b) if a and b else 0\r\nCustomDatasetDataLoader\r\ndataset [AlignedDataset] was created\r\n#training images = 1260\r\nGlobalGenerator(\r\n  (model): Sequential(\r\n    (0): ReflectionPad2d((3, 3, 3, 3))\r\n    (1): Conv2d(3, 64, kernel_size=(7, 7), stride=(1, 1))\r\n    (2): InstanceNorm2d(64, eps=1e-05, momentum=0.1, affine=False, track_running_stats=False)\r\n    (3): ReLU(inplace=True)\r\n    (4): Conv2d(64, 128, kernel_size=(3, 3), stride=(2, 2), padding=(1, 1))\r\n    (5): InstanceNorm2d(128, eps=1e-05, momentum=0.1, affine=False, track_running_stats=False)\r\n    (6): ReLU(inplace=True)\r\n    (7): Conv2d(128, 256, kernel_size=(3, 3), stride=(2, 2), padding=(1, 1))\r\n    (8): InstanceNorm2d(256, eps=1e-05, momentum=0.1, affine=False, track_running_stats=False)\r\n    (9): ReLU(inplace=True)\r\n    (10): Conv2d(256, 512, kernel_size=(3, 3), stride=(2, 2), padding=(1, 1))\r\n    (11): InstanceNorm2d(512, eps=1e-05, momentum=0.1, affine=False, track_running_stats=False)\r\n    (12): ReLU(inplace=True)\r\n    (13): Conv2d(512, 1024, kernel_size=(3, 3), stride=(2, 2), padding=(1, 1))\r\n    (14): InstanceNorm2d(1024, eps=1e-05, momentum=0.1, affine=False, track_running_stats=False)\r\n    (15): ReLU(inplace=True)\r\n    (16): ResnetBlock(\r\n      (conv_block): Sequential(\r\n        (0): ReflectionPad2d((1, 1, 1, 1))\r\n        (1): Conv2d(1024, 1024, kernel_size=(3, 3), stride=(1, 1))\r\n        (2): InstanceNorm2d(1024, eps=1e-05, momentum=0.1, affine=False, track_running_stats=False)\r\n        (3): ReLU(inplace=True)\r\n        (4): ReflectionPad2d((1, 1, 1, 1))\r\n        (5): Conv2d(1024, 1024, kernel_size=(3, 3), stride=(1, 1))\r\n        (6): InstanceNorm2d(1024, eps=1e-05, momentum=0.1, affine=False, track_running_stats=False)\r\n      )\r\n    )\r\n    (17): ResnetBlock(\r\n      (conv_block): Sequential(\r\n        (0): ReflectionPad2d((1, 1, 1, 1))\r\n        (1): Conv2d(1024, 1024, kernel_size=(3, 3), stride=(1, 1))\r\n        (2): InstanceNorm2d(1024, eps=1e-05, momentum=0.1, affine=False, track_running_stats=False)\r\n        (3): ReLU(inplace=True)\r\n        (4): ReflectionPad2d((1, 1, 1, 1))\r\n        (5): Conv2d(1024, 1024, kernel_size=(3, 3), stride=(1, 1))\r\n        (6): InstanceNorm2d(1024, eps=1e-05, momentum=0.1, affine=False, track_running_stats=False)\r\n      )\r\n    )\r\n    (18): ResnetBlock(\r\n      (conv_block): Sequential(\r\n        (0): ReflectionPad2d((1, 1, 1, 1))\r\n        (1): Conv2d(1024, 1024, kernel_size=(3, 3), stride=(1, 1))\r\n        (2): InstanceNorm2d(1024, eps=1e-05, momentum=0.1, affine=False, track_running_stats=False)\r\n        (3): ReLU(inplace=True)\r\n        (4): ReflectionPad2d((1, 1, 1, 1))\r\n        (5): Conv2d(1024, 1024, kernel_size=(3, 3), stride=(1, 1))\r\n        (6): InstanceNorm2d(1024, eps=1e-05, momentum=0.1, affine=False, track_running_stats=False)\r\n      )\r\n    )\r\n    (19): ResnetBlock(\r\n      (conv_block): Sequential(\r\n        (0): ReflectionPad2d((1, 1, 1, 1))\r\n        (1): Conv2d(1024, 1024, kernel_size=(3, 3), stride=(1, 1))\r\n        (2): InstanceNorm2d(1024, eps=1e-05, momentum=0.1, affine=False, track_running_stats=False)\r\n        (3): ReLU(inplace=True)\r\n        (4): ReflectionPad2d((1, 1, 1, 1))\r\n        (5): Conv2d(1024, 1024, kernel_size=(3, 3), stride=(1, 1))\r\n        (6): InstanceNorm2d(1024, eps=1e-05, momentum=0.1, affine=False, track_running_stats=False)\r\n      )\r\n    )\r\n    (20): ResnetBlock(\r\n      (conv_block): Sequential(\r\n        (0): ReflectionPad2d((1, 1, 1, 1))\r\n        (1): Conv2d(1024, 1024, kernel_size=(3, 3), stride=(1, 1))\r\n        (2): InstanceNorm2d(1024, eps=1e-05, momentum=0.1, affine=False, track_running_stats=False)\r\n        (3): ReLU(inplace=True)\r\n        (4): ReflectionPad2d((1, 1, 1, 1))\r\n        (5): Conv2d(1024, 1024, kernel_size=(3, 3), stride=(1, 1))\r\n        (6): InstanceNorm2d(1024, eps=1e-05, momentum=0.1, affine=False, track_running_stats=False)\r\n      )\r\n    )\r\n    (21): ResnetBlock(\r\n      (conv_block): Sequential(\r\n        (0): ReflectionPad2d((1, 1, 1, 1))\r\n        (1): Conv2d(1024, 1024, kernel_size=(3, 3), stride=(1, 1))\r\n        (2): InstanceNorm2d(1024, eps=1e-05, momentum=0.1, affine=False, track_running_stats=False)\r\n        (3): ReLU(inplace=True)\r\n        (4): ReflectionPad2d((1, 1, 1, 1))\r\n        (5): Conv2d(1024, 1024, kernel_size=(3, 3), stride=(1, 1))\r\n        (6): InstanceNorm2d(1024, eps=1e-05, momentum=0.1, affine=False, track_running_stats=False)\r\n      )\r\n    )\r\n    (22): ResnetBlock(\r\n      (conv_block): Sequential(\r\n        (0): ReflectionPad2d((1, 1, 1, 1))\r\n        (1): Conv2d(1024, 1024, kernel_size=(3, 3), stride=(1, 1))\r\n        (2): InstanceNorm2d(1024, eps=1e-05, momentum=0.1, affine=False, track_running_stats=False)\r\n        (3): ReLU(inplace=True)\r\n        (4): ReflectionPad2d((1, 1, 1, 1))\r\n        (5): Conv2d(1024, 1024, kernel_size=(3, 3), stride=(1, 1))\r\n        (6): InstanceNorm2d(1024, eps=1e-05, momentum=0.1, affine=False, track_running_stats=False)\r\n      )\r\n    )\r\n    (23): ResnetBlock(\r\n      (conv_block): Sequential(\r\n        (0): ReflectionPad2d((1, 1, 1, 1))\r\n        (1): Conv2d(1024, 1024, kernel_size=(3, 3), stride=(1, 1))\r\n        (2): InstanceNorm2d(1024, eps=1e-05, momentum=0.1, affine=False, track_running_stats=False)\r\n        (3): ReLU(inplace=True)\r\n        (4): ReflectionPad2d((1, 1, 1, 1))\r\n        (5): Conv2d(1024, 1024, kernel_size=(3, 3), stride=(1, 1))\r\n        (6): InstanceNorm2d(1024, eps=1e-05, momentum=0.1, affine=False, track_running_stats=False)\r\n      )\r\n    )\r\n    (24): ResnetBlock(\r\n      (conv_block): Sequential(\r\n        (0): ReflectionPad2d((1, 1, 1, 1))\r\n        (1): Conv2d(1024, 1024, kernel_size=(3, 3), stride=(1, 1))\r\n        (2): InstanceNorm2d(1024, eps=1e-05, momentum=0.1, affine=False, track_running_stats=False)\r\n        (3): ReLU(inplace=True)\r\n        (4): ReflectionPad2d((1, 1, 1, 1))\r\n        (5): Conv2d(1024, 1024, kernel_size=(3, 3), stride=(1, 1))\r\n        (6): InstanceNorm2d(1024, eps=1e-05, momentum=0.1, affine=False, track_running_stats=False)\r\n      )\r\n    )\r\n    (25): ConvTranspose2d(1024, 512, kernel_size=(3, 3), stride=(2, 2), padding=(1, 1), output_padding=(1, 1))\r\n    (26): InstanceNorm2d(512, eps=1e-05, momentum=0.1, affine=False, track_running_stats=False)\r\n    (27): ReLU(inplace=True)\r\n    (28): ConvTranspose2d(512, 256, kernel_size=(3, 3), stride=(2, 2), padding=(1, 1), output_padding=(1, 1))\r\n    (29): InstanceNorm2d(256, eps=1e-05, momentum=0.1, affine=False, track_running_stats=False)\r\n    (30): ReLU(inplace=True)\r\n    (31): ConvTranspose2d(256, 128, kernel_size=(3, 3), stride=(2, 2), padding=(1, 1), output_padding=(1, 1))\r\n    (32): InstanceNorm2d(128, eps=1e-05, momentum=0.1, affine=False, track_running_stats=False)\r\n    (33): ReLU(inplace=True)\r\n    (34): ConvTranspose2d(128, 64, kernel_size=(3, 3), stride=(2, 2), padding=(1, 1), output_padding=(1, 1))\r\n    (35): InstanceNorm2d(64, eps=1e-05, momentum=0.1, affine=False, track_running_stats=False)\r\n    (36): ReLU(inplace=True)\r\n    (37): ReflectionPad2d((3, 3, 3, 3))\r\n    (38): Conv2d(64, 3, kernel_size=(7, 7), stride=(1, 1))\r\n    (39): Tanh()\r\n  )\r\n)\r\nMultiscaleDiscriminator(\r\n  (scale0_layer0): Sequential(\r\n    (0): Conv2d(6, 64, kernel_size=(4, 4), stride=(2, 2), padding=(2, 2))\r\n    (1): LeakyReLU(negative_slope=0.2, inplace=True)\r\n  )\r\n  (scale0_layer1): Sequential(\r\n    (0): Conv2d(64, 128, kernel_size=(4, 4), stride=(2, 2), padding=(2, 2))\r\n    (1): InstanceNorm2d(128, eps=1e-05, momentum=0.1, affine=False, track_running_stats=False)\r\n    (2): LeakyReLU(negative_slope=0.2, inplace=True)\r\n  )\r\n  (scale0_layer2): Sequential(\r\n    (0): Conv2d(128, 256, kernel_size=(4, 4), stride=(2, 2), padding=(2, 2))\r\n    (1): InstanceNorm2d(256, eps=1e-05, momentum=0.1, affine=False, track_running_stats=False)\r\n    (2): LeakyReLU(negative_slope=0.2, inplace=True)\r\n  )\r\n  (scale0_layer3): Sequential(\r\n    (0): Conv2d(256, 512, kernel_size=(4, 4), stride=(1, 1), padding=(2, 2))\r\n    (1): InstanceNorm2d(512, eps=1e-05, momentum=0.1, affine=False, track_running_stats=False)\r\n    (2): LeakyReLU(negative_slope=0.2, inplace=True)\r\n  )\r\n  (scale0_layer4): Sequential(\r\n    (0): Conv2d(512, 1, kernel_size=(4, 4), stride=(1, 1), padding=(2, 2))\r\n  )\r\n  (scale1_layer0): Sequential(\r\n    (0): Conv2d(6, 64, kernel_size=(4, 4), stride=(2, 2), padding=(2, 2))\r\n    (1): LeakyReLU(negative_slope=0.2, inplace=True)\r\n  )\r\n  (scale1_layer1): Sequential(\r\n    (0): Conv2d(64, 128, kernel_size=(4, 4), stride=(2, 2), padding=(2, 2))\r\n    (1): InstanceNorm2d(128, eps=1e-05, momentum=0.1, affine=False, track_running_stats=False)\r\n    (2): LeakyReLU(negative_slope=0.2, inplace=True)\r\n  )\r\n  (scale1_layer2): Sequential(\r\n    (0): Conv2d(128, 256, kernel_size=(4, 4), stride=(2, 2), padding=(2, 2))\r\n    (1): InstanceNorm2d(256, eps=1e-05, momentum=0.1, affine=False, track_running_stats=False)\r\n    (2): LeakyReLU(negative_slope=0.2, inplace=True)\r\n  )\r\n  (scale1_layer3): Sequential(\r\n    (0): Conv2d(256, 512, kernel_size=(4, 4), stride=(1, 1), padding=(2, 2))\r\n    (1): InstanceNorm2d(512, eps=1e-05, momentum=0.1, affine=False, track_running_stats=False)\r\n    (2): LeakyReLU(negative_slope=0.2, inplace=True)\r\n  )\r\n  (scale1_layer4): Sequential(\r\n    (0): Conv2d(512, 1, kernel_size=(4, 4), stride=(1, 1), padding=(2, 2))\r\n  )\r\n  (downsample): AvgPool2d(kernel_size=3, stride=2, padding=[1, 1])\r\n)\r\ncreate web directory ./checkpoints\\face\\web...\r\n------------ Options -------------\r\nbatchSize: 1\r\nbeta1: 0.5\r\ncheckpoints_dir: ./checkpoints\r\ncontinue_train: False\r\ndata_type: 32\r\ndataroot: ../datasets/pix2pix/face\r\ndebug: False\r\ndispla
…
lse\r\nno_html: False\r\nno_instance: True\r\nno_lsgan: False\r\nno_vgg_loss: False\r\nnorm: instance\r\nnum_D: 2\r\noutput_nc: 3\r\nphase: train\r\npool_size: 0\r\nprint_freq: 100\r\nresize_or_crop: resize_and_crop\r\nsave_epoch_freq: 10\r\nsave_latest_freq: 1000\r\nserial_batches: False\r\ntf_log: False\r\nuse_dropout: False\r\nverbose: False\r\nwhich_epoch: latest\r\n-------------- End ----------------\r\nCustomDatasetDataLoader\r\ndataset [AlignedDataset] was created\r\n#training images = 1260\r\nGlobalGenerator(\r\n  (model): Sequential(\r\n    (0): ReflectionPad2d((3, 3, 3, 3))\r\n    (1): Conv2d(3, 64, kernel_size=(7, 7), stride=(1, 1))\r\n    (2): InstanceNorm2d(64, eps=1e-05, momentum=0.1, affine=False, track_running_stats=False)\r\n    (3): ReLU(inplace=True)\r\n    (4): Conv2d(64, 128, kernel_size=(3, 3), stride=(2, 2), padding=(1, 1))\r\n    (5): InstanceNorm2d(128, eps=1e-05, momentum=0.1, affine=False, track_running_stats=False)\r\n    (6): ReLU(inplace=True)\r\n    (7): Conv2d(128, 256, kernel_size=(3, 3), stride=(2, 2), padding=(1, 1))\r\n    (8): InstanceNorm2d(256, eps=1e-05, momentum=0.1, affine=False, track_running_stats=False)\r\n    (9): ReLU(inplace=True)\r\n    (10): Conv2d(256, 512, kernel_size=(3, 3), stride=(2, 2), padding=(1, 1))\r\n    (11): InstanceNorm2d(512, eps=1e-05, momentum=0.1, affine=False, track_running_stats=False)\r\n    (12): ReLU(inplace=True)\r\n    (13): Conv2d(512, 1024, kernel_size=(3, 3), stride=(2, 2), padding=(1, 1))\r\n    (14): InstanceNorm2d(1024, eps=1e-05, momentum=0.1, affine=False, track_running_stats=False)\r\n    (15): ReLU(inplace=True)\r\n    (16): ResnetBlock(\r\n      (conv_block): Sequential(\r\n        (0): ReflectionPad2d((1, 1, 1, 1))\r\n        (1): Conv2d(1024, 1024, kernel_size=(3, 3), stride=(1, 1))\r\n        (2): InstanceNorm2d(1024, eps=1e-05, momentum=0.1, affine=False, track_running_stats=False)\r\n        (3): ReLU(inplace=True)\r\n        (4): ReflectionPad2d((1, 1, 1, 1))\r\n        (5): Conv2d(1024, 1024, kernel_size=(3, 3), stride=(1, 1))\r\n        (6): InstanceNorm2d(1024, eps=1e-05, momentum=0.1, affine=False, track_running_stats=False)\r\n      )\r\n    )\r\n    (17): ResnetBlock(\r\n      (conv_block): Sequential(\r\n        (0): ReflectionPad2d((1, 1, 1, 1))\r\n        (1): Conv2d(1024, 1024, kernel_size=(3, 3), stride=(1, 1))\r\n        (2): InstanceNorm2d(1024, eps=1e-05, momentum=0.1, affine=False, track_running_stats=False)\r\n        (3): ReLU(inplace=True)\r\n        (4): ReflectionPad2d((1, 1, 1, 1))\r\n        (5): Conv2d(1024, 1024, kernel_size=(3, 3), stride=(1, 1))\r\n        (6): InstanceNorm2d(1024, eps=1e-05, momentum=0.1, affine=False, track_running_stats=False)\r\n      )\r\n    )\r\n    (18): ResnetBlock(\r\n      (conv_block): Sequential(\r\n        (0): ReflectionPad2d((1, 1, 1, 1))\r\n        (1): Conv2d(1024, 1024, kernel_size=(3, 3), stride=(1, 1))\r\n        (2): InstanceNorm2d(1024, eps=1e-05, momentum=0.1, affine=False, track_running_stats=False)\r\n        (3): ReLU(inplace=True)\r\n        (4): ReflectionPad2d((1, 1, 1, 1))\r\n        (5): Conv2d(1024, 1024, kernel_size=(3, 3), stride=(1, 1))\r\n        (6): InstanceNorm2d(1024, eps=1e-05, momentum=0.1, affine=False, track_running_stats=False)\r\n      )\r\n    )\r\n    (19): ResnetBlock(\r\n      (conv_block): Sequential(\r\n        (0): ReflectionPad2d((1, 1, 1, 1))\r\n        (1): Conv2d(1024, 1024, kernel_size=(3, 3), stride=(1, 1))\r\n        (2): InstanceNorm2d(1024, eps=1e-05, momentum=0.1, affine=False, track_running_stats=False)\r\n        (3): ReLU(inplace=True)\r\n        (4): ReflectionPad2d((1, 1, 1, 1))\r\n        (5): Conv2d(1024, 1024, kernel_size=(3, 3), stride=(1, 1))\r\n        (6): InstanceNorm2d(1024, eps=1e-05, momentum=0.1, affine=False, track_running_stats=False)\r\n      )\r\n    )\r\n    (20): ResnetBlock(\r\n      (conv_block): Sequential(\r\n        (0): ReflectionPad2d((1, 1, 1, 1))\r\n        (1): Conv2d(1024, 1024, kernel_size=(3, 3), stride=(1, 1))\r\n        (2): InstanceNorm2d(1024, eps=1e-05, momentum=0.1, affine=False, track_running_stats=False)\r\n        (3): ReLU(inplace=True)\r\n        (4): ReflectionPad2d((1, 1, 1, 1))\r\n        (5): Conv2d(1024, 1024, kernel_size=(3, 3), stride=(1, 1))\r\n        (6): InstanceNorm2d(1024, eps=1e-05, momentum=0.1, affine=False, track_running_stats=False)\r\n      )\r\n    )\r\n    (21): ResnetBlock(\r\n      (conv_block): Sequential(\r\n        (0): ReflectionPad2d((1, 1, 1, 1))\r\n        (1): Conv2d(1024, 1024, kernel_size=(3, 3), stride=(1, 1))\r\n        (2): InstanceNorm2d(1024, eps=1e-05, momentum=0.1, affine=False, track_running_stats=False)\r\n        (3): ReLU(inplace=True)\r\n        (4): ReflectionPad2d((1, 1, 1, 1))\r\n        (5): Conv2d(1024, 1024, kernel_size=(3, 3), stride=(1, 1))\r\n        (6): InstanceNorm2d(1024, eps=1e-05, momentum=0.1, affine=False, track_running_stats=False)\r\n      )\r\n    )\r\n    (22): ResnetBlock(\r\n      (conv_block): Sequential(\r\n        (0): ReflectionPad2d((1, 1, 1, 1))\r\n        (1): Conv2d(1024, 1024, kernel_size=(3, 3), stride=(1, 1))\r\n        (2): InstanceNorm2d(1024, eps=1e-05, momentum=0.1, affine=False, track_running_stats=False)\r\n        (3): ReLU(inplace=True)\r\n        (4): ReflectionPad2d((1, 1, 1, 1))\r\n        (5): Conv2d(1024, 1024, kernel_size=(3, 3), stride=(1, 1))\r\n        (6): InstanceNorm2d(1024, eps=1e-05, momentum=0.1, affine=False, track_running_stats=False)\r\n      )\r\n    )\r\n    (23): ResnetBlock(\r\n      (conv_block): Sequential(\r\n        (0): ReflectionPad2d((1, 1, 1, 1))\r\n        (1): Conv2d(1024, 1024, kernel_size=(3, 3), stride=(1, 1))\r\n        (2): InstanceNorm2d(1024, eps=1e-05, momentum=0.1, affine=False, track_running_stats=False)\r\n        (3): ReLU(inplace=True)\r\n        (4): ReflectionPad2d((1, 1, 1, 1))\r\n        (5): Conv2d(1024, 1024, kernel_size=(3, 3), stride=(1, 1))\r\n        (6): InstanceNorm2d(1024, eps=1e-05, momentum=0.1, affine=False, track_running_stats=False)\r\n      )\r\n    )\r\n    (24): ResnetBlock(\r\n      (conv_block): Sequential(\r\n        (0): ReflectionPad2d((1, 1, 1, 1))\r\n        (1): Conv2d(1024, 1024, kernel_size=(3, 3), stride=(1, 1))\r\n        (2): InstanceNorm2d(1024, eps=1e-05, momentum=0.1, affine=False, track_running_stats=False)\r\n        (3): ReLU(inplace=True)\r\n        (4): ReflectionPad2d((1, 1, 1, 1))\r\n        (5): Conv2d(1024, 1024, kernel_size=(3, 3), stride=(1, 1))\r\n        (6): InstanceNorm2d(1024, eps=1e-05, momentum=0.1, affine=False, track_running_stats=False)\r\n      )\r\n    )\r\n    (25): ConvTranspose2d(1024, 512, kernel_size=(3, 3), stride=(2, 2), padding=(1, 1), output_padding=(1, 1))\r\n    (26): InstanceNorm2d(512, eps=1e-05, momentum=0.1, affine=False, track_running_stats=False)\r\n    (27): ReLU(inplace=True)\r\n    (28): ConvTranspose2d(512, 256, kernel_size=(3, 3), stride=(2, 2), padding=(1, 1), output_padding=(1, 1))\r\n    (29): InstanceNorm2d(256, eps=1e-05, momentum=0.1, affine=False, track_running_stats=False)\r\n    (30): ReLU(inplace=True)\r\n    (31): ConvTranspose2d(256, 128, kernel_size=(3, 3), stride=(2, 2), padding=(1, 1), output_padding=(1, 1))\r\n    (32): InstanceNorm2d(128, eps=1e-05, momentum=0.1, affine=False, track_running_stats=False)\r\n    (33): ReLU(inplace=True)\r\n    (34): ConvTranspose2d(128, 64, kernel_size=(3, 3), stride=(2, 2), padding=(1, 1), output_padding=(1, 1))\r\n    (35): InstanceNorm2d(64, eps=1e-05, momentum=0.1, affine=False, track_running_stats=False)\r\n    (36): ReLU(inplace=True)\r\n    (37): ReflectionPad2d((3, 3, 3, 3))\r\n    (38): Conv2d(64, 3, kernel_size=(7, 7), stride=(1, 1))\r\n    (39): Tanh()\r\n  )\r\n)\r\nMultiscaleDiscriminator(\r\n  (scale0_layer0): Sequential(\r\n    (0): Conv2d(6, 64, kernel_size=(4, 4), stride=(2, 2), padding=(2, 2))\r\n    (1): LeakyReLU(negative_slope=0.2, inplace=True)\r\n  )\r\n  (scale0_layer1): Sequential(\r\n    (0): Conv2d(64, 128, kernel_size=(4, 4), stride=(2, 2), padding=(2, 2))\r\n    (1): InstanceNorm2d(128, eps=1e-05, momentum=0.1, affine=False, track_running_stats=False)\r\n    (2): LeakyReLU(negative_slope=0.2, inplace=True)\r\n  )\r\n  (scale0_layer2): Sequential(\r\n    (0): Conv2d(128, 256, kernel_size=(4, 4), stride=(2, 2), padding=(2, 2))\r\n    (1): InstanceNorm2d(256, eps=1e-05, momentum=0.1, affine=False, track_running_stats=False)\r\n    (2): LeakyReLU(negative_slope=0.2, inplace=True)\r\n  )\r\n  (scale0_layer3): Sequential(\r\n    (0): Conv2d(256, 512, kernel_size=(4, 4), stride=(1, 1), padding=(2, 2))\r\n    (1): InstanceNorm2d(512, eps=1e-05, momentum=0.1, affine=False, track_running_stats=False)\r\n    (2): LeakyReLU(negative_slope=0.2, inplace=True)\r\n  )\r\n  (scale0_layer4): Sequential(\r\n    (0): Conv2d(512, 1, kernel_size=(4, 4), stride=(1, 1), padding=(2, 2))\r\n  )\r\n  (scale1_layer0): Sequential(\r\n    (0): Conv2d(6, 64, kernel_size=(4, 4), stride=(2, 2), padding=(2, 2))\r\n    (1): LeakyReLU(negative_slope=0.2, inplace=True)\r\n  )\r\n  (scale1_layer1): Sequential(\r\n    (0): Conv2d(64, 128, kernel_size=(4, 4), stride=(2, 2), padding=(2, 2))\r\n    (1): InstanceNorm2d(128, eps=1e-05, momentum=0.1, affine=False, track_running_stats=False)\r\n    (2): LeakyReLU(negative_slope=0.2, inplace=True)\r\n  )\r\n  (scale1_layer2): Sequential(\r\n    (0): Conv2d(128, 256, kernel_size=(4, 4), stride=(2, 2), padding=(2, 2))\r\n    (1): InstanceNorm2d(256, eps=1e-05, momentum=0.1, affine=False, track_running_stats=False)\r\n    (2): LeakyReLU(negative_slope=0.2, inplace=True)\r\n  )\r\n  (scale1_layer3): Sequential(\r\n    (0): Conv2d(256, 512, kernel_size=(4, 4), stride=(1, 1), padding=(2, 2))\r\n    (1): InstanceNorm2d(512, eps=1e-05, momentum=0.1, affine=False, track_running_stats=False)\r\n    (2): LeakyReLU(negative_slope=0.2, inplace=True)\r\n  )\r\n  (scale1_layer4): Sequential(\r\n    (0): Conv2d(512, 1, kernel_size=(4, 4), stride=(1, 1), padding=(2, 2))\r\n  )\r\n  (downsample): AvgPool2d(kernel_size=3, stride=2, padding=[1, 1])\r\n)\r\ncreate web directory ./checkpoints\\face\\web...\r\nTraceback (most recent call last):\r\nTraceback (most recent call last):\r\n  File \"<string>\", line 1, in <module>\r\n  File \"train.py\", line 60, in <module>\r\n  File \"C:\\ProgramData\\Anaconda31\\e
…
