…
==========================\r\nname cmi\r\n==================================================\r\nDropout at the inputs disabled, as p=0.0\r\nUsing step LR Scheduler for frontend!\r\nUsing step LR Scheduler for spc!\r\nUsing step LR Scheduler for mi!\r\nUsing step LR Scheduler for cmi!\r\nUsing step LR Scheduler for cchunk!\r\nUsing step LR Scheduler for lps!\r\nUsing step LR Scheduler for mfcc!\r\nUsing step LR Scheduler for prosody!\r\nUse tenoserboard: True\r\npase(\r\n  (frontend): WaveFe(\r\n    (blocks): ModuleList(\r\n      (0): FeBlock(\r\n        (conv): SincConv_fast()\r\n        (norm): BatchNorm1d(64, eps=1e-05, momentum=0.1, affine=True, track_running_stats=True)\r\n        (act): PReLU(num_parameters=64)\r\n      )\r\n      (1): FeBlock(\r\n        (conv): Conv1d(64, 64, kernel_size=(20,), stride=(10,))\r\n        (norm): BatchNorm1d(64, eps=1e-05, momentum=0.1, affine=True, track_running_stats=True)\r\n        (act): PReLU(num_parameters=64)\r\n      )\r\n      (2): FeBlock(\r\n        (conv): Conv1d(64, 128, kernel_size=(11,), stride=(2,))\r\n        (norm): BatchNorm1d(128, eps=1e-05, momentum=0.1, affine=True, track_running_stats=True)\r\n        (act): PReLU(num_parameters=128)\r\n      )\r\n      (3): FeBlock(\r\n        (conv): Conv1d(128, 128, kernel_size=(11,), stride=(1,))\r\n        (norm): BatchNorm1d(128, eps=1e-05, momentum=0.1, affine=True, track_running_stats=True)\r\n        (act): PReLU(num_parameters=128)\r\n      )\r\n      (4): FeBlock(\r\n        (conv): Conv1d(128, 256, kernel_size=(11,), stride=(2,))\r\n        (norm): BatchNorm1d(256, eps=1e-05, momentum=0.1, affine=True, track_running_stats=True)\r\n        (act): PReLU(num_parameters=256)\r\n      )\r\n      (5): FeBlock(\r\n        (conv): Conv1d(256, 256, kernel_size=(11,), stride=(1,))\r\n        (norm): BatchNorm1d(256, eps=1e-05, momentum=0.1, affine=True, track_running_stats=True)\r\n        (act): PReLU(num_parameters=256)\r\n      )\r\n      (6): FeBlock(\r\n        (conv): Conv1d(256, 512, kernel_size=(11,), stride=(2,))\r\n        (norm): BatchNorm1d(512, eps=1e-05, momentum=0.1, affine=True, track_running_stats=True)\r\n        (act): PReLU(num_parameters=512)\r\n      )\r\n      (7): FeBlock(\r\n        (conv): Conv1d(512, 512, kernel_size=(11,), stride=(2,))\r\n        (norm): BatchNorm1d(512, eps=1e-05, momentum=0.1, affine=True, track_running_stats=True)\r\n        (act): PReLU(num_parameters=512)\r\n      )\r\n    )\r\n    (W): Conv1d(512, 100, kernel_size=(1,), stride=(1,))\r\n    (norm_out): BatchNorm1d(100, eps=1e-05, momentum=0.1, affine=False, track_running_stats=True)\r\n  )\r\n  (regression_workers): ModuleList(\r\n    (0): DecoderMinion(\r\n      (blocks): ModuleList(\r\n        (0): GDeconv1DBlock(\r\n          (deconv): ConvTranspose1d(100, 512, kernel_size=(30,), stride=(4,), padding=(13,))\r\n          (act): PReLU(num_parameters=512)\r\n        )\r\n        (1): GDeconv1DBlock(\r\n          (deconv): ConvTranspose1d(512, 256, kernel_size=(30,), stride=(4,), padding=(13,))\r\n          (act): PReLU(num_parameters=256)\r\n        )\r\n        (2): GDeconv1DBlock(\r\n          (deconv): ConvTranspose1d(256, 128, kernel_size=(30,), stride=(10,), padding=(10,))\r\n          (act): PReLU(num_parameters=128)\r\n        )\r\n        (3): MLPBlock(\r\n          (W): Conv1d(128, 64, kernel_size=(1,), stride=(1,))\r\n          (din): PatternedDropout()\r\n          (act): PReLU(num_parameters=64)\r\n          (dout): Dropout(p=0, inplace=False)\r\n        )\r\n      )\r\n      (W): Conv1d(64, 1, kernel_size=(1,), stride=(1,))\r\n    )\r\n    (1): MLPMinion(\r\n      (blocks): ModuleList(\r\n        (0): MLPBlock(\r\n          (W): Conv1d(100, 256, kernel_size=(1,), stride=(1,))\r\n          (din): PatternedDropout()\r\n          (act): PReLU(num_parameters=256)\r\n          (dout): Dropout(p=0, inplace=False)\r\n        )\r\n      )\r\n      (W): Conv1d(256, 1025, kernel_size=(1,), stride=(1,))\r\n    )\r\n    (2): MLPMinion(\r\n      (blocks): ModuleList(\r\n        (0): MLPBlock(\r\n          (W): Conv1d(100, 256, kernel_size=(1,), stride=(1,))\r\n          (din): PatternedDropout()\r\n          (act): PReLU(num_parameters=256)\r\n          (dout): Dropout(p=0, inplace=False)\r\n        )\r\n      )\r\n      (W): Conv1d(256, 20, kernel_size=(1,), stride=(1,))\r\n    )\r\n    (3): MLPMinion(\r\n      (blocks): ModuleList(\r\n        (0): MLPBlock(\r\n          (W): Conv1d(100, 256, kernel_size=(1,), stride=(1,))\r\n          (din): PatternedDropout()\r\n          (act): PReLU(num_parameters=256)\r\n          (dout): Dropout(p=0, inplace=False)\r\n        )\r\n      )\r\n      (W): Conv1d(256, 4, kernel_size=(1,), stride=(1,))\r\n    )\r\n  )\r\n  (classification_workers): ModuleList(\r\n    (0): SPC(\r\n      (minion): SPCMinion(\r\n        (blocks): ModuleList(\r\n          (0): MLPBlock(\r\n            (W): Conv1d(600, 256, kernel_size=(1,), stride=(1,))\r\n            (din): PatternedDropout()\r\n            (act): PReLU(num_parameters=256)\r\n            (dout): Dropout(p=0, inplace=False)\r\n          )\r\n        )\r\n        (W): Conv1d(256, 1, kernel_size=(1,), stride=(1,))\r\n      )\r\n    )\r\n    (1): LIM(\r\n      (minion): MLPMinion(\r\n        (blocks): ModuleList(\r\n          (0): MLPBlock(\r\n            (W): Conv1d(200, 256, kernel_size=(1,), stride=(1,))\r\n            (din): PatternedDropout()\r\n            (act): PReLU(num_parameters=256)\r\n            (dout): Dropout(p=0, inplace=False)\r\n          )\r\n        )\r\n        (W): Conv1d(256, 1, kernel_size=(1,), stride=(1,))\r\n      )\r\n    )\r\n    (2): GIM(\r\n      (minion): MLPMinion(\r\n        (blocks): ModuleList(\r\n          (0): MLPBlock(\r\n            (W): Conv1d(200, 256, kernel_size=(1,), stride=(1,))\r\n            (din): PatternedDropout()\r\n            (act): PReLU(num_parameters=256)\r\n            (dout): Dropout(p=0, inplace=False)\r\n          )\r\n        )\r\n        (W): Conv1d(256, 1, kernel_size=(1,), stride=(1,))\r\n      )\r\n    )\r\n  )\r\n)\r\n----------\r\nFeBlock(\r\n  (conv): SincConv_fast()\r\n  (norm): BatchNorm1d(64, eps=1e-05, momentum=0.1, affine=True, track_running_stats=True)\r\n  (act): PReLU(num_parameters=64)\r\n)\r\nNum params:  320\r\n----------\r\n----------\r\nFeBlock(\r\n  (conv): Conv1d(64, 64, kernel_size=(20,), stride=(10,))\r\n  (norm): BatchNorm1d(64, eps=1e-05, momentum=0.1, affine=True, track_running_stats=True)\r\n  (act): PReLU(num_parameters=64)\r\n)\r\nNum params:  82176\r\n----------\r\n----------\r\nFeBlock(\r\n  (conv): Conv1d(64, 128, kernel_size=(11,), stride=(2,))\r\n  (norm): BatchNorm1d(128, eps=1e-05, momentum=0.1, affine=True, track_running_stats=True)\r\n  (act): PReLU(num_parameters=128)\r\n)\r\nNum params:  90624\r\n----------\r\n----------\r\nFeBlock(\r\n  (conv): Conv1d(128, 128, kernel_size=(11,), stride=(1,))\r\n  (norm): BatchNorm1d(128, eps=1e-05, momentum=0.1, affine=True, track_running_stats=True)\r\n  (act): PReLU(num_parameters=128)\r\n)\r\nNum params:  180736\r\n----------\r\n----------\r\nFeBlock(\r\n  (conv): Conv1d(128, 256, kernel_size=(11,), stride=(2,))\r\n  (norm): BatchNorm1d(256, eps=1e-05, momentum=0.1, affine=True, track_running_stats=True)\r\n  (act): PReLU(num_parameters=256)\r\n)\r\nNum params:  361472\r\n----------\r\n----------\r\nFeBlock(\r\n  (conv): Conv1d(256, 256, kernel_size=(11,), stride=(1,))\r\n  (norm): BatchNorm1d(256, eps=1e-05, momentum=0.1, affine=True, track_running_stats=True)\r\n  (act): PReLU(num_parameters=256)\r\n)\r\nNum params:  721920\r\n----------\r\n----------\r\nFeBlock(\r\n  (conv): Conv1d(256, 512, kernel_size=(11,), stride=(2,))\r\n  (norm): BatchNorm1d(512, eps=1e-05, momentum=0.1, affine=True, track_running_stats=True)\r\n  (act): PReLU(num_parameters=512)\r\n)\r\nNum params:  1443840\r\n----------\r\n----------\r\nFeBlock(\r\n  (conv): Conv1d(512, 512, kernel_size=(11,), stride=(2,))\r\n  (norm): BatchNorm1d(512, eps=1e-05, momentum=0.1, affine=True, track_running_stats=True)\r\n  (act): PReLU(num_parameters=512)\r\n)\r\nNum params:  2885632\r\n----------\r\nWaveFe total params: 5818020\r\nFrontend params:  5818020\r\n==================================================\r\nBeginning training...\r\nBatches per epoch:  12\r\nLoss schedule policy: base\r\nReading latest checkpoint from pase_ckpt\\PASE-chec
…
