{"url":"https://api.github.com/repos/ultralytics/yolov3/issues/1199","repository_url":"https://api.github.com/repos/ultralytics/yolov3","labels_url":"https://api.github.com/repos/ultralytics/yolov3/issues/1199/labels{/name}","comments_url":"https://api.github.com/repos/ultralytics/yolov3/issues/1199/comments","events_url":"https://api.github.com/repos/ultralytics/yolov3/issues/1199/events","html_url":"https://github.com/ultralytics/yolov3/issues/1199","id":621170594,"node_id":"MDU6SXNzdWU2MjExNzA1OTQ=","number":1199,"title":"Add dense-net structure in the yolov3.cfg ","user":{"login":"penny06-supa","id":52987941,"node_id":"MDQ6VXNlcjUyOTg3OTQx","avatar_url":"https://avatars.githubusercontent.com/u/52987941?v=4","gravatar_id":"","url":"https://api.github.com/users/penny06-supa","html_url":"https://github.com/penny06-supa","followers_url":"https://api.github.com/users/penny06-supa/followers","following_url":"https://api.github.com/users/penny06-supa/following{/other_user}","gists_url":"https://api.github.com/users/penny06-supa/gists{/gist_id}","starred_url":"https://api.github.com/users/penny06-supa/starred{/owner}{/repo}","subscriptions_url":"https://api.github.com/users/penny06-supa/subscriptions","organizations_url":"https://api.github.com/users/penny06-supa/orgs","repos_url":"https://api.github.com/users/penny06-supa/repos","events_url":"https://api.github.com/users/penny06-supa/events{/privacy}","received_events_url":"https://api.github.com/users/penny06-supa/received_events","type":"User","site_admin":false},"labels":[{"id":1035696372,"node_id":"MDU6TGFiZWwxMDM1Njk2Mzcy","url":"https://api.github.com/repos/ultralytics/yolov3/labels/enhancement","name":"enhancement","color":"a2eeef","default":true,"description":"New feature or request"},{"id":1890885613,"node_id":"MDU6TGFiZWwxODkwODg1NjEz","url":"https://api.github.com/repos/ultralytics/yolov3/labels/Stale","name":"Stale","color":"ededed","default":false,"description":null}],"state":"closed","locked":false,"assignee":null,"assignees":[],"milestone":null,"comments":3,"created_at":"2020-05-19T17:49:47Z","updated_at":"2020-06-25T00:16:26Z","closed_at":"2020-06-25T00:16:26Z","author_association":"NONE","active_lock_reason":null,"body":"HI, I add Dense-net structure in the yolov3.cfg\r\nBUT it can't work.\r\n\r\nTraceback (most recent call last):\r\n  File \"train.py\", line 436, in <module>\r\n    train()  # train normally\r\n  File \"train.py\", line 80, in train\r\n    model = Darknet(cfg, arc=opt.arc).to(device)\r\n  File \"/home/kevin56781270/new_darknet_v1/yolov3-master/models.py\", line 256, in __init__\r\n    self.module_list, self.routs = create_modules(self.module_defs, img_size, arc)\r\n  File \"/home/kevin56781270/new_darknet_v1/yolov3-master/models.py\", line 27, in create_modules\r\n    size = mdef['size']\r\nKeyError: 'size'\r\n\r\n(my cfg like this)\r\n\r\n[net]\r\n# Testing\r\n# batch=1\r\n# subdivisions=1\r\n# Training\r\nbatch=64\r\nsubdivisions=16\r\nwidth=416\r\nheight=416\r\nchannels=3\r\nmomentum=0.9\r\ndecay=0.0005\r\nangle=0\r\nsaturation = 1.5\r\nexposure = 1.5\r\nhue=.1\r\n\r\nlearning_rate=0.001\r\nburn_in=1000\r\nmax_batches = 12000\r\npolicy=steps\r\nsteps=9600,10800\r\nscales=.1,.1\r\n\r\n[convolutional]\r\nbatch_normalize=1\r\nfilters=32\r\nsize=3\r\nstride=1\r\npad=1\r\nactivation=leaky\r\n\r\n# Downsample\r\n\r\n[convolutional]\r\nbatch_normalize=1\r\nfilters=64\r\nsize=3\r\nstride=2\r\npad=1\r\nactivation=leaky\r\n\r\n[convolutional]\r\nbatch_normalize=1\r\nfilters=32\r\nsize=1\r\nstride=1\r\npad=1\r\nactivation=leaky\r\n\r\n[convolutional]\r\nbatch_normalize=1\r\nfilters=64\r\nsize=3\r\nstride=1\r\npad=1\r\nactivation=leaky\r\n\r\n[shortcut]\r\nfrom=-3\r\nactivation=linear\r\n\r\n# Downsample\r\n\r\n[convolutional]\r\nbatch_normalize=1\r\nfilters=128\r\nsize=3\r\nstride=2\r\npad=1\r\nactivation=leaky\r\n\r\n[convolutional]\r\nbatch_normalize=1\r\nfilters=64\r\nsize=1\r\nstride=1\r\npad=1\r\nactivation=leaky\r\n\r\n[convolutional]\r\nbatch_normalize=1\r\nfilters=128\r\nsize=3\r\nstride=1\r\npad=1\r\nactivation=leaky\r\n\r\n[shortcut]\r\nfrom=-3\r\nactivation=linear\r\n\r\n[convolutional]\r\nbatch_normalize=1\r\nfilters=64\r\nsize=1\r\nstride=1\r\npad=1\r\nactivation=leaky\r\n\r\n[convolutional]\r\nbatch_normalize=1\r\nfilters=128\r\nsize=3\r\nstride=1\r\npad=1\r\nactivation=leaky\r\n\r\n[shortcut]\r\nfrom=-3\r\nactivation=linear\r\n\r\n# Downsample\r\n\r\n[convolutional]\r\nbatch_normalize=1\r\nfilters=256\r\nsize=3\r\nstride=2\r\npad=1\r\nactivation=leaky\r\n\r\n\r\n[convolutional]\r\nbatch_normalize=1\r\nfilters=128\r\nsize=1\r\nstride=1\r\npad=1\r\nactivation=leaky\r\n\r\n[convolutional]\r\nbatch_normalize=1\r\nfilters=256\r\nsize=3\r\nstride=1\r\npad=1\r\nactivation=leaky\r\n\r\n[shortcut]\r\nfrom=-3\r\nactivation=linear\r\n\r\n[convolutional]\r\nbatch_normalize=1\r\nfilters=128\r\nsize=1\r\nstride=1\r\npad=1\r\nactivation=leaky\r\n\r\n[convolutional]\r\nbatch_normalize=1\r\nfilters=256\r\nsize=3\r\nstride=1\r\npad=1\r\nactivation=leaky\r\n\r\n[shortcut]\r\nfrom=-3\r\nactivation=linear\r\n\r\n[convolutional]\r\nbatch_normalize=1\r\nfilters=128\r\nsize=1\r\nstride=1\r\npad=1\r\nactivation=leaky\r\n\r\n[convolutional]\r\nbatch_normalize=1\r\nfilters=256\r\nsize=3\r\nstride=1\r\npad=1\r\nactivation=leaky\r\n\r\n[shortcut]\r\nfrom=-3\r\nactivation=linear\r\n\r\n[convolutional]\r\nbatch_normalize=1\r\nfilters=128\r\nsize=1\r\nstride=1\r\npad=1\r\nactivation=leaky\r\n\r\n[convolutional]\r\nbatch_normalize=1\r\nfilters=256\r\nsize=3\r\nstride=1\r\npad=1\r\nactivation=leaky\r\n\r\n[shortcut]\r\nfrom=-3\r\nactivation=linear\r\n\r\n\r\n[convolutional]\r\nbatch_normalize=1\r\nfilters=128\r\nsize=1\r\nstride=1\r\npad=1\r\nactivation=leaky\r\n\r\n[convolutional]\r\nbatch_normalize=1\r\nfilters=256\r\nsize=3\r\nstride=1\r\npad=1\r\nactivation=leaky\r\n\r\n[shortcut]\r\nfrom=-3\r\nactivation=linear\r\n\r\n[convolutional]\r\nbatch_normalize=1\r\nfilters=128\r\nsize=1\r\nstride=1\r\npad=1\r\nactivation=leaky\r\n\r\n[convolutional]\r\nbatch_normalize=1\r\nfilters=256\r\nsize=3\r\nstride=1\r\npad=1\r\nactivation=leaky\r\n\r\n[shortcut]\r\nfrom=-3\r\nactivation=linear\r\n\r\n[convolutional]\r\nbatch_normalize=1\r\nfilters=128\r\nsize=1\r\nstride=1\r\npad=1\r\nactivation=leaky\r\n\r\n[convolutional]\r\nbatch_normalize=1\r\nfilters=256\r\nsize=3\r\nstride=1\r\npad=1\r\nactivation=leaky\r\n\r\n[shortcut]\r\nfrom=-3\r\nactivation=linear\r\n\r\n[convolutional]\r\nbatch_normalize=1\r\nfilters=128\r\nsize=1\r\nstride=1\r\npad=1\r\nactivation=leaky\r\n\r\n[convolutional]\r\nbatch_normalize=1\r\nfilters=256\r\nsize=3\r\nstride=1\r\npad=1\r\nactivation=leaky\r\n\r\n[shortcut]\r\nfrom=-3\r\nactivation=linear\r\n\r\n# Densenet\r\n\r\n[convolutional]\r\nbatch_normalize=1\r\nfilters=256\r\nsize=3\r\nstride=2\r\npad=1\r\nactivation=leaky\r\n\r\n# Densenet 4 block\r\n\r\n[convolutional]\r\nbatch_normalize=1\r\nfilters=128\r\nsize=1\r\nstride=1\r\npad=1\r\nactivation=leaky\r\n\r\n[convolutional]\r\nbatch_normalize=1\r\nfilters=32\r\nsize=3\r\nstride=1\r\npad=1\r\nactivation=leaky\r\n\r\n[route]\r\nlayers=-1,-3\r\n\r\n[convolutional]\r\nbatch_normalize=1\r\nfilters=128\r\nsize=1\r\nstride=1\r\npad=1\r\nactivation=leaky\r\n\r\n[convolutional]\r\nbatch_normalize=1\r\nfilters=32\r\nsize=3\r\nstride=1\r\npad=1\r\nactivation=leaky\r\n\r\n[route]\r\nlayers=-1,-3\r\n\r\n[convolutional]\r\nbatch_normalize=1\r\nfilters=128\r\nsize=1\r\nstride=1\r\npad=1\r\nactivation=leaky\r\n\r\n[convolutional]\r\nbatch_normalize=1\r\nfilters=32\r\nsize=3\r\nstride=1\r\npad=1\r\nactivation=leaky\r\n\r\n[route]\r\nlayers=-1,-3\r\n\r\n[convolutional]\r\nbatch_normalize=1\r\nfilters=128\r\nsize=1\r\nstride=1\r\npad=1\r\nactivation=leaky\r\n\r\n[convolutional]\r\nbatch_normalize=1\r\nfilters=32\r\nsize=3\r\nstride=1\r\npad=1\r\nactivation=leaky\r\n\r\n[route]\r\nlayers=-1,-3\r\n\r\n# Downsample\r\n\r\n[convolutional]\r\nbatch_normalize=1\r\nfilters=512\r\nsize=1\r\nstride=1\r\npad=1\r\nactivation=leaky\r\n\r\n[convolutional]\r\nbatch_normalize=1\r\nfilters=256\r\nsize=1\r\nstride=1\r\npad=1\r\nactivation=leaky\r\n\r\n[convolutional]\r\nbatch_normalize=1\r\nfilters=512\r\nsize=3\r\nstride=1\r\npad=1\r\nactivation=leaky\r\n\r\n[shortcut]\r\nfrom=-3\r\nactivation=linear\r\n\r\n\r\n[convolutional]\r\nbatch_normalize=1\r\nfilters=256\r\nsize=1\r\nstride=1\r\npad=1\r\nactivation=leaky\r\n\r\n[convolutional]\r\nbatch_normalize=1\r\nfilters=512\r\nsize=3\r\nstride=1\r\npad=1\r\nactivation=leaky\r\n\r\n[shortcut]\r\nfrom=-3\r\nactivation=linear\r\n\r\n\r\n[convolutional]\r\nbatch_normalize=1\r\nfilters=256\r\nsize=1\r\nstride=1\r\npad=1\r\nactivation=leaky\r\n\r\n[convolutional]\r\nbatch_normalize=1\r\nfilters=512\r\nsize=3\r\nstride=1\r\npad=1\r\nactivation=leaky\r\n\r\n[shortcut]\r\nfrom=-3\r\nactivation=linear\r\n\r\n\r\n[convolutional]\r\nbatch_normalize=1\r\nfilters=256\r\nsize=1\r\nstride=1\r\npad=1\r\nactivation=leaky\r\n\r\n[convolutional]\r\nbatch_normalize=1\r\nfilters=512\r\nsize=3\r\nstride=1\r\npad=1\r\nactivation=leaky\r\n\r\n[shortcut]\r\nfrom=-3\r\nactivation=linear\r\n\r\n[convolutional]\r\nbatch_normalize=1\r\nfilters=256\r\nsize=1\r\nstride=1\r\npad=1\r\nactivation=leaky\r\n\r\n[convolutional]\r\nbatch_normalize=1\r\nfilters=512\r\nsize=3\r\nstride=1\r\npad=1\r\nactivation=leaky\r\n\r\n[shortcut]\r\nfrom=-3\r\nactivation=linear\r\n\r\n\r\n[convolutional]\r\nbatch_normalize=1\r\nfilters=256\r\nsize=1\r\nstride=1\r\npad=1\r\nactivation=leaky\r\n\r\n[convolutional]\r\nbatch_normalize=1\r\nfilters=512\r\nsize=3\r\nstride=1\r\npad=1\r\nactivation=leaky\r\n\r\n[shortcut]\r\nfrom=-3\r\nactivation=linear\r\n\r\n\r\n[convolutional]\r\nbatch_normalize=1\r\nfilters=256\r\nsize=1\r\nstride=1\r\npad=1\r\nactivation=leaky\r\n\r\n[convolutional]\r\nbatch_normalize=1\r\nfilters=512\r\nsize=3\r\nstride=1\r\npad=1\r\nactivation=leaky\r\n\r\n[shortcut]\r\nfrom=-3\r\nactivation=linear\r\n\r\n[convolutional]\r\nbatch_normalize=1\r\nfilters=256\r\nsize=1\r\nstride=1\r\npad=1\r\nactivation=leaky\r\n\r\n[convolutional]\r\nbatch_normalize=1\r\nfilters=512\r\nsize=3\r\nstride=1\r\npad=1\r\nactivation=leaky\r\n\r\n[shortcut]\r\nfrom=-3\r\nactivation=linear\r\n\r\n# Densenet\r\n\r\n[convolutional]\r\nbatch_normalize=1\r\nfilters=512\r\nsize=3\r\nstride=2\r\npad=1\r\nactivation=leaky\r\n\r\n\r\n# Densenet 4 block\r\n\r\n[convolutional]\r\nbatch_normalize=1\r\nfilters=128\r\nsize=1\r\nstride=1\r\npad=1\r\nactivation=leaky\r\n\r\n[convolutional]\r\nbatch_normalize=1\r\nfilters=32\r\nsize=3\r\nstride=1\r\npad=1\r\nactivation=leaky\r\n\r\n[route]\r\nlayers=-1,-3\r\n\r\n[convolutional]\r\nbatch_normalize=1\r\nfilters=128\r\nsize=1\r\nstride=1\r\npad=1\r\nactivation=leaky\r\n\r\n[convolutional]\r\nbatch_normalize=1\r\nfilters=32\r\nsize=3\r\nstride=1\r\npad=1\r\nactivation=leaky\r\n\r\n[route]\r\nlayers=-1,-3\r\n\r\n[convolutional]\r\nbatch_normalize=1\r\nfilters=128\r\nsize=1\r\nstride=1\r\npad=1\r\nactivation=leaky\r\n\r\n[convolutional]\r\nbatch_normalize=1\r\nfilters=32\r\nsize=3\r\nstride=1\r\npad=1\r\nactivation=leaky\r\n\r\n[route]\r\nlayers=-1,-3\r\n\r\n[convolutional]\r\nbatch_normalize=1\r\nfilters=128\r\nsize=1\r\nstride=1\r\npad=1\r\nactivation=leaky\r\n\r\n[convolutional]\r\nbatch_normalize=1\r\nfilters=32\r\nsize=3\r\nstride=1\r\npad=1\r\nactivation=leaky\r\n\r\n[route]\r\nlayers=-1,-3\r\n\r\n# Downsample\r\n\r\n[convolutional]\r\nbatch_normalize=1\r\nfilters=1024\r\npad=1\r\nactivation=leaky\r\n\r\n[convolutional]\r\nbatch_normalize=1\r\nfilters=512\r\nsize=1\r\nstride=1\r\npad=1\r\nactivation=leaky\r\n\r\n[convolutional]\r\nbatch_normalize=1\r\nfilters=1024\r\nsize=3\r\nstride=1\r\npad=1\r\nactivation=leaky\r\n\r\n[shortcut]\r\nfrom=-3\r\nactivation=linear\r\n\r\n[convolutional]\r\nbatch_normalize=1\r\nfilters=512\r\nsize=1\r\nstride=1\r\npad=1\r\nactivation=leaky\r\n\r\n[convolutional]\r\nbatch_normalize=1\r\nfilters=1024\r\nsize=3\r\nstride=1\r\npad=1\r\nactivation=leaky\r\n\r\n[shortcut]\r\nfrom=-3\r\nactivation=linear\r\n\r\n[convolutional]\r\nbatch_normalize=1\r\nfilters=512\r\nsize=1\r\nstride=1\r\npad=1\r\nactivation=leaky\r\n\r\n[convolutional]\r\nbatch_normalize=1\r\nfilters=1024\r\nsize=3\r\nstride=1\r\npad=1\r\nactivation=leaky\r\n\r\n[shortcut]\r\nfrom=-3\r\nactivation=linear\r\n\r\n[convolutional]\r\nbatch_normalize=1\r\nfilters=512\r\nsize=1\r\nstride=1\r\npad=1\r\nactivation=leaky\r\n\r\n[convolutional]\r\nbatch_normalize=1\r\nfilters=1024\r\nsize=3\r\nstride=1\r\npad=1\r\nactivation=leaky\r\n\r\n[shortcut]\r\nfrom=-3\r\nactivation=linear\r\n\r\n######################\r\n\r\n[convolutional]\r\nbatch_normalize=1\r\nfilters=512\r\nsize=1\r\nstride=1\r\npad=1\r\nactivation=leaky\r\n\r\n[convolutional]\r\nbatch_normalize=1\r\nsize=3\r\nstride=1\r\npad=1\r\nfilters=1024\r\nactivation=leaky\r\n\r\n[convolutional]\r\nbatch_normalize=1\r\nfilters=512\r\nsize=1\r\nstride=1\r\npad=1\r\nactivation=leaky\r\n\r\n[convolutional]\r\nbatch_normalize=1\r\nsize=3\r\nstride=1\r\npad=1\r\nfilters=1024\r\nactivation=leaky\r\n\r\n[convolutional]\r\nbatch_normalize=1\r\nfilters=512\r\nsize=1\r\nstride=1\r\npad=1\r\nactivation=leaky\r\n\r\n[convolutional]\r\nbatch_normalize=1\r\nsize=3\r\nstride=1\r\npad=1\r\nfilters=1024\r\nactivation=leaky\r\n\r\n[convolutional]\r\nsize=1\r\nstride=1\r\npad=1\r\nfilters=33\r\nactivation=linear\r\n\r\n\r\n[yolo]\r\nmask = 6,7,8\r\nanchors = 10,13,  16,30,  33,23,  30,61,  62,45,  59,119,  116,90,  156,198,  373,326\r\nclasses=6\r\nnum=9\r\njitter=.3\r\nignore_thresh = .7\r\ntruth_thresh = 1\r\nrandom=1\r\n\r\n\r\n[route]\r\nlayers = -4\r\n\r\n[convolutional]\r\nbatch_normalize=1\r\nfilters=256\r\nsize=1\r\nstride=1\r\npad=1\r\nactivation=leaky\r\n\r\n[upsample]\r\nstride=2\r\n\r\n[route]\r\nlayers = -1, 74\r\n\r\n\r\n\r\n[convolutional]\r\nbatch_normalize=1\r\nfilters=256\r\nsize=1\r\nstride=1\r\npad=1\r\nactivation=leaky\r\n\r\n[convolutional]\r\nbatch_normalize=1\r\nsize=3\r\nstride=1\r\npad=1\r\nfilters=512\r\nactivation=leaky\r\n\r\n[convolutional]\r\nbatch_normalize=1\r\nfilters=256\r\nsize=1\r\nstride=1\r\npad=1\r\nactivation=leaky\r\n\r\n[convolutional]\r\nbatch_normalize=1\r\nsize=3\r\nstride=1\r\npad=1\r\nfilters=512\r\nactivation=leaky\r\n\r\n[convolutional]\r\nbatch_normalize=1\r\nfilters=256\r\nsize=1\r\nstride=1\r\npad=1\r\nactivation=leaky\r\n\r\n[convolutional]\r\nbatch_normalize=1\r\nsize=3\r\nstride=1\r\npad=1\r\nfilters=512\r\nactivation=leaky\r\n\r\n[convolutional]\r\nsize=1\r\nstride=1\r\npad=1\r\nfilters=33\r\nactivation=linear\r\n\r\n\r\n[yolo]\r\nmask = 3,4,5\r\nanchors = 10,13,  16,30,  33,23,  30,61,  62,45,  59,119,  116,90,  156,198,  373,326\r\nclasses=6\r\nnum=9\r\njitter=.3\r\nignore_thresh = .7\r\ntruth_thresh = 1\r\nrandom=1\r\n\r\n\r\n\r\n[route]\r\nlayers = -4\r\n\r\n[convolutional]\r\nbatch_normalize=1\r\nfilters=128\r\nsize=1\r\nstride=1\r\npad=1\r\nactivation=leaky\r\n\r\n[upsample]\r\nstride=2\r\n\r\n[route]\r\nlayers = -1, 36\r\n\r\n\r\n\r\n[convolutional]\r\nbatch_normalize=1\r\nfilters=128\r\nsize=1\r\nstride=1\r\npad=1\r\nactivation=leaky\r\n\r\n[convolutional]\r\nbatch_normalize=1\r\nsize=3\r\nstride=1\r\npad=1\r\nfilters=256\r\nactivation=leaky\r\n\r\n[convolutional]\r\nbatch_normalize=1\r\nfilters=128\r\nsize=1\r\nstride=1\r\npad=1\r\nactivation=leaky\r\n\r\n[convolutional]\r\nbatch_normalize=1\r\nsize=3\r\nstride=1\r\npad=1\r\nfilters=256\r\nactivation=leaky\r\n\r\n[convolutional]\r\nbatch_normalize=1\r\nfilters=128\r\nsize=1\r\nstride=1\r\npad=1\r\nactivation=leaky\r\n\r\n[convolutional]\r\nbatch_normalize=1\r\nsize=3\r\nstride=1\r\npad=1\r\nfilters=256\r\nactivation=leaky\r\n\r\n[convolutional]\r\nsize=1\r\nstride=1\r\npad=1\r\nfilters=33\r\nactivation=linear\r\n\r\n\r\n[yolo]\r\nmask = 0,1,2\r\nanchors = 10,13,  16,30,  33,23,  30,61,  62,45,  59,119,  116,90,  156,198,  373,326\r\nclasses=6\r\nnum=9\r\njitter=.3\r\nignore_thresh = .7\r\ntruth_thresh = 1\r\nrandom=1\r\n\r\n\r\n\r\n\r\n\r\n\r\n\r\n\r\n\r\n\r\n","closed_by":{"login":"github-actions[bot]","id":41898282,"node_id":"MDM6Qm90NDE4OTgyODI=","avatar_url":"https://avatars.githubusercontent.com/in/15368?v=4","gravatar_id":"","url":"https://api.github.com/users/github-actions%5Bbot%5D","html_url":"https://github.com/apps/github-actions","followers_url":"https://api.github.com/users/github-actions%5Bbot%5D/followers","following_url":"https://api.github.com/users/github-actions%5Bbot%5D/following{/other_user}","gists_url":"https://api.github.com/users/github-actions%5Bbot%5D/gists{/gist_id}","starred_url":"https://api.github.com/users/github-actions%5Bbot%5D/starred{/owner}{/repo}","subscriptions_url":"https://api.github.com/users/github-actions%5Bbot%5D/subscriptions","organizations_url":"https://api.github.com/users/github-actions%5Bbot%5D/orgs","repos_url":"https://api.github.com/users/github-actions%5Bbot%5D/repos","events_url":"https://api.github.com/users/github-actions%5Bbot%5D/events{/privacy}","received_events_url":"https://api.github.com/users/github-actions%5Bbot%5D/received_events","type":"Bot","site_admin":false},"reactions":{"url":"https://api.github.com/repos/ultralytics/yolov3/issues/1199/reactions","total_count":0,"+1":0,"-1":0,"laugh":0,"hooray":0,"confused":0,"heart":0,"rocket":0,"eyes":0},"timeline_url":"https://api.github.com/repos/ultralytics/yolov3/issues/1199/timeline","performed_via_github_app":null,"state_reason":"completed"}