…
:30:03Z","author_association":"NONE","active_lock_reason":null,"body":"I am trying to do training on custom data. After training i got file yolo-obj_last.weights.\r\nAfter this i typed command :\r\ndarknet.exe detector test data/obj.data cfg/yolov4-obj.cfg yolov4-obj_last.weights\r\n CUDA-version: 11000 (11000), cuDNN: 7.6.4, GPU count: 1\r\n OpenCV version: 4.3.0\r\n 0 : compute_capability = 500, cudnn_half = 0, GPU: GeForce MX130\r\nnet.optimized_memory = 0\r\nmini_batch = 1, batch = 64, time_steps = 1, train = 0\r\n   layer   filters  size/strd(dil)      input                output\r\n   0 conv     32       3 x 3/ 1    416 x 416 x   1 ->  416 x 416 x  32 0.100 BF\r\n   1 conv     64       3 x 3/ 2    416 x 416 x  32 ->  208 x 208 x  64 1.595 BF\r\n   2 conv     64       1 x 1/ 1    208 x 208 x  64 ->  208 x 208 x  64 0.354 BF\r\n   3 route  1                                      ->  208 x 208 x  64\r\n   4 conv     64       1 x 1/ 1    208 x 208 x  64 ->  208 x 208 x  64 0.354 BF\r\n   5 conv     32       1 x 1/ 1    208 x 208 x  64 ->  208 x 208 x  32 0.177 BF\r\n   6 conv     64       3 x 3/ 1    208 x 208 x  32 ->  208 x 208 x  64 1.595 BF\r\n   7 Shortcut Layer: 4,  wt = 0, wn = 0, outputs: 208 x 208 x  64 0.003 BF\r\n   8 conv     64       1 x 1/ 1    208 x 208 x  64 ->  208 x 208 x  64 0.354 BF\r\n   9 route  8 2                                    ->  208 x 208 x 128\r\n  10 conv     64       1 x 1/ 1    208 x 208 x 128 ->  208 x 208 x  64 0.709 BF\r\n  11 conv    128       3 x 3/ 2    208 x 208 x  64 ->  104 x 104 x 128 1.595 BF\r\n  12 conv     64       1 x 1/ 1    104 x 104 x 128 ->  104 x 104 x  64 0.177 BF\r\n  13 route  11                                     ->  104 x 104 x 128\r\n  14 conv     64       1 x 1/ 1    104 x 104 x 128 ->  104 x 104 x  64 0.177 BF\r\n  15 conv     64       1 x 1/ 1    104 x 104 x  64 ->  104 x 104 x  64 0.089 BF\r\n  16 conv     64       3 x 3/ 1    104 x 104 x  64 ->  104 x 104 x  64 0.797 BF\r\n  17 Shortcut Layer: 14,  wt = 0, wn = 0, outputs: 104 x 104 x  64 0.001 BF\r\n  18 conv     64       1 x 1/ 1    104 x 104 x  64 ->  104 x 104 x  64 0.089 BF\r\n  19 conv     64       3 x 3/ 1    104 x 104 x  64 ->  104 x 104 x  64 0.797 BF\r\n  20 Shortcut Layer: 17,  wt = 0, wn = 0, outputs: 104 x 104 x  64 0.001 BF\r\n  21 conv     64       1 x 1/ 1    104 x 104 x  64 ->  104 x 104 x  64 0.089 BF\r\n  22 route  21 12                                  ->  104 x 104 x 128\r\n  23 conv    128       1 x 1/ 1    104 x 104 x 128 ->  104 x 104 x 128 0.354 BF\r\n  24 conv    256       3 x 3/ 2    104 x 104 x 128 ->   52 x  52 x 256 1.595 BF\r\n  25 conv    128       1 x 1/ 1     52 x  52 x 256 ->   52 x  52 x 128 0.177 BF\r\n  26 route  24                                     ->   52 x  52 x 256\r\n  27 conv    128       1 x 1/ 1     52 x  52 x 256 ->   52 x  52 x 128 0.177 BF\r\n  28 conv    128       1 x 1/ 1     52 x  52 x 128 ->   52 x  52 x 128 0.089 BF\r\n  29 conv    128       3 x 3/ 1     52 x  52 x 128 ->   52 x  52 x 128 0.797 BF\r\n  30 Shortcut Layer: 27,  wt = 0, wn = 0, outputs:  52 x  52 x 128 0.000 BF\r\n  31 conv    128       1 x 1/ 1     52 x  52 x 128 ->   52 x  52 x 128 0.089 BF\r\n  32 conv    128       3 x 3/ 1     52 x  52 x 128 ->   52 x  52 x 128 0.797 BF\r\n  33 Shortcut Layer: 30,  wt = 0, wn = 0, outputs:  52 x  52 x 128 0.000 BF\r\n  34 conv    128       1 x 1/ 1     52 x  52 x 128 ->   52 x  52 x 128 0.089 BF\r\n  35 conv    128       3 x 3/ 1     52 x  52 x 128 ->   52 x  52 x 128 0.797 BF\r\n  36 Shortcut Layer: 33,  wt = 0, wn = 0, outputs:  52 x  52 x 128 0.000 BF\r\n  37 conv    128       1 x 1/ 1     52 x  52 x 128 ->   52 x  52 x 128 0.089 BF\r\n  38 conv    128       3 x 3/ 1     52 x  52 x 128 ->   52 x  52 x 128 0.797 BF\r\n  39 Shortcut Layer: 36,  wt = 0, wn = 0, outputs:  52 x  52 x 128 0.000 BF\r\n  40 conv    128       1 x 1/ 1     52 x  52 x 128 ->   52 x  52 x 128 0.089 BF\r\n  41 conv    128       3 x 3/ 1     52 x  52 x 128 ->   52 x  52 x 128 0.797 BF\r\n  42 Shortcut Layer: 39,  wt = 0, wn = 0, outputs:  52 x  52 x 128 0.000 BF\r\n  43 conv    128       1 x 1/ 1     52 x  52 x 128 ->   52 x  52 x 128 0.089 BF\r\n  44 conv    128       3 x 3/ 1     52 x  52 x 128 ->   52 x  52 x 128 0.797 BF\r\n  45 Shortcut Layer: 42,  wt = 0, wn = 0, outputs:  52 x  52 x 128 0.000 BF\r\n  46 conv    128       1 x 1/ 1     52 x  52 x 128 ->   52 x  52 x 128 0.089 BF\r\n  47 conv    128       3 x 3/ 1     52 x  52 x 128 ->   52 x  52 x 128 0.797 BF\r\n  48 Shortcut Layer: 45,  wt = 0, wn = 0, outputs:  52 x  52 x 128 0.000 BF\r\n  49 conv    128       1 x 1/ 1     52 x  52 x 128 ->   52 x  52 x 128 0.089 BF\r\n  50 conv    128       3 x 3/ 1     52 x  52 x 128 ->   52 x  52 x 128 0.797 BF\r\n  51 Shortcut Layer: 48,  wt = 0, wn = 0, outputs:  52 x  52 x 128 0.000 BF\r\n  52 conv    128       1 x 1/ 1     52 x  52 x 128 ->   52 x  52 x 128 0.089 BF\r\n  53 route  52 25                                  ->   52 x  52 x 256\r\n  54 conv    256       1 x 1/ 1     52 x  52 x 256 ->   52 x  52 x 256 0.354 BF\r\n  55 conv    512       3 x 3/ 2     52 x  52 x 256 ->   26 x  26 x 512 1.595 BF\r\n  56 conv    256       1 x 1/ 1     26 x  26 x 512 ->   26 x  26 x 256 0.177 BF\r\n  57 route  55                                     ->   26 x  26 x 512\r\n  58 conv    256       1 x 1/ 1     26 x  26 x 512 ->   26 x  26 x 256 0.177 BF\r\n  59 conv    256       1 x 1/ 1     26 x  26 x 256 ->   26 x  26 x 256 0.089 BF\r\n  60 conv    256       3 x 3/ 1     26 x  26 x 256 ->   26 x  26 x 256 0.797 BF\r\n  61 Shortcut Layer: 58,  wt = 0, wn = 0, outputs:  26 x  26 x 256 0.000 BF\r\n  62 conv    256       1 x 1/ 1     26 x  26 x 256 ->   26 x  26 x 256 0.089 BF\r\n  63 conv    256       3 x 3/ 1     26 x  26 x 256 ->   26 x  26 x 256 0.797 BF\r\n  64 Shortcut Layer: 61,  wt = 0, wn = 0, outputs:  26 x  26 x 256 0.000 BF\r\n  65 conv    256       1 x 1/ 1     26 x  26 x 256 ->   26 x  26 x 256 0.089 BF\r\n  66 conv    256       3 x 3/ 1     26 x  26 x 256 ->   26 x  26 x 256 0.797 BF\r\n  67 Shortcut Layer: 64,  wt = 0, wn = 0, outputs:  26 x  26 x 256 0.000 BF\r\n  68 conv    256       1 x 1/ 1     26 x  26 x 256 ->   26 x  26 x 256 0.089 BF\r\n  69 conv    256       3 x 3/ 1     26 x  26 x 256 ->   26 x  26 x 256 0.797 BF\r\n  70 Shortcut Layer: 67,  wt = 0, wn = 0, outputs:  26 x  26 x 256 0.000 BF\r\n  71 conv    256       1 x 1/ 1     26 x  26 x 256 ->   26 x  26 x 256 0.089 BF\r\n  72 conv    256       3 x 3/ 1     26 x  26 x 256 ->   26 x  26 x 256 0.797 BF\r\n  73 Shortcut Layer: 70,  wt = 0, wn = 0, outputs:  26 x  26 x 256 0.000 BF\r\n  74 conv    256       1 x 1/ 1     26 x  26 x 256 ->   26 x  26 x 256 0.089 BF\r\n  75 conv    256       3 x 3/ 1     26 x  26 x 256 ->   26 x  26 x 256 0.797 BF\r\n  76 Shortcut Layer: 73,  wt = 0, wn = 0, outputs:  26 x  26 x 256 0.000 BF\r\n  77 conv    256       1 x 1/ 1     26 x  26 x 256 ->   26 x  26 x 256 0.089 BF\r\n  78 conv    256       3 x 3/ 1     26 x  26 x 256 ->   26 x  26 x 256 0.797 BF\r\n  79 Shortcut Layer: 76,  wt = 0, wn = 0, outputs:  26 x  26 x 256 0.000 BF\r\n  80 conv    256       1 x 1/ 1     26 x  26 x 256 ->   26 x  26 x 256 0.089 BF\r\n  81 conv    256       3 x 3/ 1     26 x  26 x 256 ->   26 x  26 x 256 0.797 BF\r\n  82 Shortcut Layer: 79,  wt = 0, wn = 0, outputs:  26 x  26 x 256 0.000 BF\r\n  83 conv    256       1 x 1/ 1     26 x  26 x 256 ->   26 x  26 x 256 0.089 BF\r\n  84 route  83 56                                  ->   26 x  26 x 512\r\n  85 conv    512       1 x 1/ 1     26 x  26 x 512 ->   26 x  26 x 512 0.354 BF\r\n  86 conv   1024       3 x 3/ 2     26 x  26 x 512 ->   13 x  13 x1024 1.595 BF\r\n  87 conv    512       1 x 1/ 1     13 x  13 x1024 ->   13 x  13 x 512 0.177 BF\r\n  88 route  86                                     ->   13 x  13 x1024\r\n  89 conv    512       1 x 1/ 1     13 x  13 x1024 ->   13 x  13 x 512 0.177 BF\r\n  90 conv    512       1 x 1/ 1     13 x  13 x 512 ->   13 x  13 x 512 0.089 BF\r\n  91 conv    512       3 x 3/ 1     13 x  13 x 512 ->   13 x  13 x 512 0.797 BF\r\n  92 Shortcut Layer: 89,  wt = 0, wn = 0, outputs:  13 x  13 x 512 0.000 BF\r\n  93 conv    512       1 x 1/ 1     13 x  13 x 512 ->   13 x  13 x 512 0.089 BF\r\n  94 conv    512       3 x 3/ 1     13 x  13 x 512 ->   13 x  13 x 512 0.797 BF\r\n  95 Shortcut Layer: 92,  wt = 0, wn = 0, outputs:  13 x  13 x 512 0.000 BF\r\n  96 conv    512       1 x 1/ 1     13 x  13 x 512 ->   13 x  13 x 512 0.089 BF\r\n  97 conv    512       3 x 3/ 1     13 x  13 x 512 ->   13 x  13 x 512 0.797 BF\r\n  98 Shortcut Layer: 95,  wt = 0, wn = 0, outputs:  13 x  13 x 512 0.000 BF\r\n  99 conv    512       1 x 1/ 1     13 x  13 x 512 ->   13 x  13 x 512 0.089 BF\r\n 100 conv    512       3 x 3/ 1     13 x  13 x 512 ->   13 x  13 x 512 0.797 BF\r\n 101 Shortcut Layer: 98,  wt = 0, wn = 0, outputs:  13 x  13 x 512 0.000 BF\r\n 102 conv    512       1 x 1/ 1     13 x  13 x 512 ->   13 x  13 x 512 0.089 BF\r\n 103 route  102 87                                 ->   13 x  13 x1024\r\n 104 conv   1024       1 x 1/ 1     13 x  13 x1024 ->   13 x  13 x1024 0.354 BF\r\n 105 conv    512       1 x 1/ 1     13 x  13 x1024 ->   13 x  13 x 512 0.177 BF\r\n 106 conv   1024       3 x 3/ 1     13 x  13 x 512 ->   13 x  13 x1024 1.595 BF\r\n 107 conv    512       1 x 1/ 1     13 x  13 x1024 ->   13 x  13 x 512 0.177 BF\r\n 108 max                5x 5/ 1     13 x  13 x 512 ->   13 x  13 x 512 0.002 BF\r\n 109 route  107                                            ->   13 x  13 x 512\r\n 110 max                9x 9/ 1     13 x  13 x 512 ->   13 x  13 x 512 0.007 BF\r\n 111 route  107                                            ->   13 x  13 x 512\r\n 112 max               13x13/ 1     13 x  13 x 512 ->   13 x  13 x 512 0.015 BF\r\n 113 route  112 110 108 107                        ->   13 x  13 x2048\r\n 114 conv    512       1 x 1/ 1     13 x  13 x2048 ->   13 x  13 x 512 0.354 BF\r\n 115 conv   1024       3 x 3/ 1     13 x  13 x 512 ->   13 x  13 x1024 1.595 BF\r\n 116 conv    512       1 x 1/ 1     13 x  13 x1024 ->   13 x  13 x 512 0.177 BF\r\n 117 conv    256       1 x 1/ 1     13 x  13 x 512 ->   13 x  13 x 256 0.044 BF\r\n 118 upsample                 2x    13 x  13 x 256 ->   26 x  26 x 256\r\n 119 route  85                                     ->   26 x  26 x 512\r\n 120 conv    256       1 x 1/ 1     26 x  26 x 512 ->   26 x  26 x 256 0.177 BF\r\n 121 route  120 118                                ->   26 x  26 x 512\r\n 122 conv    256       1 x 1/ 1     26 x  26 x 512 ->   26 x  26 x 256 0.177 BF\r\n 123 conv    512       3 x 3/ 1     26 x  26 x 256 ->   26 x  26 x 512 1.595 BF\r\n 124 conv    256       1 x 1/ 1     26 x  26 x 512 ->   26 x  26 x 256 0.177 BF\r\n 125 conv    512       3 x 3/ 1     26 x  26 x 256 ->   26 x  26 x 512 1.595 BF\r\n 126 conv    256       1 x 1/ 1     26 x  26 x 512 ->   26 x  26 x 256 0.177 BF\r\n 127 conv    128       1 x 1/ 1     26 x  26 x 256 ->   26 x  26 x 128 0.044 BF\r\n 128 upsample                 2x    26 x  26 x 128 ->   52 x  52 x 128\r\n 129 route  54                                     ->   52 x  52 x 256\r\n 130 conv    128       1 x 1/ 1     52 x  52 x 256 ->   52 x  52 x 128 0.177 BF\r\n 131 route  130 128                                ->   52 x  52 x 256\r\n 132 conv    128       1 x 1/ 1     52 x  52 x 256 ->   52 x  52 x 128 0.177 BF\r\n 133 conv    256       3 x 3/ 1     52 x  52 x 128 ->   52 x  52 x 256 1.595 BF\r\n 134 conv    128       1 x 1/ 1     52 x  52 x 256 ->   52 x  52 x 128 0.177 BF\r\n 135 conv    256       3 x 3/ 1     52 x  52 x 128 ->   52 x  52 x 256 1.595 BF\r\n 136 conv    128       1 x 1/ 1     52 x  52 x 256 ->   52 x  52 x 128 0.177 BF\r\n 137 conv    256       3 x 3/ 1     52 x  52 x 128 ->   52 x  52 x 256 1.595 BF\r\n 138 conv     18       1 x 1/ 1     52 x  52 x 256 ->   52 x  52 x  18 0.025 BF\r\n 139 yolo\r\n[yolo] params: iou loss: ciou (4), iou_norm: 0.07, cls_norm: 1.00, scale_x_y: 1.20\r\nnms_kind: greedynms (1), beta = 0.600000\r\n 140 route  136                                            ->   52 x  52 x 128\r\n 141 conv    256       3 x 3/ 2     52 x  52 x 128 ->   26 x  26 x 256 0.399 BF\r\n 142 route  141 126                                ->   26 x  26 x 512\r\n 143 conv    256       1 x 1/ 1     26 x  26 x 512 ->   26 x  26 x 256 0.177 BF\r\n 144 conv    512       3 x 3/ 1     26 x  26 x 256 ->   26 x  26 x 512 1.595 BF\r\n 145 conv    256       1 x 1/ 1     26 x  26 x 512 ->   26 x  26 x 256 0.177 BF\r\n 146 conv    512       3 x 3/ 1     26 x  26 x 256 ->   26 x  26 x 512 1.595 BF\r\n 147 conv    256       1 x 1/ 1     26 x  26 x 512 ->   26 x  26 x 256 0.177 BF\r\n 148 conv    512       3 x 3/ 1     26 x  26 x 256 ->   26 x  26 x 512 1.595 BF\r\n 149 conv     18       1 x 1/ 1     26 x  26 x 512 ->   26 x  26 x  18 0.012 BF\r\n 150 yolo\r\n[yolo] params: iou loss: ciou (4), iou_norm: 0.07, cls_norm: 1.00, scale_x_y: 1.10\r\nnms_kind: greedynms (1), beta = 0.600000\r\n 151 route  147                                            ->   26 x  26 x 256\r\n 152 conv    512       3 x 3/ 2     26 x  26 x 256 ->   13 x  13 x 512 0.399 BF\r\n 153 route  152 116                                ->   13 x  13 x1024\r\n 154 conv    512       1 x 1/ 1     13 x  13 x1024 ->   13 x  13 x 512 0.177 BF\r\n 155 conv   1024       3 x 3/ 1     13 x  13 x 512 ->   13 x  13 x1024 1.595 BF\r\n 156 conv    512       1 x 1/ 1     13 x  13 x1024 ->   13 x  13 x 512 0.177 BF\r\n 157 conv   1024       3 x 3/ 1     13 x  13 x 512 ->   13 x  13 x1024 1.595 BF\r\n 158 conv    512       1 x 1/ 1     13 x  13 x1024 ->   13 x  13 x 512 0.177 BF\r\n 159 conv   1024       3 x 3/ 1     13 x  13 x 512 ->   13 x  13 x1024 1.595 BF\r\n 160 conv     18       1 x 1/ 1     13 x  13 x1024 ->   13 x  13 x  18 0.006 BF\r\n 161 yolo\r\n[yolo] params: iou loss: ciou (4), iou_norm: 0.07, cls_norm: 1.00, scale_x_y: 1.05\r\nnms_kind: greedynms (1), beta = 0.600000\r\nTotal BFLOPS 59.364\r\navg_outputs = 489778\r\n Allocate additional workspace_size = 26.22 MB\r\nLoading weights from yolov4-barcode_last.weights...\r\n seen 64, trained: 57 K-images (0 Kilo-batches_64)\r\
…
