…
-01-29T03:19:44Z","updated_at":"2021-03-07T00:33:39Z","closed_at":"2021-03-07T00:33:39Z","author_association":"NONE","active_lock_reason":null,"body":"I was running the [Google colab tutorial](https://colab.research.google.com/github/ultralytics/yolov3/blob/master/tutorial.ipynb#scrollTo=BSgFCAcMbk1R) for the repo and  in the last block of code when training the YOLOv3-tiny part, I got this error.\r\n\r\nOverriding model.yaml nc=80 with nc=20\r\n\r\n                 from  n    params  module                                  arguments                     \r\n  0                -1  1       464  models.common.Conv                      [3, 16, 3, 1]                 \r\n  1                -1  1         0  torch.nn.modules.pooling.MaxPool2d      [2, 2, 0]                     \r\n  2                -1  1      4672  models.common.Conv                      [16, 32, 3, 1]                \r\n  3                -1  1         0  torch.nn.modules.pooling.MaxPool2d      [2, 2, 0]                     \r\n  4                -1  1     18560  models.common.Conv                      [32, 64, 3, 1]                \r\n  5                -1  1         0  torch.nn.modules.pooling.MaxPool2d      [2, 2, 0]                     \r\n  6                -1  1     73984  models.common.Conv                      [64, 128, 3, 1]               \r\n  7                -1  1         0  torch.nn.modules.pooling.MaxPool2d      [2, 2, 0]                     \r\n  8                -1  1    295424  models.common.Conv                      [128, 256, 3, 1]              \r\n  9                -1  1         0  torch.nn.modules.pooling.MaxPool2d      [2, 2, 0]                     \r\n 10                -1  1   1180672  models.common.Conv                      [256, 512, 3, 1]              \r\nTraceback (most recent call last):\r\n  File \"train.py\", line 518, in <module>\r\n    train(hyp, opt, device, tb_writer, wandb)\r\n  File \"train.py\", line 79, in train\r\n    model = Model(opt.cfg or ckpt['model'].yaml, ch=3, nc=nc).to(device)  # create\r\n  File \"/content/yolov3/models/yolo.py\", line 81, in __init__\r\n    self.model, self.save = parse_model
…
