…
olov3', 'yolov3', pretrained=True, force_reload=True).autoshape()  # for PIL/cv2/np inputs and NMS\r\n\r\n# Images\r\nimg1 = Image.open('zidane.jpg')\r\nimg2 = Image.open('bus.jpg')\r\nimgs = [img1, img2]  # batched list of images\r\n\r\n# Inference\r\nprediction = model(imgs, size=640)  # includes NMS\r\n```\r\n\r\nOutput:\r\n```\r\nDownloading: \"https://github.com/ultralytics/yolov3/archive/master.zip\" to /root/.cache/torch/hub/master.zip\r\n\r\n                 from  n    params  module                                  arguments                     \r\n  0                -1  1       928  models.common.Conv                      [3, 32, 3, 1]                 \r\n  1                -1  1     18560  models.common.Conv                      [32, 64, 3, 2]                \r\n  2                -1  1     20672  models.common.Bottleneck                [64, 64]                      \r\n  3                -1  1     73984  models.common.Conv                      [64, 128, 3, 2]               \r\n  4                -1  2    164608  models.common.Bottleneck                [128, 128]                    \r\n  5                -1  1    295424  models.common.Conv                      [128, 256, 3, 2]              \r\n  6                -1  8   2627584  models.common.Bottleneck                [256, 256]                    \r\n  7                -1  1   1180672  models.common.Conv                      [256, 512, 3, 2]              \r\n  8                -1  8  10498048  models.common.Bottleneck                [512, 512]                    \r\n  9                -1  1   4720640  models.common.Conv                      [512, 1024, 3, 2]             \r\n 10                -1  4  20983808  models.common.Bottleneck                [1024, 1024]                  \r\n 11                -1  1   5245952  models.common.Bottleneck                [1024, 1024, False]           \r\n 12                -1  1    525312  models.common.Conv                      [1024, 512, [1, 1]]           \r\n 13                -1  1   4720640  models.common.Conv                      [512, 1024, 3, 1]             \r\n 14                -1  1    525312  models.common.Conv                      [1024, 512, 1, 1]             \r\n 15                -1  1   4720640  models.common.Conv                      [512, 1024, 3, 1]             \r\n 16                -2  1    131584  models.common.Conv                      [512, 256, 1, 1]              \r\n 17                -1  1         0  torch.nn.modules.upsampling.Upsample    [None, 2, 'nearest']          \r\n 18           [-1, 8]  1         0  models.common.Concat                    [1]                           \r\n 19                -1  1   1377792  models.common.Bottleneck                [768, 512, False]             \r\n 20                -1  1   1312256  models.common.Bottleneck                [512, 512, False]             \r\n 21                -1  1    131584  models.common.Conv                      [512, 256, 1, 1]              \r\n 22                -1  1   1180672  models.common.Conv                      [256, 512, 3, 1]              \r\n 23                -2  1     33024  models.common.Conv                      [256, 128, 1, 1]              \r\n 24                -1  1         0  torch.nn.modules.upsampling.Upsample    [None, 2, 'nearest']          \r\n 25           [-1, 6]  1         0  models.common.Concat                    [1]                           \r\n 26                -1  1    344832  models.common.Bottleneck                [384, 256, False]             \r\n 27                -1  2    656896  models.common.Bottleneck                [256, 256, False]             \r\n 28      [27, 22, 15]  1    457725  models.yolo.Detect                      [80, [[10, 13, 16, 30, 33, 23], [30, 61, 62, 45, 59, 119], [116, 90, 156, 198, 373, 326]], [256, 512, 1024]]\r\nModel Summary: 333 layers, 61949149 parameters, 61949149 gradients, 156.4 GFLOPS\r\n\r\nTraceback (most recent call last):\r\n  File \"/root/.cache/torch/hub/ultralytics_yolov3_ma
…
