…
his would be the correct place to discuss about that.\r\n\r\nSo I want to produce profiling just like below but for the yolov3-tiny. I know how to do for yolov5 but the steps for producing the yolov3-tiny are not there and even I don't see the separate repo to do that. So can you please let me know about this @glenn-jocher ?\r\n\r\nThe thing to produce for yolov3-tiny is below\r\n```\r\nYOLOv5 🚀 v5.0-100-g4a8d238 torch 1.7.0a0+e85d494 CPU\r\n\r\n\r\n                 from  n    params  module                                  arguments                     \r\n  0                -1  1      3520  models.common.Focus                     [3, 32, 3]                    \r\n  1                -1  1     18560  models.common.Conv                      [32, 64, 3, 2]                \r\n  2                -1  1     18816  models.common.C3                        [64, 64, 1]                   \r\n  3                -1  1     73984  models.common.Conv                      [64, 128, 3, 2]               \r\n  4                -1  1    156928  models.common.C3                        [128, 128, 3]                 \r\n  5                -1  1    295424  models.common.Conv                      [128, 256, 3, 2]              \r\n  6                -1  1    625152  models.common.C3                        [256, 256, 3]                 \r\n  7                -1  1   1180672  models.common.Conv                      [256, 512, 3, 2]              \r\n  8                -1  1    656896  models.common.SPP                       [512, 512, [5, 9, 13]]        \r\n  9                -1  1   1182720  models.common.C3                        [512, 512, 1, False]          \r\n 10                -1  1    131584  models.common.Conv                      [512, 256, 1, 1]              \r\n 11                -1  1         0  torch.nn.modules.upsampling.Upsample    [None, 2, 'nearest']          \r\n 12           [-1, 6]  1         0  models.common.Concat                    [1]                           \r\n 13                -1  1    361984  models.common.C3                        [512, 256, 1, False]          \r\n 14                -1  1     33024  models.common.Conv                      [256, 128, 1, 1]              \r\n 15                -1  1         0  torch.nn.modules.upsampling.Upsample    [None, 2, 'nearest']          \r\n 16           [-1, 4]  1         0  models.common.Concat                    [1]                           \r\n 17                -1  1     90880  models.common.C3                        [256, 128, 1, False]          \r\n 18                -1  1    147712  models.common.Conv                      [128, 128, 3, 2]              \r\n 19          [-1, 14]  1         0  models.common.Concat                    [1]                           \r\n 20                -1  1    296448  models.common.C3                        [256, 256, 1, False]          \r\n 21                -1  1    590336  models.common.Conv                      [256, 256, 3, 2]              \r\n 22          [-1, 10]  1         0  models.common.Concat                    [1]                           \r\n 23                -1  1   1182720  models.common.C3                        [512, 512, 1, False]          \r\n 24      [17, 20, 23]  1    229245  Detect                                  [80, [[10, 13, 16, 30, 33, 23], [30, 61, 62, 45, 59, 119], [116, 90, 156, 198, 373, 326]], [128, 256, 512]]\r\nModel Summary: 283 layers, 7276605 parameters, 7276605 gradients\r\n\r\n time (ms)     GFLOPS     params  module\r\n    180.91       0.00       3520  models.common.Focus\r\n    153
…
