…
r0=0.01, lrf=0.2, momentum=0.937, weight_decay=0.0005, warmup_epochs=3.0, warmup_momentum=0.8, warmup_bias_lr=0.1, box=0.05, cls=0.5, cls_pw=1.0, obj=1.0, obj_pw=1.0, iou_t=0.2, anchor_t=4.0, fl_gamma=0.0, hsv_h=0.015, hsv_s=0.7, hsv_v=0.4, degrees=0.0, translate=0.1, scale=0.5, shear=0.0, perspective=0.0, flipud=0.0, fliplr=0.5, mosaic=1.0, mixup=0.0\r\nwandb: Install Weights & Biases for YOLOv3 logging with 'pip install wandb' (recommended)\r\n\r\n                 from  n    params  module                                  arguments                     \r\n  0                -1  1       232  models.common.Conv                      [3, 8, 3, 1]                  \r\n  1                -1  1       592  models.common.Conv                      [8, 8, 3, 2]                  \r\n  2                -1  1       344  models.common.Bottleneck                [8, 8]                        \r\n  3                -1  1       592  models.common.Conv                      [8, 8, 3, 2]                  \r\n  4                -1  1       344  models.common.Bottleneck                [8, 8]                        \r\n  5                -1  1       592  models.common.Conv                      [8, 8, 3, 2]                  \r\n  6                -1  1       344  models.common.Bottleneck                [8, 8]                        \r\n  7                -1  1      1184  models.common.Conv                      [8, 16, 3, 2]                 \r\n  8                -1  1      1328  models.common.Bottleneck                [16, 16]                      \r\n  9                -1  1      3504  models.common.Conv                      [16, 24, 3, 2]                \r\n 10                -1  1      2952  models.common.Bottleneck                [24, 24]                      \r\n 11                -1  1      2952  models.common.Bottleneck                [24, 24, False]               \r\n 12                -1  1       416  models.common.Conv                      [24, 16, [1, 1]]              \r\n 13                -1  1      3504  models.common.Conv                      [16, 24, 3, 1]                \r\n 14                -1  1       416  models.common.Conv                      [24, 16, 1, 1]                \r\n 15                -1  1      3504  models.common.Conv                      [16, 24, 3, 1]                \r\n 16                -2  1       144  models.common.Conv                      [16, 8, 1, 1]                 \r\n 17                -1  1         0  torch.nn.modules.upsampling.Upsample    [None, 2, 'nearest']          \r\n 18           [-1, 8]  1         0  models.common.Concat                    [1]                           \r\n 19                -1  1      1392  models.common.Bottleneck                [24, 16, False]               \r\n 20                -1  1      1328  models.common.Bottleneck                [16, 16, False]               \r\n 21                -1  1       144  models.common.Conv                      [16, 8, 1, 1]                 \r\n 22                -1  1      1184  models.common.Conv                      [8, 16, 3, 1]                 \r\n 23                -2  1        80  models.common.Conv                      [8, 8, 1, 1]                  \r\n 24                -1  1         0  torch.nn.modules.upsampling.Upsample    [None, 2, 'nearest']          \r\n 25           [-1, 6]  1         0  models.common.Concat                    [1]                           \r\n 26                -1  1       376  models.common.Bottleneck                [16, 8, False]                \r\n 27                -1  1       344  models.common.Bottleneck                [8, 8, False]                 \r\n 28      [27, 22, 15]  1      1071  models.yolo.Detect                      [2, [[10, 13, 16, 30, 33, 23], [30, 61, 62, 45, 59, 119], [116, 90, 156, 198, 373, 326]], [8, 16, 24]]\r\nModel Summary: 157 layers, 28863 parameters, 28863 gradients\r\n\r\nTransferred 24/212 items from yolov3.pt\r\nScaled weight_decay = 0.00046875\r\nOptimizer groups: 37 .bias, 37 conv.we
…
