…
running on this host (pop-os): /proc/driver/nvidia/version does not exist\r\n2022-01-17 16:05:03.585266: I tensorflow/core/platform/cpu_feature_guard.cc:142] This TensorFlow binary is optimized with oneAPI Deep Neural Network Library (oneDNN) to use the following CPU instructions in performance-critical operations:  AVX2 FMA\r\nTo enable them in other operations, rebuild TensorFlow with the appropriate compiler flags.\r\n2022-01-17 16:05:03.585612: I tensorflow/compiler/jit/xla_gpu_device.cc:99] Not creating XLA devices, tf_xla_enable_xla_devices not set\r\n  1                -1  1     18560  models.common.Conv                      [32, 64, 3, 2]                \r\n  2                -1  1     20672  models.common.Bottleneck                [64, 64]                      \r\n  3                -1  1     73984  models.common.Conv                      [64, 128, 3, 2]               \r\n  4                -1  2    164608  models.common.Bottleneck                [128, 128]                    \r\n  5                -1  1    295424  models.common.Conv                      [128, 256, 3, 2]              \r\n  6                -1  8   2627584  models.common.Bottleneck                [256, 256]                    \r\n  7                -1  1   1180672  models.common.Conv                      [256, 512, 3, 2]              \r\n  8                -1  8  10498048  models.common.Bottleneck                [512, 512]                    \r\n  9                -1  1   4720640  models.common.Conv                      [512, 1024, 3, 2]             \r\n 10                -1  4  20983808  models.common.Bottleneck                [1024, 1024]                  \r\n 11                -1  1   5245952  models.common.Bottleneck                [1024, 1024, False]           \r\n\r\nTensorFlow saved_model: export failure: Convolution with multiple kernels are not allowed.\r\n\r\nTensorFlow GraphDef: starting export with tensorflow 2.4.1...\r\n\r\nTensorFlow GraphDef: export failure: 'NoneType' object has no attribute 'inputs'\r\n\r\nTensorFlow Lite: starting export with tensorflow 2.4.1...\r\n\r\nTensorFlow Lite: export failure: 'NoneType'
…
