…
19 04:30:48 ####################\r\n12/31/2019 04:30:48 ############# Gradient Accumulation Info #############\r\n12/31/2019 04:30:48 number of step: 8780\r\n12/31/2019 04:30:48 number of grad grad_accumulation step: 1\r\n12/31/2019 04:30:48 adjusted number of step: 8780\r\n12/31/2019 04:30:48 ############# Gradient Accumulation Info #############\r\n12/31/2019 04:30:52 \r\n############# Model Arch of MT-DNN #############\r\nSANBertNetwork(\r\n  (dropout_list): ModuleList(\r\n    (0): DropoutWrapper()\r\n  )\r\n  (bert): BertModel(\r\n    (embeddings): BertEmbeddings(\r\n      (word_embeddings): Embedding(30522, 768)\r\n      (position_embeddings): Embedding(512, 768)\r\n      (token_type_embeddings): Embedding(2, 768)\r\n      (LayerNorm): BertLayerNorm()\r\n      (dropout): Dropout(p=0.1)\r\n    )\r\n    (encoder): BertEncoder(\r\n      (layer): ModuleList(\r\n        (0): BertLayer(\r\n          (attention): BertAttention(\r\n            (self): BertSelfAttention(\r\n              (query): Linear(in_features=768, out_features=768, bias=True)\r\n              (key): Linear(in_features=768, out_features=768, bias=True)\r\n              (value): Linear(in_features=768, out_features=768, bias=True)\r\n              (dropout): Dropout(p=0.1)\r\n            )\r\n            (output): BertSelfOutput(\r\n              (dense): Linear(in_features=768, out_features=768, bias=True)\r\n              (LayerNorm): BertLayerNorm()\r\n              (dropout): Dropout(p=0.1)\r\n            )\r\n          )\r\n          (intermediate): BertIntermediate(\r\n            (dense): Linear(in_features=768, out_features=3072, bias=True)\r\n          )\r\n          (output): BertOutput(\r\n            (dense): Linear(in_features=3072, out_features=768, bias=True)\r\n            (LayerNorm): BertLayerNorm()\r\n            (dropout): Dropout(p=0.1)\r\n          )\r\n        )\r\n        (1): BertLayer(\r\n          (attention): BertAttention(\r\n            (self): BertSelfAttention(\r\n              (query): Linear(in_features=768, out_features=768, bias=True)\r\n              (key): Linear(in_features=768, out_features=768, bias=True)\r\n              (value): Linear(in_features=768, out_features=768, bias=True)\r\n              (dropout): Dropout(p=0.1)\r\n            )\r\n            (output): BertSelfOutput(\r\n              (dense): Linear(in_features=768, out_features=768, bias=True)\r\n              (LayerNorm): BertLayerNorm()\r\n              (dropout): Dropout(p=0.1)\r\n            )\r\n          )\r\n          (intermediate): BertIntermediate(\r\n            (dense): Linear(in_features=768, out_features=3072, bias=True)\r\n          )\r\n          (output): BertOutput(\r\n            (dense): Linear(in_features=3072, out_features=768, bias=True)\r\n            (LayerNorm): BertLayerNorm()\r\n            (dropout): Dropout(p=0.1)\r\n          )\r\n        )\r\n        (2): BertLayer(\r\n          (attention): BertAttention(\r\n            (self): BertSelfAttention(\r\n              (query): Linear(in_features=768, out_features=768, bias=True)\r\n              (key): Linear(in_features=768, out_features=768, bias=True)\r\n              (value): Linear(in_features=768, out_features=768, bias=True)\r\n              (dropout): Dropout(p=0.1)\r\n            )\r\n            (output): BertSelfOutput(\r\n              (dense): Linear(in_features=768, out_features=768, bias=True)\r\n              (LayerNorm): BertLayerNorm()\r\n              (dropout): Dropout(p=0.1)\r\n            )\r\n          )\r\n          (intermediate): BertIntermediate(\r\n            (dense): Linear(in_features=768, out_features=3072, bias=True)\r\n          )\r\n          (output): BertOutput(\r\n            (dense): Linear(in_features=3072, out_features=768, bias=True)\r\n            (LayerNorm): BertLayerNorm()\r\n            (dropout): Dropout(p=0.1)\r\n          )\r\n        )\r\n        (3): BertLayer(\r\n          (attention): BertAttention(\r\n            (self): BertSelfAttention(\r\n              (query): Linear(in_features=768, out_features=768, bias=True)\r\n              (key): Linear(in_features=768, out_features=768, bias=True)\r\n              (value): Linear(in_features=768, out_features=768, bias=True)\r\n              (dropout): Dropout(p=0.1)\r\n            )\r\n            (output): BertSelfOutput(\r\n              (dense): Linear(in_features=768, out_features=768, bias=True)\r\n              (LayerNorm): BertLayerNorm()\r\n              (dropout): Dropout(p=0.1)\r\n            )\r\n          )\r\n          (intermediate): BertIntermediate(\r\n            (dense): Linear(in_features=768, out_features=3072, bias=True)\r\n          )\r\n          (output): BertOutput(\r\n            (dense): Linear(in_features=3072, out_features=768, bias=True)\r\n            (LayerNorm): BertLayerNorm()\r\n            (dropout): Dropout(p=0.1)\r\n          )\r\n        )\r\n        (4): BertLayer(\r\n          (attention): BertAttention(\r\n            (self): BertSelfAttention(\r\n              (query): Linear(in_features=768, out_features=768, bias=True)\r\n              (key): Linear(in_features=768, out_features=768, bias=True)\r\n              (value): Linear(in_features=768, out_features=768, bias=True)\r\n              (dropout): Dropout(p=0.1)\r\n            )\r\n            (output): BertSelfOutput(\r\n              (dense): Linear(in_features=768, out_features=768, bias=True)\r\n              (LayerNorm): BertLayerNorm()\r\n              (dropout): Dropout(p=0.1)\r\n            )\r\n          )\r\n          (intermediate): BertIntermediate(\r\n            (dense): Linear(in_features=768, out_features=3072, bias=True)\r\n          )\r\n          (output): BertOutput(\r\n            (dense): Linear(in_features=3072, out_features=768, bias=True)\r\n            (LayerNorm): BertLayerNorm()\r\n            (dropout): Dropout(p=0.1)\r\n          )\r\n        )\r\n        (5): BertLayer(\r\n          (attention): BertAttention(\r\n            (self): BertSelfAttention(\r\n              (query): Linear(in_features=768, out_features=768, bias=True)\r\n              (key): Linear(in_features=768, out_features=768, bias=True)\r\n              (value): Linear(in_features=768, out_features=768, bias=True)\r\n              (dropout): Dropout(p=0.1)\r\n            )\r\n            (output): BertSelfOutput(\r\n              (dense): Linear(in_features=768, out_features=768, bias=True)\r\n              (LayerNorm): BertLayerNorm()\r\n              (dropout): Dropout(p=0.1)\r\n            )\r\n          )\r\n          (intermediate): BertIntermediate(\r\n            (dense): Linear(in_features=768, out_features=3072, bias=True)\r\n          )\r\n          (output): BertOutput(\r\n            (dense): Linear(in_features=3072, out_features=768, bias=True)\r\n            (LayerNorm): BertLayerNorm()\r\n            (dropout): Dropout(p=0.1)\r\n          )\r\n        )\r\n        (6): BertLayer(\r\n          (attention): BertAttention(\r\n            (self): BertSelfAttention(\r\n              (query): Linear(in_features=768, out_features=768, bias=True)\r\n              (key): Linear(in_features=768, out_features=768, bias=True)\r\n              (value): Linear(in_features=768, out_features=768, bias=True)\r\n              (dropout): Dropout(p=0.1)\r\n            )\r\n            (output): BertSelfOutput(\r\n              (dense): Linear(in_features=768, out_features=768, bias=True)\r\n              (LayerNorm): BertLayerNorm()\r\n              (dropout): Dropout(p=0.1)\r\n            )\r\n          )\r\n          (intermediate): BertIntermediate(\r\n            (dense): Linear(in_features=768, out_features=3072, bias=True)\r\n          )\r\n          (output): BertOutput(\r\n            (dense): Linear(in_features=3072, out_features=768, bias=True)\r\n            (LayerNorm): BertLayerNorm()\r\n            (dropout): Dropout(p=0.1)\r\n          )\r\n        )\r\n        (7): BertLayer(\r\n          (attention): BertAttention(\r\n            (self): BertSelfAttention(\r\n              (query): Linear(in_features=768, out_features=768, bias=True)\r\n              (key): Linear(in_features=768, out_features=768, bias=True)\r\n              (value): Linear(in_features=768, out_features=768, bias=True)\r\n              (dropout): Dropout(p=0.1)\r\n            )\r\n            (output): BertSelfOutput(\r\n              (dense): Linear(in_features=768, out_features=768, bias=True)\r\n              (LayerNorm): BertLayerNorm()\r\n              (dropout): Dropout(p=0.1)\r\n            )\r\n          )\r\n          (intermediate): BertIntermediate(\r\n            (dense): Linear(in_features=768, out_features=3072, bias=True)\r\n          )\r\n          (output): BertOutput(\r\n            (dense): Linear(in_features=3072, out_features=768, bias=True)\r\n            (LayerNorm): BertLayerNorm()\r\n            (dropout): Dropout(p=0.1)\r\n          )\r\n        )\r\n        (8): BertLayer(\r\n          (attention): BertAttention(\r\n            (self): BertSelfAttention(\r\n              (query): Linear(in_features=768, out_features=768, bias=True)\r\n              (key): Linear(in_features=768, out_features=768, bias=True)\r\n              (value): Linear(in_features=768, out_features=768, bias=True)\r\n              (dropout): Dropout(p=0.1)\r\n            )\r\n            (output): BertSelfOutput(\r\n              (dense): Linear(in_features=768, out_features=768, bias=True)\r\n              (LayerNorm): BertLayerNorm()\r\n              (dropout): Dropout(p=0.1)\r\n            )\r\n          )\r\n          (intermediate): BertIntermediate(\r\n            (dense): Linear(in_features=768, out_features=3072, bias=True)\r\n          )\r\n          (output): BertOutput(\r\n            (dense): Linear(in_features=3072, out_features=768, bias=True)\r\n            (LayerNorm): BertLayerNorm()\r\n            (dropout): Dropout(p=0.1)\r\n          )\r\n        )\r\n        (9): BertLayer(\r\n          (attention): BertAttention(\r\n            (self): BertSelfAttention(\r\n              (query): Linear(in_features=768, out_features=768, bias=True)\r\n              (key): Linear(in_features=768, out_features=768, bias=True)\r\n              (value): Linear(in_features=768, out_features=768, bias=True)\r\n              (dropout): Dropout(p=0.1)\r\n            )\r\n            (output): BertSelfOutput(\r\n              (dense): Linear(in_features=768, out_features=768, bias=True)\r\n              (LayerNorm): BertLayerNorm()\r\n              (dropout): Dropout(p=0.1)\r\n            )\r\n          )\r\n          (intermediate): BertIntermediate(\r\n            (dense): Linear(in_features=768, out_features=3072, bias=True)\r\n          )\r\n          (output): BertOutput(\r\n            (dense): Linear(in_features=3072, out_features=768, bias=True)\r\n            (LayerNorm): BertLayerNorm()\r\n            (dropout): Dropout(p=0.1)\r\n          )\r\n        )\r\n        (10): BertLayer(\r\n          (attention): BertAttention(\r\n            (self): BertSelfAttention(\r\n              (query): Linear(in_features=768, out_features=768, bias=True)\r\n              (key): Linear(in_features=768, out_features=768, bias=True)\r\n              (value): Linear(in_features=768, out_features=768, bias=True)\r\n              (dropout): Dropout(p=0.1)\r\n            )\r\n            (output): BertSelfOutput(\r\n              (dense): Linear(in_features=768, out_features=768, bias=True)\r\n              (LayerNorm): BertLayerNorm()\r\n              (dropout): Dropout(p=0.1)\r\n            )\r\n          )\r\n          (intermediate): BertIntermediate(\r\n            (dense): Linear(in_features=768, out_features=3072, bias=True)\r\n          )\r\n          (output): BertOutput(\r\n            (dense): Linear(in_features=3072, out_features=768, bias=True)\r\n            (LayerNorm): BertLayerNorm()\r\n            (dropout): Dropout(p=0.1)\r\n          )\r\n        )\r\n        (11): BertLayer(\r\n          (attention): BertAttention(\r\n            (self): BertSelfAttention(\r\n              (query): Linear(in_features=768, out_features=768, bias=True)\r\n              (key): Linear(in_features=768, out_features=768, bias=True)\r\n              (value): Linear(in_features=768, out_features=768, bias=True)\r\n              (dropout): Dropout(p=0.1)\r\n            )\r\n            (output): BertSelfOutput(\r\n              (dense): Linear(in_features=768, out_features=768, bias=True)\r\n              (LayerNorm): BertLayerNorm()\r\n              (dropout): Dropout(p=0.1)\r\n            )\r\n          )\r\n          (intermediate): BertIntermediate(\r\n            (dense): Linear(in_features=768, out_features=3072, bias=True)\r\n          )\r\n          (output): BertOutput(\r\n            (dense): Linear(in_features=3072, out_features=768, bias=True)\r\n            (LayerNorm): BertLayerNorm()\r\n            (dropout): Dropout(p=0.1)\r\n          )\r\n        )\r\n      )\r\n    )\r\n    (pooler): BertPooler(\r\n      (dense): Linear(in_features=768, out_features=768, bias=True)\r\n      (activation): Tanh()\r\n    )\r\n  )\r\n  (scoring_list): ModuleList(\r\n    (0): Linear(in_features=768, out_features=12, bias=True)\r\n  )\r\n)\r\n\r\n12/31/2019 04:30:52 Total number of params: 109491468\r\n12/31/2019 04:30:52 At epoch 0\r\nTraceback (most recent call last):\r\n  File \"train.py\", line 434, in <module>\r\n    main()\r\n  File \"train.py\", line 368, in main\r\n    batch_meta, batch_data = next(all_iters[task_id])\r\n  File \"/home/<user>/mt-dnn/mt_dnn/batcher.py\"
…
