…
_p': 0.1, 'ema_opt': 0, 'ema_gamma': 0.995, 'have_lr_scheduler': True, 'multi_step_lr': '10,20,30', 'freeze_layers': -1, 'embedding_opt': 0, 'lr_gamma': 0.5, 'bert_l2norm': 0.0, 'scheduler_type': 'ms', 'output_dir': 'checkpoints/mt-dnn-rte_adamax_answer_opt0_gc0_ggc1_2019-04-16T1636', 'seed': 2018, 'task_config_path': 'configs/tasks_config.json', 'tasks_dropout_p': [0.1]}\r\n04/16/2019 04:36:15 ####################\r\n04/16/2019 04:36:35 \r\n############# Model Arch of MT-DNN #############\r\nSANBertNetwork(\r\n  (bert): BertModel(\r\n    (embeddings): BertEmbeddings(\r\n      (word_embeddings): Embedding(30522, 1024)\r\n      (position_embeddings): Embedding(512, 1024)\r\n      (token_type_embeddings): Embedding(2, 1024)\r\n      (LayerNorm): BertLayerNorm()\r\n      (dropout): Dropout(p=0.1)\r\n    )\r\n    (encoder): BertEncoder(\r\n      (layer): ModuleList(\r\n        (0): BertLayer(\r\n          (attention): BertAttention(\r\n            (self): BertSelfAttention(\r\n              (query): Linear(in_features=1024, out_features=1024, bias=True)\r\n              (key): Linear(in_features=1024, out_features=1024, bias=True)\r\n              (value): Linear(in_features=1024, out_features=1024, bias=True)\r\n              (dropout): Dropout(p=0.1)\r\n            )\r\n            (output): BertSelfOutput(\r\n              (dense): Linear(in_features=1024, out_features=1024, bias=True)\r\n              (LayerNorm): BertLayerNorm()\r\n              (dropout): Dropout(p=0.1)\r\n            )\r\n          )\r\n          (intermediate): BertIntermediate(\r\n            (dense): Linear(in_features=1024, out_features=4096, bias=True)\r\n          )\r\n          (output): BertOutput(\r\n            (dense): Linear(in_features=4096, out_features=1024, bias=True)\r\n            (LayerNorm): BertLayerNorm()\r\n            (dropout): Dropout(p=0.1)\r\n          )\r\n        )\r\n        (1): BertLayer(\r\n          (attention): BertAttention(\r\n            (self): BertSelfAttention(\r\n              (query): Linear(in_features=1024, out_features=1024, bias=True)\r\n              (key): Linear(in_features=1024, out_features=1024, bias=True)\r\n              (value): Linear(in_features=1024, out_features=1024, bias=True)\r\n              (dropout): Dropout(p=0.1)\r\n            )\r\n            (output): BertSelfOutput(\r\n              (dense): Linear(in_features=1024, out_features=1024, bias=True)\r\n              (LayerNorm): BertLayerNorm()\r\n              (dropout): Dropout(p=0.1)\r\n            )\r\n          )\r\n          (intermediate): BertIntermediate(\r\n            (dense): Linear(in_features=1024, out_features=4096, bias=True)\r\n          )\r\n          (output): BertOutput(\r\n            (dense): Linear(in_features=4096, out_features=1024, bias=True)\r\n            (LayerNorm): BertLayerNorm()\r\n            (dropout): Dropout(p=0.1)\r\n          )\r\n        )\r\n        (2): BertLayer(\r\n          (attention): BertAttention(\r\n            (self): BertSelfAttention(\r\n              (query): Linear(in_features=1024, out_features=1024, bias=True)\r\n              (key): Linear(in_features=1024, out_features=1024, bias=True)\r\n              (value): Linear(in_features=1024, out_features=1024, bias=True)\r\n              (dropout): Dropout(p=0.1)\r\n            )\r\n            (output): BertSelfOutput(\r\n              (dense): Linear(in_features=1024, out_features=1024, bias=True)\r\n              (LayerNorm): BertLayerNorm()\r\n              (dropout): Dropout(p=0.1)\r\n            )\r\n          )\r\n          (intermediate): BertIntermediate(\r\n            (dense): Linear(in_features=1024, out_features=4096, bias=True)\r\n          )\r\n          (output): BertOutput(\r\n            (dense): Linear(in_features=4096, out_features=1024, bias=True)\r\n            (LayerNorm): BertLayerNorm()\r\n            (dropout): Dropout(p=0.1)\r\n          )\r\n        )\r\n        (3): BertLayer(\r\n          (attention): BertAttention(\r\n            (self): BertSelfAttention(\r\n              (query): Linear(in_features=1024, out_features=1024, bias=True)\r\n              (key): Linear(in_features=1024, out_features=1024, bias=True)\r\n              (value): Linear(in_features=1024, out_features=1024, bias=True)\r\n              (dropout): Dropout(p=0.1)\r\n            )\r\n            (output): BertSelfOutput(\r\n              (dense): Linear(in_features=1024, out_features=1024, bias=True)\r\n              (LayerNorm): BertLayerNorm()\r\n              (dropout): Dropout(p=0.1)\r\n            )\r\n          )\r\n          (intermediate): BertIntermediate(\r\n            (dense): Linear(in_features=1024, out_features=4096, bias=True)\r\n          )\r\n          (output): BertOutput(\r\n            (dense): Linear(in_features=4096, out_features=1024, bias=True)\r\n            (LayerNorm): BertLayerNorm()\r\n            (dropout): Dropout(p=0.1)\r\n          )\r\n        )\r\n        (4): BertLayer(\r\n          (attention): BertAttention(\r\n            (self): BertSelfAttention(\r\n              (query): Linear(in_features=1024, out_features=1024, bias=True)\r\n              (key): Linear(in_features=1024, out_features=1024, bias=True)\r\n              (value): Linear(in_features=1024, out_features=1024, bias=True)\r\n              (dropout): Dropout(p=0.1)\r\n            )\r\n            (output): BertSelfOutput(\r\n              (dense): Linear(in_features=1024, out_features=1024, bias=True)\r\n              (LayerNorm): BertLayerNorm()\r\n              (dropout): Dropout(p=0.1)\r\n            )\r\n          )\r\n          (intermediate): BertIntermediate(\r\n            (dense): Linear(in_features=1024, out_features=4096, bias=True)\r\n          )\r\n          (output): BertOutput(\r\n            (dense): Linear(in_features=4096, out_features=1024, bias=True)\r\n            (LayerNorm): BertLayerNorm()\r\n            (dropout): Dropout(p=0.1)\r\n          )\r\n        )\r\n        (5): BertLayer(\r\n          (attention): BertAttention(\r\n            (self): BertSelfAttention(\r\n              (query): Linear(in_features=1024, out_features=1024, bias=True)\r\n              (key): Linear(in_features=1024, out_features=1024, bias=True)\r\n              (value): Linear(in_features=1024, out_features=1024, bias=True)\r\n              (dropout): Dropout(p=0.1)\r\n            )\r\n            (output): BertSelfOutput(\r\n              (dense): Linear(in_features=1024, out_features=1024, bias=True)\r\n              (LayerNorm): BertLayerNorm()\r\n              (dropout): Dropout(p=0.1)\r\n            )\r\n          )\r\n          (intermediate): BertIntermediate(\r\n            (dense): Linear(in_features=1024, out_features=4096, bias=True)\r\n          )\r\n          (output): BertOutput(\r\n            (dense): Linear(in_features=4096, out_features=1024, bias=True)\r\n            (LayerNorm): BertLayerNorm()\r\n            (dropout): Dropout(p=0.1)\r\n          )\r\n        )\r\n        (6): BertLayer(\r\n          (attention): BertAttention(\r\n            (self): BertSelfAttention(\r\n              (query): Linear(in_features=1024, out_features=1024, bias=True)\r\n              (key): Linear(in_features=1024, out_features=1024, bias=True)\r\n              (value): Linear(in_features=1024, out_features=1024, bias=True)\r\n              (dropout): Dropout(p=0.1)\r\n            )\r\n            (output): BertSelfOutput(\r\n              (dense): Linear(in_features=1024, out_features=1024, bias=True)\r\n              (LayerNorm): BertLayerNorm()\r\n              (dropout): Dropout(p=0.1)\r\n            )\r\n          )\r\n          (intermediate): BertIntermediate(\r\n            (dense): Linear(in_features=1024, out_features=4096, bias=True)\r\n          )\r\n          (output): BertOutput(\r\n            (dense): Linear(in_features=4096, out_features=1024, bias=True)\r\n            (LayerNorm): BertLayerNorm()\r\n            (dropout): Dropout(p=0.1)\r\n          )\r\n        )\r\n        (7): BertLayer(\r\n          (attention): BertAttention(\r\n            (self): BertSelfAttention(\r\n              (query): Linear(in_features=1024, out_features=1024, bias=True)\r\n              (key): Linear(in_features=1024, out_features=1024, bias=True)\r\n              (value): Linear(in_features=1024, out_features=1024, bias=True)\r\n              (dropout): Dropout(p=0.1)\r\n            )\r\n            (output): BertSelfOutput(\r\n              (dense): Linear(in_features=1024, out_features=1024, bias=True)\r\n              (LayerNorm): BertLayerNorm()\r\n              (dropout): Dropout(p=0.1)\r\n            )\r\n          )\r\n          (intermediate): BertIntermediate(\r\n            (dense): Linear(in_features=1024, out_features=4096, bias=True)\r\n          )\r\n          (output): BertOutput(\r\n            (dense): Linear(in_features=4096, out_features=1024, bias=True)\r\n            (LayerNorm): BertLayerNorm()\r\n            (dropout): Dropout(p=0.1)\r\n          )\r\n        )\r\n        (8): BertLayer(\r\n          (attention): BertAttention(\r\n            (self): BertSelfAttention(\r\n              (query): Linear(in_features=1024, out_features=1024, bias=True)\r\n              (key): Linear(in_features=1024, out_features=1024, bias=True)\r\n              (value): Linear(in_features=1024, out_features=1024, bias=True)\r\n              (dropout): Dropout(p=0.1)\r\n            )\r\n            (output): BertSelfOutput(\r\n              (dense): Linear(in_features=1024, out_features=1024, bias=True)\r\n              (LayerNorm): BertLayerNorm()\r\n              (dropout): Dropout(p=0.1)\r\n            )\r\n          )\r\n          (intermediate): BertIntermediate(\r\n            (dense): Linear(in_features=1024, out_features=4096, bias=True)\r\n          )\r\n          (output): BertOutput(\r\n            (dense): Linear(in_features=4096, out_features=1024, bias=True)\r\n            (LayerNorm): BertLayerNorm()\r\n            (dropout): Dropout(p=0.1)\r\n          )\r\n        )\r\n        (9): BertLayer(\r\n          (attention): BertAttention(\r\n            (self): BertSelfAttention(\r\n              (query): Linear(in_features=1024, out_features=1024, bias=True)\r\n              (key): Linear(in_features=1024, out_features=1024, bias=True)\r\n              (value): Linear(in_features=1024, out_features=1024, bias=True)\r\n              (dropout): Dropout(p=0.1)\r\n            )\r\n            (output): BertSelfOutput(\r\n              (dense): Linear(in_features=1024, out_features=1024, bias=True)\r\n              (LayerNorm): BertLayerNorm()\r\n              (dropout): Dropout(p=0.1)\r\n            )\r\n          )\r\n          (intermediate): BertIntermediate(\r\n            (dense): Linear(in_features=1024, out_features=4096, bias=True)\r\n          )\r\n          (output): BertOutput(\r\n            (dense): Linear(in_features=4096, out_features=1024, bias=True)\r\n            (LayerNorm): BertLayerNorm()\r\n            (dropout): Dropout(p=0.1)\r\n          )\r\n        )\r\n        (10): BertLayer(\r\n          (attention): BertAttention(\r\n            (self): BertSelfAttention(\r\n              (query): Linear(in_features=1024, out_features=1024, bias=True)\r\n              (key): Linear(in_features=1024, out_features=1024, bias=True)\r\n              (value): Linear(in_features=1024, out_features=1024, bias=True)\r\n              (dropout): Dropout(p=0.1)\r\n            )\r\n            (output): BertSelfOutput(\r\n              (dense): Linear(in_features=1024, out_features=1024, bias=True)\r\n              (LayerNorm): BertLayerNorm()\r\n              (dropout): Dropout(p=0.1)\r\n            )\r\n          )\r\n          (intermediate): BertIntermediate(\r\n            (dense): Linear(in_features=1024, out_features=4096, bias=True)\r\n          )\r\n          (output): BertOutput(\r\n            (dense): Linear(in_features=4096, out_features=1024, bias=True)\r\n            (LayerNorm): BertLayerNorm()\r\n            (dropout): Dropout(p=0.1)\r\n          )\r\n        )\r\n        (11): BertLayer(\r\n          (attention): BertAttention(\r\n            (self): BertSelfAttention(\r\n              (query): Linear(in_features=1024, out_features=1024, bias=True)\r\n              (key): Linear(in_features=1024, out_features=1024, bias=True)\r\n              (value): Linear(in_features=1024, out_features=1024, bias=True)\r\n              (dropout): Dropout(p=0.1)\r\n            )\r\n            (output): BertSelfOutput(\r\n              (dense): Linear(in_features=1024, out_features=1024, bias=True)\r\n              (LayerNorm): BertLayerNorm()\r\n              (dropout): Dropout(p=0.1)\r\n            )\r\n          )\r\n          (intermediate): BertIntermediate(\r\n            (dense): Linear(in_features=1024, out_features=4096, bias=True)\r\n          )\r\n          (output): BertOutput(\r\n            (dense): Linear(in_features=4096, out_features=1024, bias=True)\r\n            (LayerNorm): BertLayerNorm()\r\n            (dropout): Dropout(p=0.1)\r\n          )\r\n        )\r\n        (12): BertLayer(\r\n          (attention): BertAttention(\r\n            (self): BertSelfAttention(\r\n              (query): Linear(in_features=1024, out_features=1024, bias=True)\r\n              (key): Linear(in_features=1024, out_features=1024, bias=True)\r\n              (value): Linear(in_features=1024, out_features=1024, bias=True)\r\n              (dropout): Dropout(p=0.1)\r\n            )\r\n            (output): BertSelfOutput(\r\n              (dense): Linear(in_features=1024, out_features=1024, bias=True)\r\n              (LayerNorm): BertLayerNorm()\r\n              (dropout): Dropout(p=0.1)\r\n            )\r\n          )\r\n          (intermediate): BertIntermediate(\r\n            (dense): Linear(in_features=1024, out_features=4096, bias=True)\r\n          )\r\n          (output): BertOutput(\r\n            (dense): Linear(in_features=4096, out_features=1024, bias=True)\r\n            (LayerNorm): BertLayerNorm()\r\n            (dropout): Dropout(p=0.1)\r\n          )\r\n        )\r\n        (13): BertLayer(\r\n          (attention): BertAttention(\r\n            (self): BertSelfAttention(\r\n              (query): Linear(in_features=1024, out_features=1024, bias=True)\r\n              (key): Linear(in_features=1024, out_features=1024, bias=True)\r\n              (value): Linear(in_features=1024, out_features=1024, bias=True)\r\n              (dropout): Dropout(p=0.1)\r\n            )\r\n            (output): BertSelfOutput(\r\n              (dense): Linear(in_features=1024, out_features=1024, bias=True)\r\n              (LayerNorm): BertLayerNorm()\r\n              (dropout): Dropout(p=0.1)\r\n            )\r\n          )\r\n          (intermediate): BertIntermediate(\r\n            (dense): Linear(in_features=1024, out_features=4096, bias=True)\r\n          )\r\n          (output): BertOutput(\r\n            (dense): Linear(in_features=4096, out_features=1024, bias=True)\r\n            (LayerNorm): BertLayerNorm()\r\n            (dropout): Dropout(p=0.1)\r\n          )\r\n        )\r\n        (14): BertLayer(\r\n          (attention): BertAttention(\r\n            (self): BertSelfAttention(\r\n              (query): Linear(in_features=1024, out_features=1024, bias=True)\r\n              (key): Linear(in_features=1024, out_features=1024, bias=True)\r\n              (value): Linear(in_features=1024, out_features=1024, bias=True)\r\n              (dropout): Dropout(p=0.1)\r\n            )\r\n            (output): BertSelfOutput(\r\n              (dense): Linear(in_features=1024, out_features=1024, bias=True)\r\n              (LayerNorm): BertLayerNorm()\r\n              (dropout): Dropout(p=0.1)\r\n            )\r\n          )\r\n          (intermediate): BertIntermediate(\r\n            (dense): Linear(in_features=1024, out_features=4096, bias=True)\r\n          )\r\n          (output): BertOutput(\r\n            (dense): Linear(in_features=4096, out_features=1024, bias=True)\r\n            (LayerNorm): BertLayerNorm()\r\n            (dropout): Dropout(p=0.1)\r\n          )\r\n        )\r\n        (15): BertLayer(\r\n          (attention): BertAttention(\r\n            (self): BertSelfAttention(\r\n              (query): Linear(in_features=1024, out_features=1024, bias=True)\r\n              (key): Linear(in_features=1024, out_features=1024, bias=True)\r\n              (value): Linear(in_features=1024, out_features=1024, bias=True)\r\n              (dropout): Dropout(p=0.1)\r\n            )\r\n            (output): BertSelfOutput(\r\n              (dense): Linear(in_features=1024, out_features=1024, bias=True)\r\n              (LayerNorm): BertLayerNorm()\r\n              (dropout): Dropout(p=0.1)\r\n            )\r\n          )\r\n          (intermediate): BertIntermediate(\r\n            (dense): Linear(in_features=1024, out_features=4096, bias=True)\r\n          )\r\n          (output): BertOutput(\r\n            (dense): Linear(in_features=4096, out_features=1024, bias=True)\r\n            (LayerNorm): BertLayerNorm()\r\n            (dropout): Dropout(p=0.1)\r\n          )\r\n        )\r\n        (16): BertLayer(\r\n          (attention): BertAttention(\r\n            (self): BertSelfAttention(\r\n              (query): Linear(in_features=1024, out_features=1024, bias=True)\r\n              (key): Linear(in_features=1024, out_features=1024, bias=True)\r\n              (value): Linear(in_features=1024, out_features=1024, bias=True)\r\n              (dropout): Dropout(p=0.1)\r\n            )\r\n            (output): BertSelfOutput(\r\n              (dense): Linear(in_features=1024, out_features=1024, bias=True)\r\n              (LayerNorm): BertLayerNorm()\r\n              (dropout): Dropout(p=0.1)\r\n            )\r\n          )\r\n          (intermediate): BertIntermediate(\r\n            (dense): Linear(in_features=1024, out_features=4096, bias=True)\r\n          )\r\n          (output): BertOutput(\r\n            (dense): Linear(in_features=4096, out_features=1024, bias=True)\r\n            (LayerNorm): BertLayerNorm()\r\n            (dropout): Dropout(p=0.1)\r\n          )\r\n        )\r\n        (17): BertLayer(\r\n          (attention): BertAttention(\r\n            (self): BertSelfAttention(\r\n              (query): Linear(in_features=1024, out_features=1024, bias=True)\r\n              (key): Linear(in_features=1024, out_features=1024, bias=True)\r\n              (value): Linear(in_features=1024, out_features=1024, bias=True)\r\n              (dropout): Dropout(p=0.1)\r\n            )\r\n            (output): BertSelfOutput(\r\n              (dense): Linear(in_features=1024, out_features=1024, bias=True)\r\n              (LayerNorm): BertLayerNorm()\r\n              (dropout): Dropout(p=0.1)\r\n            )\r\n          )\r\n          (intermediate): BertIntermediate(\r\n            (dense): Linear(in_features=1024, out_features=4096, bias=True)\r\n          )\r\n          (output): BertOutput(\r\n            (dense): Linear(in_features=4096, out_features=1024, bias=True)\r\n            (LayerNorm): BertLayerNorm()\r\n            (dropout): Dropout(p=0.1)\r\n          )\r\n        )\r\n        (18): BertLayer(\r\n          (attention): BertAttention(\r\n            (self): BertSelfAttention(\r\n              (query): Linear(in_features=1024, out_features=1024, bias=True)\r\n              (key): Linear(in_features=1024, out_features=1024, bias=True)\r\n              (value): Linear(in_features=1024, out_features=1024, bias=True)\r\n              (dropout): Dropout(p=0.1)\r\n            )\r\n            (output): BertSelfOutput(\r\n              (dense): Linear(in_features=1024, out_features=1024, bias=True)\r\n              (LayerNorm): BertLayerNorm()\r\n              (dropout): Dropout(p=0.1)\r\n            )\r\n          )\r\n          (intermediate): BertIntermediate(\r\n            (dense): Linear(in_features=1024, out_features=4096, bias=True)\r\n          )\r\n          (output): BertOutput(\r\n            (dense): Linear(in_features=4096, out_features=1024, bias=True)\r\n            (LayerNorm): BertLayerNorm()\r\n            (dropout): Dropout(p=0.1)\r\n          )\r\n        )\r\n        (19): BertLayer(\r\n          (attention): BertAttention(\r\n            (self): BertSelfAttention(\r\n              (query): Linear(in_features=1024, out_features=1024, bias=True)\r\n              (key): Linear(in_features=1024, out_features=1024, bias=True)\r\n              (value): Linear(in_features=1024, out_features=1024, bias=True)\r\n              (dropout): Dropout(p=0.1)\r\n            )\r\n            (output): BertSelfOutput(\r\n              (dense): Linear(in_features=1024, out_features=1024, bias=True)\r\n              (LayerNorm): BertLayerNorm()\r\n              (dropout): Dropout(p=0.1)\r\n            )\r\n          )\r\n          (intermediate): BertIntermediate(\r\n            (dense): Linear(in_features=1024, out_features=4096, bias=True)\r\n          )\r\n          (output): BertOutput(\r\n            (dense): Linear(in_features=4096, out_features=1024, bias=True)\r\n            (LayerNorm): BertLayerNorm()\r\n            (dropout): Dropout(p=0.1)\r\n          )\r\n        )\r\n        (20): BertLayer(\r\n          (attention): BertAttention(\r\n            (self): BertSelfAttention(\r\n              (query): Linear(in_features=1024, out_features=1024, bias=True)\r\n              (key): Linear(in_features=1024, out_features=1024, bias=True)\r\n              (value): Linear(in_features=1024, out_features=1024, bias=True)\r\n              (dropout): Dropout(p=0.1)\r\n            )\r\n            (output): BertSelfOutput(\r\n              (dense): Linear(in_features=1024, out_features=1024, bias=True)\r\n              (LayerNorm): BertLayerNorm()\r\n              (dropout): Dropout(p=0.1)\r\n            )\r\n          )\r\n          (intermediate): BertIntermediate(\r\n            (dense): Linear(in_features=1024, out_features=4096, bias=True)\r\n          )\r\n          (output): BertOutput(\r\n            (dense): Linear(in_features=4096, out_features=1024, bias=True)\r\n            (LayerNorm): BertLayerNorm()\r\n            (dropout): Dropout(p=0.1)\r\n          )\r\n        )\r\n        (21): BertLayer(\r\n          (attention): BertAttention(\r\n            (self): BertSelfAttention(\r\n              (query): Linear(in_features=1024, out_features=1024, bias=True)\r\n              (key): Linear(in_features=1024, out_features=1024, bias=True)\r\n              (value): Linear(in_features=1024, out_features=1024, bias=True)\r\n              (dropout): Dropout(p=0.1)\r\n            )\r\n            (output): BertSelfOutput(\r\n              (dense): Linear(in_features=1024, out_features=1024, bias=True)\r\n              (LayerNorm): BertLayerNorm()\r\n              (dropout): Dropout(p=0.1)\r\n            )\r\n          )\r\n          (intermediate): BertIntermediate(\r\n            (dense): Linear(in_features=1024, out_features=4096, bias=True)\r\n          )\r\n          (output): BertOutput(\r\n            (dense): Linear(in_features=4096, out_features=1024, bias=True)\r\n            (LayerNorm): BertLayerNorm()\r\n            (dropout): Dropout(p=0.1)\r\n          )\r\n        )\r\n        (22): BertLayer(\r\n          (attention): BertAttention(\r\n            (self): BertSelfAttention(\r\n              (query): Linear(in_features=1024, out_features=1024, bias=True)\r\n              (key): Linear(in_features=1024, out_features=1024, bias=True)\r\n              (value): Linear(in_features=1024, out_features=1024, bias=True)\r\n              (dropout): Dropout(p=0.1)\r\n            )\r\n            (output): BertSelfOutput(\r\n              (dense): Linear(in_features=1024, out_features=1024, bias=True)\r\n              (LayerNorm): BertLayerNorm()\r\n              (dropout): Dropout(p=0.1)\r\n            )\r\n          )\r\n          (intermediate): BertIntermediate(\r\n            (dense): Linear(in_features=1024, out_features=4096, bias=True)\r\n          )\r\n          (output): BertOutput(\r\n            (dense): Linear(in_features=4096, out_features=1024, bias=True)\r\n            (LayerNorm): BertLayerNorm()\r\n            (dropout): Dropout(p=0.1)\r\n          )\r\n        )\r\n        (23): BertLayer(\r\n          (attention): BertAttention(\r\n            (self): BertSelfAttention(\r\n              (query): Linear(in_features=1024, out_features=1024, bias=True)\r\n              (key): Linear(in_features=1024, out_features=1024, bias=True)\r\n              (value): Linear(in_features=1024, out_features=1024, bias=True)\r\n              (dropout): Dropout(p=0.1)\r\n            )\r\n            (output): BertSelfOutput(\r\n              (dense): Linear(in_features=1024, out_features=1024, bias=True)\r\n              (LayerNorm): BertLayerNorm()\r\n              (dropout): Dropout(p=0.1)\r\n            )\r\n          )\r\n          (intermediate): BertIntermediate(\r\n            (dense): Linear(in_features=1024, out_features=4096, bias=True)\r\n          )\r\n          (output): BertOutput(\r\n            (dense): Linear(in_features=4096, out_features=1024, bias=True)\r\n            (LayerNorm): BertLayerNorm()\r\n            (dropout): Dropout(p=0.1)\r\n          )\r\n        )\r\n      )\r\n    )\r\n    (pooler): BertPooler(\r\n      (dense): Linear(in_features=1024, out_features=1024, bias=True)\r\n      (activation): Tanh()\r\n    )\r\n  )\r\n  (scoring_list): ModuleList(\r\n    (0): SANClassifier(\r\n      (dropout): DropoutWrapper()\r\n      (query_wsum): SelfAttnWrapper(\r\n        (att): LinearSelfAttn(\r\n          (linear): Linear(in_features=1024, out_features=1, bias=True)\r\n          (dropout): DropoutWrapper()\r\n        )\r\n      )\r\n      (attn): FlatSimilarityWrapper(\r\n        (att_dropout): DropoutWrapper()\r\n        (score_func): BilinearFlatSim(\r\n          (linear): Linear(in_features=1024, out_features=1024, bias=True)\r\n          (dropout): DropoutWrapper()\r\n        )\r\n      )\r\n      (rnn): GRUCell(1024, 1024)\r\n      (classifier): Classifier(\r\n        (dropout): DropoutWrapper()\r\n        (proj): Linear(in_features=4096, out_features=3, bias=True)\r\n      )\r\n    )\r\n    (1): SANClassifier(\r\n      (dropout): DropoutWrapper()\r\n      (query_wsum): SelfAttnWrapper(\r\n        (att): LinearSelfAttn(\r\n          (linear): Linear(in_features=1024, out_features=1, bias=True)\r\n          (dropout): DropoutWrapper()\r\n        )\r\n      )\r\n      (attn): FlatSimilarityWrapper(\r\n        (att_dropout): DropoutWrapper()\r\n        (score_func): BilinearFlatSim(\r\n          (linear): Linear(in_features=1024, out_features=1024, bias=True)\r\n          (dropout): DropoutWrapper()\r\n        )\r\n      )\r\n      (rnn): GRUCell(1024, 1024)\r\n      (classifier): Classifier(\r\n        (dropout): DropoutWrapper()\r\n        (proj): Linear(in_features=4096, out_features=2, bias=True)\r\n      )\r\n    )\r\n    (2): SANClassifier(\r\n      (dropout): DropoutWrapper()\r\n      (query_wsum): SelfAttnWrapper(\r\n        (att): LinearSelfAttn(\r\n          (linear): Linear(in_features=1024, out_features=1, bias=True)\r\n          (dropout): DropoutWrapper()\r\n        )\r\n      )\r\n      (attn): FlatSimilarityWrapper(\r\n        (att_dropout): DropoutWrapper()\r\n        (score_func): BilinearFlatSim(\r\n          (linear): Linear(in_features=1024, out_features=1024, bias=True)\r\n          (dropout): DropoutWrapper()\r\n        )\r\n      )\r\n      (rnn): GRUCell(1024, 1024)\r\n      (classifier): Classifier(\r\n        (dropout): DropoutWrapper()\r\n        (proj): Linear(in_features=4096, out_features=2, bias=True)\r\n      )\r\n    )\r\n  )\r\n)\r\n\r\n04/16/2019 04:36:35 Total number of params: 357215242\r\n\r\n04/16/2019 04:36:36 At epoch 0\r\nTraceback (most recent call last):\r\n  File \"../train.py\", line 354, in <module>\r\n    main()\r\n  File \"../train.py\", line 316, in main\r\n    model.update(batch_meta, batch_data)\r\n  File \"../mt_dnn/model.py\", 
…
