…
ndexError: tensors used as indices must be long, byte or bool tensors.\r\nHere are the output:\r\nPython 3.7.3 (default, Mar 27 2019, 17:13:21) [MSC v.1915 64 bit (AMD64)]\r\nType \"copyright\", \"credits\" or \"license\" for more information.\r\n\r\nIPython 7.4.0 -- An enhanced Interactive Python.\r\n\r\nrunfile('C:/Users/john/Desktop/ML/torchani-master/torchani/examples/nnp_training.py', wdir='C:/Users/john/Desktop/ML/torchani-master/torchani/examples')\r\nSelf atomic energies:  tensor([ -0.6078, -38.0497, -54.7041, -75.1696], dtype=torch.float64)\r\nANIModel(\r\n  (0): Sequential(\r\n    (0): Linear(in_features=384, out_features=160, bias=True)\r\n    (1): CELU(alpha=0.1)\r\n    (2): Linear(in_features=160, out_features=128, bias=True)\r\n    (3): CELU(alpha=0.1)\r\n    (4): Linear(in_features=128, out_features=96, bias=True)\r\n    (5): CELU(alpha=0.1)\r\n    (6): Linear(in_features=96, out_features=1, bias=True)\r\n  )\r\n  (1): Sequential(\r\n    (0): Linear(in_features=384, out_features=144, bias=True)\r\n    (1): CELU(alpha=0.1)\r\n    (2): Linear(in_features=144, out_features=112, bias=True)\r\n    (3): CELU(alpha=0.1)\r\n    (4): Linear(in_features=112, out_features=96, bias=True)\r\n    (5): CELU(alpha=0.1)\r\n    (6): Linear(in_features=96, out_features=1, bias=True)\r\n  )\r\n  (2): Sequential(\r\n    (0): Linear(in_features=384, out_features=128, bias=True)\r\n    (1): CELU(alpha=0.1)\r\n    (2): Linear(in_features=128, out_features=112, bias=True)\r\n    (3): CELU(alpha=0.1)\r\n    (4): Linear(in_features=112, out_features=96, bias=True)\r\n    (5): CELU(alpha=0.1)\r\n    (6): Linear(in_features=96, out_features=1, bias=True)\r\n  )\r\n  (3): Sequential(\r\n    (0): Linear(in_features=384, out_features=128, bias=True)\r\n    (1): CELU(alpha=0.1)\r\n    (2): Linear(in_features=128, out_features=112, bias=True)\r\n    (3): CELU(alpha=0.1)\r\n    (4): Linear(in_features=112, out_features=96, bias=True)\r\n    (5): CELU(alpha=0.1)\r\n    (6): Linear(in_features=96, out_features=1, bias=True)\r\n  )\r\n)\r\ntraining starting from epoch 1\r\nTraceback (most recent call last):\r\n\r\n  File \"<ipython-input-1-2cb1151f51e5>\", line 1, in <module>\r\n    runfile('C:/Users/john/Desktop/ML/torchani-master/torchani/examples/nnp_training.py', wdir='C:/Users/john/Desktop/ML/torchani-master/torchani/examples')\r\n\r\n  File \"C:\\Users\\john\\Anaconda3\
…
